neuronas/con_img/cnn_fut_uefa_img.pth (torch, 923372 bytes, 8 tensors)

conv1.weight f4 [12, 3, 3, 3]
0.18106109 0.17204477 0.13151461 0.17089567 0.055824973 -0.048283618 0.173527 -0.03708039
0.06371035 0.014490824 -0.17748599 -0.10779818 -0.04750334 -0.12899859 -0.18869609 -0.15581083
-0.116125874 -0.042544607 -0.18706806 -0.0108856885 0.019763736 -0.056817453 0.106970616 0.039608948
0.17702807 -0.09645203 -0.1131348 -0.01887255 -0.028084863 0.040161755 -0.037301444 0.010561453
0.095947005 0.11220969 -0.06434021 0.020166708 -0.058513176 0.15826994 0.11157198 0.1307697
0.16530345 -0.04501992 0.056483485 0.17846827 0.092630945 0.075957134 0.08568173 0.16022629
-0.10099069 0.09256648 -0.028777845 0.10485637 0.16695443 -0.17454104 0.15226223 -0.058872093
0.030915134 -0.006727157 0.1265543 0.03991531 -0.18903674 0.17214331 -0.14185888 -0.15679695
-0.14756924 0.18781817 0.17886661 -0.07068693 -0.16738756 -0.024214247 -0.15607823 0.088461556
0.05145955 -0.003828113 0.10379785 0.119119175 -0.020191595 -0.10527057 0.1515753 -0.1898385
-0.08838753 0.013917595 0.19235128 0.17676598 0.02578084 0.19013369 0.14402883 -0.1245923
0.18048248 0.1487786 0.06936682 -0.18700646 -0.08540769 -0.14361529 -0.15590121 0.0081461165
0.03247915 0.057993393 0.008678413 0.061872378 -0.09885197 0.0074095074 -0.051211663 0.18231733
-0.16664946 0.082248956 -0.12556763 0.19008178 0.092886165 -0.09050839 -0.08624399 0.12525247
-0.14542674 -0.16923706 -0.11089302 -0.061655723 0.013217008 0.010585466 -0.023181442 0.15770435
0.14521566 0.016616363 -0.13921109 0.036906436 0.033556275 0.11421565 -0.043153953 0.008366283
0.12373139 -0.09180709 0.13144901 0.05968326 0.06723457 0.01239514 0.049259644 0.12599175
-0.07045626 0.028666351 -0.15858269 -0.193376 0.05131021 -0.06576444 -0.09534136 0.034919526
0.15641986 0.022168612 -0.068382226 0.19086705 -0.11570793 -0.0813288 0.17795007 -0.122851744
-0.12092356 0.07046996 0.0154614085 0.025094206 0.13508606 -0.09586142 -0.07596069 0.17741942
0.07282653 -0.19095261 -0.1083951 0.0057685496 -0.06516722 0.12895615 0.034751344 -0.1354191
-0.12939781 0.095188774 -0.1047053 0.06440761 0.10158001 -0.19107941 -0.07739895 -0.17414026
0.111831054 0.055370502 -0.11464968 0.07267086 -0.05120708 -0.0776738 0.06933757 -0.07351389
0.036080185 0.10715231 -0.18301924 -0.09168005 -0.14580928 -0.07272454 0.11459271 -0.0364242
-0.090173155 0.19007099 0.12774868 0.16471523 -0.062273063 0.15358172 -0.03140406 -0.037374288
0.17314471 -0.12465746 0.006812374 -0.037312996 0.12926611 0.042536754 0.0030759794 -0.07070113
-0.014068618 -0.18576781 0.06654753 0.1279683 -0.16278806 -0.07073254 -0.1782042 -0.18399101
-0.043467324 0.07135296 0.017573046 -0.08102678 0.16595212 0.09689153 0.04308535 0.112813234
-0.123817414 -0.17955986 -0.08435887 0.10769486 0.046554398 0.16017288 0.15586255 0.047140848
0.06635793 0.087151796 0.014325775 -0.027506966 -0.032182187 -0.04484699 -0.06508726 -0.13082133
-0.12565531 -0.12190943 -0.0043689883 0.17943689 -0.1115422 -0.120637335 0.08924837 0.08963233
-0.17339693 0.13827997 0.13922876 0.1316206 -0.12050542 0.11502908 0.15022065 0.07777132
00000000: 1468 393e 812c 303e c4ab 063e 46ff 2e3e
00000010: baa8 643d 0bc5 45bd 10b1 313e 9be1 17bd
00000020: 927a 823d ec6a 6d3c e3be 35be 4bc5 dcbd
00000030: dd92 42bd 3518 04be 8c39 41be e08c 1fbe
00000040: 67d3 edbd 4143 2ebd c58e 3fbe e359 32bc
00000050: 8fe7 a13c 6bb9 68bd 6913 db3d fe3c 223d
00000060: d946 353e a488 c5bd 38b3 e7bd 9b9a 9abc
00000070: 3a12 e6bc a780 243d 66c9 18bd f209 2d3c
00000080: dd7f c43d 32ce e53d cdc4 83bd a734 a53c
00000090: 83ab 6fbd 8411 223e da7f e43d 7ee8 053e
000000a0: 4f45 293e cf66 38bd 3a5b 673d 63c0 363e
000000b0: 4bb5 bd3d 6a8f 9b3d e779 af3d 5c12 243e
000000c0: 35d4 cebd 7f93 bd3d 84bf ebbc f0be d63d
000000d0: 1af6 2a3e e3ba 32be a1ea 1b3e dd23 71bd
000000e0: bc41 fd3c 7c6f dcbb 7397 013e 3c7e 233d
000000f0: d992 41be 5646 303e 7443 11be 618f 20be
00000100: 641c 17be 6853 403e cf28 373e 4fc4 90bd
00000110: a567 2bbe f55c c6bc f9d2 1fbe 552b b53d
00000120: 40c7 523d 14e1 7abb f893 d43d c1f4 f33d
00000130: d868 a5bc 1998 d7bd 8e36 1b3e 0665 42be
00000140: 8504 b5bd a006 643c bcf7 443e 2402 353e
00000150: 5732 d33c 68b2 423e 4b7c 133e 3f2a ffbd
00000160: 66d0 383e 6b59 183e 3110 8e3d 9f7e 3fbe
00000170: 3aea aebd e30f 13be 91a4 1fbe 4a77 053c
00000180: db08 053d 7b8a 6d3d e72f 0e3c e46d 7d3d
00000190: e772 cabd 74cb f23b 52c3 51bd 65b1 3a3e
000001a0: 28a6 2abe 2472 a83d cd94 00be cca4 423e
000001b0: 1a3b be3d 765c b9bd b0a0 b0bd 2f42 003e
000001c0: bfea 14be 7b4c 2dbe e11b e3bd b68a 7cbd
000001d0: 268c 583c aa6e 2d3c 02e7 bdbc 407d 213e
000001e0: 6ab3 143e 0a1f 883c 5a8d 0ebe 342b 173d
000001f0: 4e72 093d e5e9 e93d 33c2 30bd bc12 093c
00000200: e266 fd3d 5b05 bcbd 929a 063e 6f76 743d
00000210: 47b2 893d fc14 4b3c 7bc4 493d fb03 013e
00000220: 5f4b 90bd b2d5 ea3c 8063 22be 5c04 46be
00000230: a82a 523d 82af 86bd 5542 c3bd c707 0f3d
00000240: 872c 203e f39a b53c fb0b 8cbd a772 433e
00000250: 47f8 ecbd b78f a6bd 8b38 363e b299 fbbd
00000260: c5a6 f7bd 8e52 903d d951 7d3c 5d92 cd3c
00000270: 0054 0a3e fe52 c4bd 4791 9bbd 70ad 353e
00000280: 1326 953d 1589 43be 40fe ddbd 1a06 bd3b
00000290: 6476 85bd 150d 043e 6d57 0e3d 4eab 0abe
000002a0: dc80 04be 55f2 c23d bb6f d6bd 23e8 833d
000002b0: 2e09 d03d 52aa 43be 5783 9ebd d351 32be
000002c0: ae07 e53d 2ecc 623d 74cd eabd 76d4 943d
000002d0: 84be 51bd 7113 9fbd db00 8e3d 738e 96bd
000002e0: d1c8 133d ac72 db3d 6569 3bbe c0c2 bbbd
000002f0: 074f 15be 9bf0 94bd 95af ea3d 8b31 15bd
00000300: b4ac b8bd f8a1 423e 8dd0 023e 1cab 283e
00000310: 0a12 7fbd 8744 1d3e 8ba1 00bd c815 19bd
00000320: d94c 313e 694c ffbd 563a df3b 83d5 18bd
00000330: 565e 043e 053b 2e3d 5f96 493b c1cb 90bd
00000340: 1080 66bc eb39 3ebe 124a 883d 1f0a 033e
00000350: eab1 26be 39dc 90bd 297b 36be 2468 3cbe
00000360: cb0a 32bd 8021 923d 59f5 8f3c 5ef1 a5bd
00000370: 5aef 293e 116f c63d 447a 303d a00a e73d
00000380: fc93 fdbd 8ade 37be 58c4 acbd 1f8f dc3d
00000390: d3af 3e3d 5c04 243e 6f9a 1f3e c316 413d
000003a0: abe6 873d a47c b23d a8b6 6a3c 4a56 e1bc
000003b0: 78d1 03bd 7ab1 37bd 784c 85bd 07f6 05be
000003c0: c9ab 00be a7ab f9bd bb29 8fbb 4ebe 373e
000003d0: 3d70 e4bd b510 f7bd d9c7 b63d 2891 b73d
000003e0: f78e 31be 4499 0d3e fc91 0e3e 8dc7 063e
000003f0: 8ccb f6bd 5e94 eb3d 71d3 193e 9246 9f3d

conv1.bias f4 [12]
0.079654895 -0.12794752 0.032855924 0.04714063 -0.008976115 0.05118099 0.08497092 -0.06079286
0.117763825 -0.1825523 0.08608619 -0.018938668
00000000: 1b22 a33d ad04 03be ef93 063d 8916 413d
00000010: 8e10 13bc 28a3 513d 3c05 ae3d ef01 79bd
00000020: 292e f13d fdee 3abe f54d b03d 4425 9bbc

conv2.weight f4 [12, 12, 3, 3]
0.045767598 0.014231691 -0.095160946 -0.09521911 -0.027254421 -0.035945054 0.057402447 0.082129724
0.08897567 -0.004940808 0.036011804 -0.047829673 -0.046592887 -0.007077629 0.07256079 -0.06862309
-0.0025850825 0.009632825 0.0044332272 -0.011967368 -0.085850775 -0.0112113785 -0.0040874653 -0.025227647
0.043711618 0.07977735 -0.07491737 0.0034958879 -0.014954903 -0.006736999 -0.09532116 -0.036845487
-0.083339386 0.066795416 -0.0935925 0.004399708 -0.013018748 0.051324647 0.090127364 0.04002639
0.059130214 0.01068376 -0.086872324 -0.024110243 0.08593442 0.06223709 -0.018518269 -0.06871965
0.005436846 0.07603644 -0.023086704 -0.096848145 0.05417847 0.04336866 0.021918667 0.057527825
0.024184603 0.07735648 0.06880142 0.028529013 -0.024229832 0.032663874 -0.032735303 0.078897834
-0.0031983752 -0.045577437 0.04290936 -0.08401287 0.04836902 0.086601354 0.013926306 -0.032946803
-0.055122428 0.05890927 -0.0815387 0.08848168 -0.09289542 0.08974392 0.06244356 0.08556879
-0.07854984 -0.0047805696 -0.044007353 0.008665394 0.0046589384 -0.05852359 0.075732715 0.010892429
-0.037057687 -0.0022776152 0.049357228 0.0893837 0.052026358 -0.073458195 0.00783684 0.03682265
0.05130091 -0.039484806 -0.0980222 0.03648746 0.011047013 0.08947375 -0.023456082 0.019075908
0.044819664 -0.098537475 -0.039719548 -0.098666586 -0.08448402 -0.02399314 0.08864935 0.061637886
0.04103438 -0.05376433 -0.043921337 0.06369784 -0.04402689 0.0010981846 -0.07227901 -0.051388357
-0.03263637 0.062159035 -0.013113306 0.07051847 -0.08017628 -0.010891582 -0.07458884 -0.09578542
-0.031857774 -0.06683872 -0.05537688 -0.093093835 -0.07455702 -0.024135003 0.01955285 -0.068055086
0.048810318 0.08565432 -0.033457514 -0.08637923 -0.0796813 0.034361694 0.037414487 -0.01271063
-0.04405024 0.062287435 0.065276 -0.043210655 0.07208581 0.0465467 -0.054186087 0.08863767
-0.09122172 0.051303495 -0.04465612 -0.07099826 0.034940917 -0.049839266 0.015605414 -0.0018511447
-0.0031573202 0.06738393 0.090703554 -0.051195472 -0.061477084 -0.010753752 -0.019333005 0.05658596
0.024705939 -0.070622236 -0.012750875 0.011355683 0.07322512 -0.044952687 0.016081577 -0.07445389
0.018093575 0.0051284195 -0.014576396 0.03462646 -0.08509073 -0.016383126 0.0762294 0.07162246
0.011814545 0.0028925212 -0.008819301 0.06733318 -0.054114968 0.06297244 0.04484877 -0.009292813
0.068002276 -0.07242726 -0.07465775 -0.08073266 0.040897064 0.0292486 -0.008775977 -0.008291234
0.054682706 -0.008491765 -0.046099603 -0.053293325 -0.03430894 -0.015137872 0.05376875 0.06059439
0.07412239 0.029326662 0.021390593 0.059773423 0.091808885 -0.05421905 0.013100245 0.02527794
-0.05606018 -0.018382385 -0.089727215 -0.068507366 0.008332204 0.08411664 -0.06701824 -0.09121267
-0.058079887 0.0017847104 -0.08180889 -0.07259639 -0.075117745 -0.038831964 0.002724085 0.0946291
0.065542504 0.087518744 -0.08964807 0.012041192 -0.043368362 -0.008356606 0.05219234 0.06873049
0.080087915 0.013372626 0.06444877 -0.03262087 -0.028434256 -0.06558932 -0.037821513 0.0383824
0.03418673 0.049372964 0.0029668338 0.05960579 -0.0618145 -0.06704322 -0.035772294 0.09813559
00000000: ce76 3b3d 0a2c 693c bee3 c2bd 3d02 c3bd
00000010: aa44 dfbc 1f3b 13bd d41e 6b3d a133 a83d
00000020: e038 b63d 80e6 a1bb 1d81 133d 0ce9 43bd
00000030: 2fd8 3ebd 75eb e7bb c09a 943d 438a 8cbd
00000040: 7d6a 29bb ffd2 1d3c 9b44 913b c812 44bc
00000050: 88d2 afbd eeaf 37bc 25f0 85bb 36aa cebc
00000060: f40a 333d 4f62 a33d 476e 99bd 441b 653b
00000070: 6905 75bc 0bc2 dcbb be37 c3bd 4beb 16bd
00000080: d7ad aabd 09cc 883d 6dad bfbd 6d2b 903b
00000090: 964c 55bc cb39 523d b294 b83d b6f2 233d
000000a0: 8632 723d f00a 2f3c 1eea b1bd d882 c5bc
000000b0: 63fe af3d 52ec 7e3d a0b3 97bc e3bc 8cbd
000000c0: 9227 b23b feb8 9b3d 5420 bdbc 5258 c6bd
000000d0: 3eea 5d3d 56a3 313d c78e b33c 4ca2 6b3d
000000e0: ca1e c63c 136d 9e3d c2e7 8c3d adb5 e93c
000000f0: a47d c6bc 8eca 053d 7415 06bd 3095 a13d
00000100: d59b 51bb 68af 3abd bac1 2f3d f10e acbd
00000110: 981e 463d 0d5c b13d 292b 643c 3af3 06bd
00000120: 0ec8 61bd d94a 713d c3fd a6bd e235 b53d
00000130: f43f bebd a9cb b73d d2c4 7f3d b13e af3d
00000140: bdde a0bd 53a6 9cbb 0e41 34bd 4cf9 0d3c
00000150: 02aa 983b 6fb6 6fbd c119 9b3d 2976 323c
00000160: cdc9 17bd 0b44 15bb ce2a 4a3d cd0e b73d
00000170: 9719 553d 4071 96bd 1766 003c 59d3 163d
00000180: e720 523d d2ba 21bd ddbf c8bd e073 153d
00000190: 88fe 343c 033e b73d f826 c0bc 1445 9c3c
000001a0: d394 373d 04ce c9bd f7b0 22bd b511 cabd
000001b0: f505 adbd 438d c4bc ca8d b53d 0278 7c3d
000001c0: ab13 283d fc37 5cbd dce6 33bd 0374 823d
000001d0: 8a55 34bd f6f0 8f3a 0507 94bd 997c 52bd
000001e0: b7ad 05bd 799a 7e3d 31d9 56bc fd6b 903d
000001f0: 7633 a4bd 9b72 32bc 09c2 98bd 252b c4bd
00000200: 4c7d 02bd bde2 88bd ded2 62bd fba7 bebd
00000210: 5ab1 98bd c5b6 c5bc 4c2d a03c 7760 8bbd
00000220: 54ed 473d 886b af3d bf0a 09bd 98e7 b0bd
00000230: f32f a3bd d9be 0c3d ef3f 193d 3f40 50bc
00000240: 066e 34bd 1c21 7f3d 6caf 853d a8fd 30bd
00000250: baa1 933d c1a7 3e3d 3bf2 5dbd ab87 b53d
00000260: 74d2 babd 9d23 523d 56e9 36bd 8967 91bd
00000270: 351e 0f3d 4224 4cbd daad 7f3c 1ca2 f2ba
00000280: 0beb 4ebb 9600 8a3d c9c2 b93d 58b2 51bd
00000290: 65cf 7bbd 8130 30bc 4060 9ebc aec6 673d
000002a0: 1c64 ca3c 64a2 90bd 0ce9 50bc 300d 3a3c
000002b0: 0df7 953d 4f20 38bd 83bd 833c 487b 98bd
000002c0: fa38 943c 4d0c a83b d6d1 6ebc 7ad4 0d3d
000002d0: 0c44 aebd e835 86bc 291e 9c3d ccae 923d
000002e0: cb91 413c 7490 3d3b d47e 10bc fae5 893d
000002f0: a8a7 5dbd b2f7 803d 58b3 373d e240 18bc
00000300: c744 8b3d be54 94bd 2ae6 98bd 2a57 a5bd
00000310: ae83 273d c39a ef3c 1ec9 0fbc f5d7 07bc
00000320: f9fa 5f3d 0b21 0bbc f0d2 3cbd 1a4a 5abd
00000330: 8887 0cbd d604 78bc 9f3c 5c3d d331 783d
00000340: 7bcd 973d 783e f03c 533b af3c fad4 743d
00000350: 4c06 bc3d cb14 5ebd 69a2 563c af13 cf3c
00000360: 5c9f 65bd a896 96bc e7c2 b7bd 974d 8cbd
00000370: cc83 083c 5845 ac3d dc40 89bd b5cd babd
00000380: 2de5 6dbd f2ec e93a 6b8b a7bd 6bad 94bd
00000390: 55d7 99bd 440e 1fbd 9086 323b e7cc c13d
000003a0: 263b 863d 073d b33d 6899 b7bd 6b48 453c
000003b0: 06a3 31bd 25ea 08bc a3c7 553d 92c2 8c3d
000003c0: 2205 a43d dc18 5b3c b7fd 833d 769d 05bd
000003d0: f5ee e8bc b253 86bd bbea 1abd dd36 1d3d
000003e0: 6207 0c3d 4e3b 4a3d 366f 423b 3325 743d
000003f0: 3331 7dbd f54d 89bd f885 12bd 50fb c83d

conv2.bias f4 [12]
0.08738124 -0.064993665 0.09242245 -0.090736926 0.016436314 -0.009919796 0.03191969 0.03958709
-0.05612107 -0.054009017 0.013045516 -0.06228018
00000000: f0f4 b23d 661b 85bd fb47 bd3d 48d4 b9bd
00000010: 73a5 863c a486 22bc 39be 023d 1326 223d
00000020: 35df 65bd 8f38 5dbd dcbc 553c 8119 7fbd

conv3.weight f4 [24, 12, 3, 3]
-0.026114654 0.041942805 -0.012779215 0.08593309 0.014910742 0.08267679 -0.034428183 0.07356796
-0.04006265 -0.08874213 -0.07430779 -0.01825649 0.05794373 -0.06782486 -0.03210203 0.075667575
-0.08296852 0.050823078 0.060627118 -0.06265749 -0.055734143 -0.060263284 -0.08813262 -0.08245264
-0.05726276 0.07054583 0.08633716 -0.015324362 0.024910219 -0.09518755 -0.004000008 0.065887354
-0.0437666 0.01867118 -0.09331947 -0.059463385 0.05292709 0.09619028 0.009758485 -0.036126852
-0.06432617 -0.061034903 -0.044098683 0.027790252 -0.034452744 -0.06417971 0.0751449 -0.025861194
0.010422935 0.028332235 -0.08979031 0.0820245 -0.037128862 0.07797692 -0.008909768 -0.09137822
-0.033073816 -0.0025214902 -0.07643689 -0.0020077575 -0.0042504817 0.062425636 0.061969597 0.0057493593
-0.090159975 -0.024533475 0.08942847 -0.047200494 -0.0086128935 0.08704598 -0.08995261 -0.061715826
0.05695989 -0.03939927 -0.003609347 -0.06963011 0.058809403 -0.04197738 0.096708156 -0.03791504
0.046470966 -0.04922567 0.09293832 0.051945116 -0.014221844 -0.009453049 0.09377861 -0.062980235
0.080791906 -0.012389119 0.007144773 0.07981292 -0.025410123 -0.044231225 0.011254043 0.050702255
-0.024829326 0.07570061 -0.015603837 -0.0636914 -0.02778978 0.042296723 -0.06123872 -0.024443317
0.05516058 0.08303096 0.015763454 -0.07851128 -0.07813155 -0.0019552675 -0.0044050654 0.09362196
0.04368692 -0.05754692 0.031429052 0.059133764 -0.03691701 0.082427755 0.04976121 -0.06620442
0.08149296 0.075380854 0.049942397 0.054167423 -0.02130646 0.056000024 -0.010585023 0.073277734
-0.014494115 -0.0075634755 -0.07851905 -0.057245187 0.054188784 0.03903844 -0.039859675 0.051597588
0.07686585 -0.06071501 0.020683417 -0.0018678908 0.06558188 0.0545965 -0.03554645 -0.066416174
0.030338738 0.06899945 0.07489748 -0.042734575 0.006276003 -0.007777812 -0.0030210547 0.022154152
0.07863155 0.0025020982 0.061467793 0.0540592 -0.0053342236 -0.093096346 0.00030549508 0.006478002
0.006917056 -0.07245123 -0.027523318 0.08603186 -0.04733915 -0.09692485 -0.015243667 -0.07874925
-0.01867012 0.09567163 -0.05447393 -0.09309307 0.05501 -0.05668085 -0.07746366 -0.004625497
0.09345458 0.017762376 0.028036809 -0.061736953 0.051919404 0.005464578 -0.09037708 -0.023084104
-0.021865403 -0.04122601 0.08247027 -0.02923654 -0.013713762 -0.035579845 0.073119536 0.08205392
-0.049389075 0.03937474 -0.0381513 0.039133586 0.08320656 -0.05291172 0.031740993 -0.0668852
0.050838977 0.0026916584 0.026262777 -0.030252866 0.030394232 0.03005981 0.0865421 0.005990822
0.066486016 -0.040239736 -0.03436901 0.041197836 0.099015854 0.027198577 -0.013533657 0.059007496
0.05613665 0.0744088 0.08095389 -0.08617486 -0.043467414 0.053701613 0.08453912 -0.09477825
0.0839396 0.058369722 -0.043405436 0.019599488 0.05004705 -0.054197874 -0.028717969 0.09102479
-0.08273685 -0.059074476 -0.06359723 0.06758828 -0.08667275 -0.026626527 -0.067978 -0.013057895
-0.059733305 -0.06145399 0.034694713 -0.057430893 -0.0024130994 -0.09737757 0.014847196 0.07932079
0.033053853 0.049936686 0.046398457 0.0328809 -0.06499332 -0.074573666 -0.03214156 0.07168166
00000000: 66ee d5bc 38cc 2b3d ea5f 51bc b0fd af3d
00000010: 2f4c 743c 7352 a93d 9104 0dbd ccaa 963d
00000020: bc18 24bd 6fbe b5bd af2e 98bd a28e 95bc
00000030: 6856 6d3d c3e7 8abd 6b7d 03bd 9af7 9a3d
00000040: 66eb a9bd dc2b 503d 2454 783d 9252 80bd
00000050: 7c49 64bd a2d6 76bd e07e b4bd eedc a8bd
00000060: 5b8c 6abd 557a 903d 89d1 b03d 0813 7bbc
00000070: 8410 cc3c b1f1 c2bd 8012 83bb f3ef 863d
00000080: 9b44 33bd 4df4 983c 471e bfbd e18f 73bd
00000090: 14ca 583d 69ff c43d 0de2 1f3c c0f9 13bd
000000a0: 70bd 83bd bcff 79bd d2a0 34bd 62a8 e33c
000000b0: 521e 0dbd a770 83bd 92e5 993d dbda d3bc
000000c0: f5c4 2a3c 0119 e83c fbe3 b7bd 76fc a73d
000000d0: 6f14 18bd 5db2 9f3d 47fa 11bc 8124 bbbd
000000e0: 6978 07bd 963f 25bb f28a 9cbd 9594 03bb
000000f0: a047 8bbb 06b2 7f3d d5d3 7d3d 1f65 bc3b
00000100: cba5 b8bd 6dfa c8bc 4626 b73d 4e55 41bd
00000110: 181d 0dbc 2a45 b23d 1339 b8bd bcc9 7cbd
00000120: c64e 693d 2161 21bd cb8a 6cbb 3b9a 8ebd
00000130: 21e2 703d 79f0 2bbd ed0e c63d cd4c 1bbd
00000140: 5758 3e3d dba0 49bd 7256 be3d 67c4 543d
00000150: bd02 69bc f6e0 1abc 000f c03d c8fb 80bd
00000160: 3a76 a53d bbfb 4abc b31e ea3b f574 a33d
00000170: e428 d0bc cd2b 35bd e162 383c 2bad 4f3d
00000180: df66 cbbc ec08 9b3d 3ca7 7fbc a370 82bd
00000190: 65a7 e3bc 543f 2d3d 74d5 7abd 5a3d c8bc
000001a0: 0ff0 613d 230c aa3d 5c22 813c 86ca a0bd
000001b0: 6f03 a0bd f223 00bb 5e58 90bb dfbc bf3d
000001c0: 0ef1 323d 52b6 6bbd c0bb 003d 3f36 723d
000001d0: 4a36 17bd e2cf a83d 69d2 4b3d 2f96 87bd
000001e0: c8e5 a63d 4761 9a3d 6690 4c3d a9de 5d3d
000001f0: e38a aebc 4860 653d ce6c 2dbc a312 963d
00000200: b978 6dbc 08d7 f7bb 98ce a0bd ee79 6abd
00000210: 0ff5 5d3d c5e6 1f3d e643 23bd fe57 533d
00000220: d86b 9d3d 4db0 78bd 4570 a93c 04d4 f4ba
00000230: cb4f 863d 94a0 5f3d 2899 11bd 3405 88bd
00000240: f288 f83c 954f 8d3d da63 993d 730a 2fbd
00000250: eea6 cd3b 04dd febb e3fc 45bb a07c b53c
00000260: 9409 a13d 3efa 233b a7c5 7b3d 2e6d 5d3d
00000270: b6ca aebb 4ca9 bebd db2a a039 6b45 d43b
00000280: 79a8 e23b 4f61 94bd 9578 e1bc 7931 b03d
00000290: b2e6 41bd 8980 c6bd 93c0 79bc 4947 a1bd
000002a0: 14f2 98bc 7def c33d 0e20 5fbd 94a7 bebd
000002b0: 2a52 613d 2e2a 68bd 44a5 9ebd 7b91 97bb
000002c0: 1d65 bf3d 6782 913c 73ad e53c e3df 7cbd
000002d0: 71a9 543d 3410 b33b 9e17 b9bd e01a bdbc
000002e0: 131f b3bc 9bdc 28bd 2ce6 a83d 7881 efbc
000002f0: b0af 60bc 2cbc 11bd b2bf 953d e30b a83d
00000300: 334c 4abd 6847 213d 8a44 1cbd 8a4a 203d
00000310: 3368 aa3d f6b9 58bd d802 023d 1cfb 88bd
00000320: 883c 503d 8966 303b 0925 d73c dcd4 f7bc
00000330: 53fd f83c fe3f f63c fc3c b13d a84e c43b
00000340: d229 883d 6cd2 24bd 85c6 0cbd 10bf 283d
00000350: d3c8 ca3d 8dcf de3c 46bc 5dbc d8b1 713d
00000360: 8bef 653d a463 983d 27cb a53d 727c b0bd
00000370: e30a 32bd 39f6 5b3d d922 ad3d 191b c2bd
00000380: 86e8 ab3d 1715 6f3d e6c9 31bd 1b8f a03c
00000390: 23fe 4c3d 97fe 5dbd f241 ebbc 356b ba3d
000003a0: f071 a9bd 14f8 71bd 443f 82bd b96b 8a3d
000003b0: 7c81 b1bd e01f dabc 0d38 8bbd c8f0 55bc
000003c0: e9aa 74bd 2eb7 7bbd 0b1c 0e3d a83c 6bbd
000003d0: 1725 1ebb e46d c7bd a741 733c f072 a23d
000003e0: 7a63 073d 698a 4c3d 4f0c 3e3d 1fae 063d
000003f0: 381b 85bd 14ba 98bd dea6 03bd d6cd 923d

conv3.bias f4 [24]
0.035772387 -0.01723222 -0.03409497 -0.053393584 0.06300831 -0.048662003 -0.030390823 0.007952761
-0.018569345 0.032505006 0.03502643 -0.018813696 0.06971666 0.09120047 0.07151875 0.032597836
0.06921341 -0.07770729 -0.09041842 -0.07150717 -0.05247351 -0.06481154 0.035182007 -0.084135205
00000000: 1186 123d 962a 8dbc 2ba7 0bbd 3bb3 5abd
00000010: 800a 813d cf51 47bd 2df6 f8bc 4c4c 023c
00000020: bd1e 98bc f823 053d e077 0f3d 2e1f 9abc
00000030: 9cc7 8e3d 50c7 ba3d 6c78 923d 4f85 053d
00000040: c3bf 8d3d 0025 9fbd 4b2d b9bd 5a72 92bd
00000050: 77ee 56bd eabb 84bd 021b 103d 144f acbd

fc.weight f4 [3, 75264]
0.0036770168 0.0083046155 0.0022757328 0.005122465 -0.0010772938 -0.00039995904 0.0042700395 0.0048042876
-0.0028822522 0.0010636922 -0.0019086166 -0.0030960517 0.0054086493 0.0058174296 -0.0010928278 0.0002711253
0.0040773638 0.0045428765 -0.0005926145 -0.00036045208 0.004104769 0.0014421332 0.001985939 0.00090220664
-0.0011037762 0.0014950198 -0.00085334637 0.0007566025 0.003612921 0.0034949924 -0.003984609 -0.004656721
0.0031198421 -0.00023705042 0.0006502996 -0.0010918683 0.0020738065 0.0049873763 0.0033571944 0.0058186054
-0.0014394026 0.00094836036 0.007494062 -0.0034072218 0.0047837324 0.002650841 -0.0002916181 0.0016386572
0.0024026707 -0.0037867618 -0.0047195875 0.0013052205 -0.0013551754 0.0038162956 0.0031527441 -0.00205292
0.0031646062 -0.002785061 0.0022163356 2.6412017e-05 0.0057464633 5.2937423e-05 0.0026748523 2.0453357e-05
0.002567251 -0.0008536188 0.0030754437 0.0067268326 0.0024302762 -0.0006904766 0.005643616 -0.0044964864
0.004236576 0.005164235 -0.0026162425 0.00123789 -0.0036711667 0.0044551156 0.004255755 0.0007577074
0.0036261368 0.002893462 -0.002724179 -0.0026980557 -0.00088965776 -0.0009876487 0.0031645189 0.004907136
0.0007366905 0.0032538462 0.0012512675 0.00027207518 0.0049839066 -0.005412286 0.0033273613 0.0013830491
0.004214645 0.00049443735 0.0040564453 -0.005711125 0.00684207 -0.0025181593 -0.004608924 -0.0006059931
-0.0027763713 -0.0002442952 -0.0035381573 -0.0027555958 0.0030994564 0.00037755864 -0.0040955204 0.0014238989
-0.0015285696 -0.002077443 0.0006224059 0.002717806 -0.0031443888 0.0001542923 0.0017244266 0.0027452759
0.00017092927 -0.00010679907 0.0031070276 0.00060826633 0.0062624053 0.002039264 -0.00029708663 0.0019702658
0.001128906 0.001489672 0.0040679667 0.00010205002 0.00063548953 0.005213925 0.0010151181 0.0025551866
0.0032836823 0.003755679 0.0054144524 0.0038491774 0.005229406 0.0059612347 0.002042788 0.0017961827
0.006638336 9.175495e-05 0.00087224075 0.0011984028 0.0045715976 0.0053443513 -0.0040179035 0.0071660536
0.0049685016 3.410579e-05 0.007984439 -0.0012717482 0.0044197384 0.00045344039 0.0028875729 0.0046023373
0.0017870492 -0.00095695857 0.005852908 0.0004698296 0.006080212 0.00018642782 0.0047236187 0.003186106
0.004519071 -0.005914077 2.738263e-05 0.0019842398 0.0056894827 -0.0015257187 0.0050305137 -0.006194157
0.001464627 0.0013797308 0.0034278913 0.0015552192 0.0024533751 -0.0025609273 0.004083024 0.0024540348
0.0021524504 0.0049167466 0.00075356016 0.0032946954 0.001909152 -0.0016510405 -0.00025624793 0.0004330718
-0.0019987521 0.000759367 0.004577461 -0.0052709086 -0.002657193 -0.0044911453 0.0033450294 0.005022454
0.0052343993 0.0008933387 0.0007384225 0.006955334 0.00087562064 0.0011356007 0.005654148 -0.0032852474
0.00052514113 0.0031503097 0.0036237445 0.0034810738 0.0014785405 0.0031320811 0.0071621956 -0.00051102514
0.002883579 0.003509037 -0.0023968092 0.003062612 -0.0021231598 0.0030431552 0.0024383427 -0.0034203534
0.003912548 -0.0014734324 0.005287598 0.0017677618 0.002921698 0.0021645185 0.0025307452 -0.0053001894
0.0029724184 -0.001303033 0.0006289494 0.0029265534 0.006436347 0.00468914 0.003128273 0.0018671195
0.0030980217 0.00054001017 0.005001813 -0.0011942743 0.0022531876 0.0041129934 0.005019104 0.0006259224
0.0051894 0.00072990207 0.004949758 -0.0051070545 0.00137774 0.004931187 1.0490621e-05 0.004033524
00000000: 1bfa 703b 1510 083c 7624 153b 5ada a73b
00000010: fb33 8dba 98b1 d1b9 b0eb 8b3b 496d 9d3b
00000020: 2be4 3cbb 966b 8b3a 8c2a faba 21e7 4abb
00000030: 0a3b b13b 23a0 be3b 373d 8fba d225 8e39
00000040: 689b 853b 69dc 943b b059 1bba 0ffb bcb9
00000050: 4c81 863b f605 bd3a 8726 023b 1082 6c3a
00000060: 95ac 90ba 8af4 c33a 1bb3 5fba bc56 463a
00000070: c2c6 6c3b 3e0c 653b 5391 82bb 6897 98bb
00000080: 4476 4c3b bd90 78b9 de78 2a3a 051d 8fba
00000090: b3e8 073b 256d a33b 6004 5c3b 00aa be3b
000000a0: 56aa bcba 639b 783a c090 f53b b24b 5fbb
000000b0: dbc0 9c3b bbb9 2d3b 52e4 98b9 36c8 d63a
000000c0: 2076 1d3b 522b 78bb c5a6 9abb ef13 ab3a
000000d0: 24a0 b1ba d11a 7a3b 459e 4e3b 488a 06bb
000000e0: 4865 4f3b 9285 36bb f13f 113b 608f dd37
000000f0: d44c bc3b 2009 5e38 934c 2f3b 4093 ab37
00000100: 533f 283b 63c5 5fba 628d 493b c36c dc3b
00000110: 4545 1f3b 1a01 35ba 15ee b83b 4357 93bb
00000120: fad2 8a3b be38 a93b 4475 2bbb b240 a23a
00000130: f597 70bb 38fc 913b dc73 8b3b e2a0 463a
00000140: 7ba4 6d3b 3da0 3d3b 2488 32bb ddd1 30bb
00000150: ec37 69ba fe73 81ba d163 4f3b 0acc a03b
00000160: 761e 413a 7b3e 553b 9201 a43a 50a5 8e39
00000170: 0a50 a33b 8c59 b1bb dc0f 5a3b 6d47 b53a
00000180: 011b 8a3b 219d 013a eeeb 843b 6424 bbbb
00000190: 7133 e03b b407 25bb 7506 97bb 82db 1eba
000001a0: c8f3 35bb bf14 80b9 6ee0 67bb 3a97 34bb
000001b0: 4020 4b3b 10f3 c539 b733 86bb 1ea2 ba3a
000001c0: 495a c8ba b625 08bb f428 233a 381d 323b
000001d0: 1712 4ebb 86c9 2139 2806 e23a 16ea 333b
000001e0: 7a3b 3339 50f9 dfb8 469f 4b3b 1074 1f3a
000001f0: dd34 cd3b 2ca5 053b 4bc2 9bb9 931f 013b
00000200: cdf7 933a 1941 c33a 944c 853b b003 d638
00000210: fb96 263a 93d9 aa3b b60d 853a eb74 273b
00000220: 0c33 573b d621 763b b86b b13b 7b42 7c3b
00000230: 705b ab3b 7656 c33b 4ce0 053b e46d eb3a
00000240: 6686 d93b 906c c038 16a7 643a ba13 9d3a
00000250: 57cd 953b ab1f af3b 9ea8 83bb 37d1 ea3b
00000260: d0ce a23b d00c 0f38 2ad1 023c cab0 a6ba
00000270: 74d3 903b bdbb ed39 6f3d 3d3b 34cf 963b
00000280: 6c3b ea3a 67dc 7aba c0c9 bf3b 7653 f639
00000290: 843c c73b d67b 4339 96c8 9a3b fdcd 503b
000002a0: b714 943b e0ca c1bb c0b3 e537 050a 023b
000002b0: d76e ba3b a0fa c7ba 02d7 a43b 5bf8 cabb
000002c0: baf8 bf3a 15d8 b43a 79a6 603b 7fd8 cb3a
000002d0: cec8 203b 3bd5 27bb e3ca 853b dfd3 203b
000002e0: 2010 0d3b a91c a13b 918a 453a d1eb 573b
000002f0: 833c fa3a ba67 d8ba 0459 86b9 ea0d e339
00000300: 7ffd 02bb 4210 473a 87fe 953b 96b7 acbb
00000310: 4d24 2ebb 752a 93bb 4838 5b3b 6693 a43b
00000320: 5385 ab3b f22e 6a3a b292 413a 92e9 e33b
00000330: e889 653a 70d8 943a 6e46 b93b 4e4d 57bb
00000340: a0a9 093a 6d75 4e3b 587c 6d3b ba22 643b
00000350: 96cb c13a 9a43 4d3b dab0 ea3b 51f6 05ba
00000360: 6efa 3c3b dff7 653b c913 1dbb 1ab6 483b
00000370: b624 0bbb ac6f 473b 9acc 1f3b 0228 60bb
00000380: d534 803b 3020 c1ba 9643 ad3b 3eb4 e73a
00000390: f579 3f3b 98da 0d3b dcda 253b 36ad adbb
000003a0: e8cc 423b 88ca aaba 14e0 243a 6bcb 3f3b
000003b0: fee7 d23b 5ba7 993b b603 4d3b 22ba f43a
000003c0: 2e08 4b3b 788f 0d3a 40e6 a33b 3289 9cba
000003d0: 37aa 133b 4ac6 863b 4c77 a43b f114 243a
000003e0: d80b aa3b e656 3f3a 9431 a23b 1459 a7bb
000003f0: 4895 b43a cb95 a13b e000 3037 a72b 843b

fc.bias f4 [3]
0.00074572116 0.0020264497 -0.0006447053
00000000: 807c 433a 2fce 043b 7101 29ba
