formas_model.pth (torch, 15418 bytes, 6 tensors)

fc1.weight f4 [64, 15]
0.18609889 0.11853871 0.0009273099 -0.02160829 0.22723013 -0.22825965 0.14742516 -0.12353221
-0.25241688 0.0024901389 0.20039716 -0.24752922 0.10260191 -0.17157798 -0.1826405 0.23946472
0.038950697 0.013913048 -0.14165542 0.015427721 -0.21952425 -0.1483284 0.24094844 -0.06719138
-0.13886367 0.24284026 -0.154445 -0.055830956 0.22029214 -0.20897429 -0.1944757 -0.20680587
-0.15133238 0.1918432 0.1632552 0.17288603 -0.027294481 0.17684661 0.09735398 -0.22888112
-0.20806901 0.022007521 -0.10470894 -0.25810662 -0.06905054 -0.22278444 0.12540412 0.1906022
-0.021253707 -0.21778989 0.14185876 -0.124839514 -0.11565854 -0.18504307 -0.18444322 0.09572804
-0.10709311 0.010167143 -0.21379752 -0.051083863 -0.21586734 -0.12799722 0.11699526 -0.20537287
0.034629237 0.17011108 -0.13274352 0.009640127 -0.060258698 0.117352344 0.06611552 0.18665357
0.17428975 0.22357737 -0.00027755817 0.07929777 -0.0808673 0.15979825 0.08543739 0.09321828
0.06619606 0.1932595 -0.017929817 -0.093573935 -0.11325568 -0.19495729 0.19899131 -0.15081465
0.16633533 -0.13436015 -0.040160116 0.03427825 -0.23210204 -0.062259823 -0.10130277 -0.044367075
0.061296325 0.058778673 0.16491395 -0.14958087 -0.18905964 0.2566524 0.10412378 0.048439097
-0.11158746 -0.09936239 -0.037494063 0.05411884 0.08176721 -0.050873205 -0.15012647 0.017049387
0.03997464 -0.1891395 0.24729237 0.00730589 0.12660903 -0.08553783 0.15498593 -0.03642692
0.11437817 0.1710486 0.044929482 0.18740143 -0.20764254 0.2396852 -0.076697685 0.20477976
-0.03943526 0.0465419 0.1431524 0.123693384 0.08476935 0.18226182 -0.05853564 0.0061744745
0.27131185 0.1555637 0.16424936 0.20238404 0.109509006 -0.05537362 0.22026749 -0.22489792
0.011239647 -0.13129233 0.19444938 0.14778014 0.06130056 -0.19876347 0.028842798 -0.20230803
0.19517377 -0.23144408 -0.030953208 -0.20048635 0.23287457 -0.14094967 -0.20577976 0.20943765
0.07240556 0.0016301908 0.21543427 0.036197342 0.00773995 -0.10279905 0.19668236 -0.052252054
-0.2687586 0.096268795 0.025175843 -0.18288706 0.0151556395 -0.21530405 0.22101702 0.13754964
-0.1588023 0.03081615 -0.2294687 -0.21541259 -0.008074097 -0.09077862 -0.082167916 0.20441021
0.07626595 0.040509928 0.038504675 0.20568915 -0.114883825 0.21976322 -0.15368292 -0.063084945
0.20793705 -0.013506155 0.24117935 0.20046014 0.20851767 0.0107725775 -0.15847857 0.056539595
-0.17825161 0.02164985 0.18766285 -0.16570097 -0.057682596 -0.12397206 0.09148381 -0.2188444
0.038630653 -0.091932684 0.01705638 0.18079022 0.22698064 0.16381732 0.10288199 -0.025774866
0.013564146 -0.11425683 -0.17945363 -0.09147645 -0.07289721 -0.19917625 0.23656768 -0.078976594
-0.1720164 -0.25155672 -0.07466377 -0.25736606 -0.07967667 0.19963092 -0.1353381 0.22779708
-0.13317665 0.117184415 0.17279175 -0.15663463 -0.21132345 0.024608323 0.069329076 0.023838589
-0.036242854 0.064149484 0.1535981 0.20122759 -0.19647893 -0.045674406 0.11400701 -0.1943104
-0.1381408 0.17219377 0.20919307 0.008637381 0.21207874 0.01099832 -0.18372726 0.15147619
00000000: b590 3e3e 6cc4 f23d b716 733a de03 b1bc
00000010: 04af 683e e6bc 69be 9ff6 163e 75fe fcbd
00000020: c93c 81be 9931 233b ea34 4d3e 4d78 7dbe
00000030: f320 d23d 23b2 2fbe 1c06 3bbe 3d36 753e
00000040: c48a 1f3d 8ef3 633c 1e0e 11be 8dc4 7c3c
00000050: f7ca 60be 66e3 17be 30bb 763e a29b 89bd
00000060: 4732 0ebe 1eab 783e d526 1ebe 00af 64bd
00000070: 4394 613e 5bfd 55be a324 47be ebc4 53be
00000080: e0f6 1abe 8b72 443e 5f2c 273e 0909 313e
00000090: ad98 dfbc 4717 353e 8661 c73d d05f 6abe
000000a0: 0b10 55be 1e49 b43c a471 d6bd 8d26 84be
000000b0: 5f6a 8dbd 9b21 64be f069 003e 392d 433e
000000c0: 411c aebc 5004 5fbe 6c43 113e dcab ffbd
000000d0: 62de ecbd ee7b 3dbe afde 3cbe 100d c43d
000000e0: a253 dbbd 1794 263c bded 5abe 503d 51bd
000000f0: 540c 5dbe b411 03be 369b ef3d 444d 52be
00000100: 63d7 0d3d 9931 2e3e ebed 07be a0f1 1d3c
00000110: d3d1 76bd 6d56 f03d 9367 873d 1d22 3f3e
00000120: 0379 323e 77f1 643e 3a85 91b9 df66 a23d
00000130: c19d a5bd 27a2 233e ccf9 ae3d 3ae9 be3d
00000140: cd91 873d d2e5 453e 8de1 92bc b1a3 bfbd
00000150: 98f2 e7bd e2a2 47be 61c4 4b3e 286f 1abe
00000160: cf53 2a3e b595 09be ef7e 24bd 5a67 0c3d
00000170: 28ac 6dbe 2804 7fbd d477 cfbd 40ba 35bd
00000180: db11 7b3d e8c1 703d 34df 283e ba2b 19be
00000190: da98 41be f267 833e d93e d53d 1368 463d
000001a0: f787 e4bd 827e cbbd 6093 19bd b7ab 5d3d
000001b0: 9175 a73d 6c60 50bd c1ba 19be 28ab 8b3c
000001c0: 73bc 233d c9ad 41be 363a 7d3e 3f66 ef3b
000001d0: cca5 013e 752e afbd a2b4 1e3e 6534 15bd
000001e0: 1a3f ea3d 5d27 2f3e fa07 383d 29e6 3f3e
000001f0: 3fa0 54be 0970 753e ad13 9dbd c9b1 513e
00000200: de86 21bd b8a2 3e3d 8b96 123e f552 fd3d
00000210: 8e9b ad3d d8a2 3a3e 11c3 6fbd 3f53 ca3b
00000220: 63e9 8a3e 174c 1f3e fc30 283e c33d 4f3e
00000230: 4246 e03d 73cf 62bd cd8d 613e a44b 66be
00000240: 7f26 383c 7f71 06be bd1d 473e ad53 173e
00000250: 4c16 7b3d a788 4bbe bb47 ec3c d629 4fbe
00000260: a2db 473e adff 6cbe 9591 fdbc 4b4c 4dbe
00000270: ac76 6e3e 1c55 10be eeb7 52be d376 563e
00000280: 5e49 943d 20ac d53a cd9a 5c3e aa43 143d
00000290: 689f fd3b 4f88 d2bd 1a67 493e 4006 56bd
000002a0: ba9a 89be 9328 c53d 923d ce3c bf46 3bbe
000002b0: 5c4f 783c aa78 5cbe 4952 623e d0d9 0c3e
000002c0: 129d 22be 2772 fc3c d8f9 6abe 1e95 5cbe
000002d0: 3849 04bc 24ea b9bd a747 a8bd e950 513e
000002e0: 5331 9c3d bded 253d 14b7 1d3d 2da0 523e
000002f0: 3648 ebbd 9c09 613e 0e5f 1dbe ae32 81bd
00000300: 73ed 543e ec48 5dbc b8f7 763e 6c45 4d3e
00000310: a885 553e 777f 303c 3548 22be 1096 673d
00000320: 9787 36be 075b b13c b12a 403e 84ad 29be
00000330: 9644 6cbd 10e5 fdbd dd5b bb3d bf18 60be
00000340: 2d3b 1e3d 3447 bcbd d2b9 8b3c 1221 393e
00000350: 9d6d 683e babf 273e cbb3 d23d d025 d3bc
00000360: 273c 5e3c 7cff e9bd b1c2 37be 0158 bbbd
00000370: 224b 95bd dcf4 4bbe cc3e 723e 7bbe a1bd
00000380: 1125 30be 0bcc 80be 52e9 98bd 7cc5 83be
00000390: 862d a3bd 0c6c 4c3e 1296 0abe a343 693e
000003a0: 765f 08be 62fe ef3d 52f0 303e d464 20be
000003b0: 2d65 58be 6597 c93c 67fc 8d3d 2549 c33c
000003c0: 6373 14bd ce60 833d d248 1d3e 9b0e 4e3e
000003d0: c631 49be 1615 3bbd 827c e93d 4ef9 46be
000003e0: c874 0dbe 9053 303e b536 563e cd83 0d3c
000003f0: 2b2b 593e 4c32 343c 0023 3cbe 931c 1b3e

fc1.bias f4 [64]
0.066862226 -0.17523313 0.23443468 -0.10054275 -0.085021436 0.0067098304 0.11980358 0.1981755
-0.1505515 -0.15920526 -0.20292036 -0.18371817 0.053579766 0.20628253 0.02856142 0.13015325
0.23172487 0.12166673 0.20116653 -0.064017184 0.023115356 -0.10586562 -0.18914245 0.23778474
-0.14049211 -0.2682327 0.13495529 -0.1548032 -0.006356418 -0.1539969 0.034755163 -0.06410118
-0.06277111 -0.23860808 -0.201832 -0.17853323 0.056339774 -0.053365257 0.113489345 -0.17722762
0.01628981 0.16026205 0.04976923 0.09890973 -0.21426173 0.20289622 -0.075053655 -0.19290733
-0.118735574 0.19993521 0.07939771 0.22267076 -0.19321193 -0.080020644 0.16009861 -0.026430184
0.010906856 -0.111909986 -0.15838815 0.025451519 0.21298608 -0.119052246 0.21556017 0.16868028
00000000: 10ef 883d 5070 33be a50f 703e 5be9 cdbd
00000010: b81f aebd 23de db3b 945b f53d 85ee 4a3e
00000020: 2c2a 1abe b406 23be 5bca 4fbe 9e20 3cbe
00000030: 7576 5b3d ba3b 533e a4f9 e93c e546 053e
00000040: 4949 6d3e 682c f93d 99fe 4d3e 711b 83bd
00000050: 6a5c bd3c 13d0 d8bd 8fae 41be d87d 733e
00000060: 2add 0fbe cc55 89be b831 0a3e bb84 1ebe
00000070: 8049 d0bb 5db1 1dbe 6e5b 0e3d 7b47 83bd
00000080: 248e 80bd ad55 74be 0cad 4ebe 6ad1 36be
00000090: 89c4 663d 8795 5abd 1a6d e83d 287b 35be
000000a0: 3572 853c bc1b 243e d2da 4b3d 2f91 ca3d
000000b0: 6d67 5bbe 07c4 4f3e bbb5 99bd 8089 45be
000000c0: a32b f3bd d1bb 4c3e 449b a23d ce03 643e
000000d0: 59d9 45be dde1 a3bd e4f0 233e 1d84 d8bc
000000e0: abb2 323c 1031 e5bd 8130 22be b47f d03c
000000f0: 0619 5a3e aad1 f3bd cebb 5c3e 86ba 2c3e

fc2.weight f4 [32, 64]
0.06139199 0.05852207 -0.0035727436 -0.12642936 0.09400699 0.017354717 -0.04995075 0.041229863
0.032727636 -0.101193696 0.09757065 0.1081557 -0.010649897 0.05100178 -0.106966734 0.055477675
0.0199265 0.0057671173 -0.08644786 -0.12012045 -0.06466298 -0.108231984 -0.017453646 -0.049984436
-0.12541755 0.058488235 -0.005953291 -0.0748945 -0.047233343 0.09294863 -0.023610067 0.056766678
0.03161973 0.090282805 0.012051985 0.019560916 0.040305328 0.038611002 0.068026915 0.07961614
-0.07343195 -1.9124749e-05 -0.03936982 0.097549565 0.08350784 -0.03617833 -0.053214915 -0.015638988
0.052522264 0.08004669 -0.0439892 0.027183326 -0.09343134 -0.1013766 -0.11809584 -0.016249176
-0.05358475 0.090450116 -0.067750864 0.07994326 -0.013488818 -0.08772425 -0.029522154 -0.06831786
0.08864678 -0.0046813036 -0.022799453 -0.1193138 0.043640446 -0.047955003 -0.01401175 0.117047414
-0.08133995 0.02362647 -0.08141551 -0.119158976 0.0073887627 0.0941219 0.023840766 -0.0874392
0.060604684 -0.08638429 0.10901846 -0.048941474 0.024873193 -0.104055576 0.0862073 -0.020432701
0.08280037 0.06672658 0.09877461 0.05914576 -0.00026747584 -0.04900324 -0.10076203 -0.04897476
-0.09301565 -0.10639638 0.04912496 -0.0055992682 -0.06709829 0.06818721 0.058367822 0.037568495
-0.027014032 -0.11386998 0.08060354 0.06358166 0.09843651 0.045642346 0.06991802 -0.0914266
-0.081192315 -0.05951123 -0.13055266 -0.03828879 0.0714866 -0.1220681 0.10416223 -0.0113686705
-0.040342133 0.110340945 -0.11634643 -0.06879039 -0.07871104 0.0993056 -0.10819565 -0.063149124
0.029894352 -0.03756571 -0.053482488 -0.049611434 -0.03685586 -0.056062073 -0.09297466 0.017071515
-0.100963205 -0.053688094 -0.100438416 0.047910094 0.002277568 -0.007824719 0.036985114 -0.016591176
0.003603533 -0.10426098 -0.1141765 -0.06821369 -0.10513219 -0.067650765 0.047159135 0.019565895
-0.05116473 -0.09887123 -0.122410834 0.12282166 -0.0765682 0.12477371 0.018476874 0.0019106716
0.05374992 0.021900207 -0.06124346 -0.113208115 0.079996645 -0.11332625 0.059374437 0.028931975
-0.111381024 -0.018390357 -0.06154169 0.10640474 0.07094553 -0.07851873 -0.04730034 0.095992625
-0.0070708245 -0.08295575 0.10786034 -0.0849022 -0.04343158 0.049763203 -0.0664002 -0.08422603
-0.012309819 -0.05391206 -0.014939219 -0.11867994 -0.08545829 -0.04744333 -0.010353893 -0.022656664
-0.09490471 -0.07717331 -0.026106486 -0.102416836 -0.101179846 -0.02186045 -0.08547556 0.07586323
-0.081727676 -0.013507528 -0.07844905 -0.11330714 0.057984356 -0.039821804 0.09095667 0.015446082
-0.13369165 0.07403065 0.059070546 0.038316175 0.013611391 0.042730477 0.00014591217 0.015245408
0.017409712 0.024471335 0.014560652 -0.08478831 0.08849412 0.08836815 -0.136814 -0.03756077
-0.13065714 -0.10748562 0.015627576 0.07942729 -0.033261176 -0.025754359 -0.11239068 -0.09785749
-0.09364321 -0.06234562 0.03438483 0.10698081 -0.039924942 0.0407581 0.014739364 -0.006604582
-0.017239898 -0.04789324 0.072109975 -0.026540741 0.0588625 0.025470015 0.10582687 0.015219727
-0.07427851 -0.10487563 0.046919007 0.0044406992 -0.089380145 -0.014635699 -0.075933665 -0.08695564
00000000: 2b76 7b3d d7b4 6f3d b124 6abb b376 01be
00000010: bd86 c03d 7b2b 8e3c 2899 4cbd a5e0 283d
00000020: 6a0d 063d a43e cfbd 1fd3 c73d bc80 dd3d
00000030: e87c 2ebc 3ee7 503d 6011 dbbd 8f3c 633d
00000040: e63c a33c 16fa bc3b 930b b1bd b601 f6bd
00000050: 066e 84bd bba8 ddbd f3fa 8ebc 7bbc 4cbd
00000060: 756d 00be 5c91 6f3d d313 c3bb 4a62 99bd
00000070: c077 41bd da5b be3d e669 c1bc 2d84 683d
00000080: b183 013d 31e6 b83d b075 453c 373e a03c
00000090: 3317 253d 9226 1e3d b251 8b3d c90d a33d
000000a0: 7d63 96bd 166e a0b7 4042 21bd 11c8 c73d
000000b0: 2906 ab3d bb2f 14bd e2f7 59bd 561d 80bc
000000c0: 9621 573d 85ef a33d 052e 34bd 91af de3c
000000d0: ee58 bfbd 899e cfbd 3bdc f1bd fe1c 85bc
000000e0: af7b 5bbd e93d b93d f7c0 8abd 4bb9 a33d
000000f0: 3400 5dbc c6a8 b3bd 72d8 f1bc 3cea 8bbd
00000100: 718c b53d 9f65 99bb ebc5 babc cb5a f4bd
00000110: 53c0 323d 776c 44bd 8a91 65bc 8eb6 ef3d
00000120: 8f95 a6bd 4c8c c13c 2dbd a6bd 9f09 f4bd
00000130: 6f1d f23b fcc2 c03d b64d c33c 5313 b3bd
00000140: 9e3c 783d 3fea b0bd 1245 df3d db76 48bd
00000150: dec2 cb3c 171b d5bd 748d b03d 7b62 a7bc
00000160: 3e93 a93d f2a7 883d 584a ca3d d342 723d
00000170: 003c 8cb9 9fb7 48bd 535c cebd c299 48bd
00000180: fd7e bebd 58e6 d9bd 4137 493d 117a b7bb
00000190: d46a 89bd bca5 8b3d 1913 6f3d 6ce1 193d
000001a0: 884c ddbc aa34 e9bd 7813 a53d 1a37 823d
000001b0: 1599 c93d 78f3 3a3d 2e31 8f3d df3d bbbd
000001c0: 2848 a6bd 0cc2 73bd 99af 05be b5d4 1cbd
000001d0: 9167 923d d7fe f9bd 0253 d53d a943 3abc
000001e0: cb3d 25bd 6ffa e13d 0947 eebd fae1 8cbd
000001f0: 4133 a1bd bc60 cb3d ae95 ddbd 5454 81bd
00000200: 00e5 f43c 80de 19bd 7410 5bbd 5c35 4bbd
00000210: 2cf6 16bd 58a1 65bd 8069 bebd 90d9 8b3c
00000220: ccc5 cebd 0ce8 5bbd a8b2 cdbd 603d 443d
00000230: 4043 153b 4033 00bc b47d 173d 38ea 87bc
00000240: 4029 6c3b c886 d5bd 5ed5 e9bd 9eb3 8bbd
00000250: 8c4f d7bd 7c8c 8abd f029 413d a848 a03c
00000260: 1c92 51bd 007d cabd 88b2 fabd ec89 fb3d
00000270: cacf 9cbd 5c89 ff3d d05c 973c 806f fa3a
00000280: e028 5c3d 1068 b33c 6cda 7abd a8d9 e7bd
00000290: 48d5 a33d 9817 e8bd 9c32 733d c002 ed3c
000002a0: bc1b e4bd 60a7 96bc 2413 7cbd baea d93d
000002b0: e44b 913d 6ece a0bd 00be 41bd c897 c43d
000002c0: 60b2 e7bb b4e4 a9bd e2e5 dc3d 34e1 adbd
000002d0: 50e5 31bd 80d4 4b3d d4fc 87bd b27e acbd
000002e0: 20af 49bc e4d2 5cbd a0c3 74bc 780e f3bd
000002f0: c204 afbd f053 42bd 60a3 29bc 789a b9bc
00000300: 675d c2bd 0a0d 9ebd 45dd d5bc ebbf d1bd
00000310: 6137 cfbd b014 b3bc cf0d afbd 2e5e 9b3d
00000320: d760 a7bd ae4e 5dbc e5a9 a0bd 930d e8bd
00000330: 0181 6d3d 301c 23bd 7e47 ba3d 9011 7d3c
00000340: 77e6 08be 629d 973d f5f3 713d 6cf1 1c3d
00000350: 5002 5f3c 2706 2f3d 0000 1939 e0c7 793c
00000360: d09e 8e3c 1c78 c83c cd8f 6e3c 7ea5 adbd
00000370: 683c b53d 5cfa b43d f818 0cbe 52d9 19bd
00000380: fcca 05be 6c21 dcbd 6705 803c c6aa a23d
00000390: df3c 08bd cefa d2bc 162d e6bd 8269 c8bd
000003a0: 03c8 bfbd 1f5e 7fbd 1cd7 0c3d c118 db3d
000003b0: 5688 23bd f7f1 263d 607d 713c 406b d8bb
000003c0: b03a 8dbc b42b 44bd 65ae 933d f86b d9bc
000003d0: ce19 713d 7ea6 d03c c2bb d83d 295c 793c
000003e0: 551f 98bd 09c9 d6bd 252e 403d 4983 913b
000003f0: f00c b7bd 92ca 6fbc 1c83 9bbd cc15 b2bd

fc2.bias f4 [32]
0.01780389 -0.030375967 0.099500194 -0.051589977 -0.11988017 -0.083211794 -0.0052993502 -0.10506806
0.008755077 0.10479591 -0.08965558 0.1025271 -0.07493239 -0.036810778 -0.055896662 0.10290806
-0.0009846538 0.10009248 -0.0780493 0.12116192 -0.077767834 -0.10680771 -0.07181859 -0.10422291
0.11571329 -0.05759245 0.089382835 0.009398634 -0.11462224 -0.073602825 -0.09533567 -0.123794354
00000000: 77d9 913c 05d7 f8bc c2c6 cb3d 0350 53bd
00000010: bc83 f5bd f26a aabd 2ca6 adbb ec2d d7bd
00000020: 7471 0f3c 3d9f d63d 589d b7bd baf9 d13d
00000030: 2776 99bd e6c6 16bd e6f3 64bd 76c1 d23d
00000040: 800f 81ba 49fd cc3d 50d8 9fbd be23 f83d
00000050: be44 9fbd 00be dabd a015 93bd d272 d5bd
00000060: 17fb ec3d 10e6 6bbd 590e b73d bafc 193c
00000070: 11bf eabd 14bd 96bd 593f c3bd e587 fdbd

fc3.weight f4 [3, 32]
0.037811663 -0.118149884 0.01059781 0.05057164 -0.07117195 -0.021536205 -0.031976543 -0.11867701
-0.12119526 -0.16125816 -0.12998226 -0.14916235 -0.14184202 0.09056682 0.08375108 0.15448038
0.009747952 0.06237306 0.07995866 0.009831367 -0.031970285 0.055302694 -0.09913378 -0.02746865
0.06424818 0.045578483 0.15653202 0.16924389 -0.12197474 0.05006728 -0.04607242 -0.011180284
-0.04772352 -0.09377779 0.06296979 -0.07109037 0.011833326 -0.16737603 -0.01875792 0.047800004
-0.07665764 -0.04639621 -0.12818912 0.15740229 -0.004141197 -0.01608422 -0.12206178 -0.05352954
-0.071279466 -0.08378665 0.09006233 -0.07827181 0.14475629 -0.16246973 0.12077114 -0.12309051
0.11964125 0.054243278 -0.035157394 0.121792555 -0.11091044 -0.027547687 0.061470363 0.06086396
0.13966379 0.10955531 -0.17432886 0.0025500925 0.14859962 -0.07696266 0.01250114 0.038376562
-0.16886273 0.10723719 0.0351997 0.14332856 -0.0035411683 0.14638609 0.05491989 -0.109687634
0.029745355 0.13669957 0.08749553 -0.19078766 0.16293776 -0.14642827 0.14375646 -0.18724367
0.030252023 0.017772246 0.03888683 0.11837314 0.06571425 0.1081421 -0.12036143 0.044021156
00000000: 67e0 1a3d 91f8 f1bd 70a2 2d3c 3524 4f3d
00000010: 99c2 91bd b26c b0bc d6f9 02bd ef0c f3bd
00000020: 3835 f8bd dc20 25be 121a 05be 04be 18be
00000030: 093f 11be 197b b93d b085 ab3d 1b30 1e3e
00000040: e0b5 1f3c e57a 7f3d 5ec1 a33d be13 213c
00000050: 46f3 02bd 1485 623d a706 cbbd ef05 e1bc
00000060: 8d94 833d 81b0 3a3d ee49 203e 454e 2d3e
00000070: e4cd f9bd 5913 4d3d 6fb6 3cbd 832d 37bc
00000080: bd79 43bd 920e c0bd 4ef6 803d d497 91bd
00000090: 91e0 413c 9f64 2bbe 36aa 99bc f0c9 433d
000000a0: aefe 9cbd f409 3ebd 0244 03be 112e 213e
000000b0: e1b2 87bb 0ec3 83bc 87fb f9bd ca41 5bbd
000000c0: f8fa 91bd 5698 abbd 9972 b83d f94c a0bd
000000d0: fe3a 143e 775e 26be dc56 f73d e116 fcbd
000000e0: 7906 f53d 332e 5e3d 3301 10bd 606e f93d
000000f0: 0325 e3bd b0ab e1bc 59c8 7b3d 7d4c 793d
00000100: 0604 0f3e 895e e03d 4483 32be 741f 273b
00000110: 802a 183e 999e 9dbd 95d1 4c3c be30 1d3d
00000120: 5aea 2cbe 2c9f db3d 902d 103d b9c4 123e
00000130: f212 68bb 3ce6 153e aef3 603d e9a3 e0bd
00000140: 88ac f33c f9fa 0b3e db30 b33d d75d 43be
00000150: 28d9 263e 4bf1 15be e534 133e cebc 3fbe
00000160: 17d3 f73c 1a97 913c cc47 1f3d 9e6d f23d
00000170: 3195 863d 9b79 dd3d 0e80 f6bd 874f 343d

fc3.bias f4 [3]
0.0286607 0.030804241 0.01836198
00000000: d8c9 ea3c 2d59 fc3c dd6b 963c
