formas_model.pth (torch, 15418 bytes, 6 tensors)

fc1.weight f4 [64, 15]
-0.16833942 -0.0004608297 0.14774564 -0.22363691 -0.043216452 -0.18388116 0.18569252 -0.10521515
0.09613537 -0.2401501 -0.22160366 -0.123738855 0.24749464 -0.020890728 0.038623434 -0.11436105
0.09558237 0.20699123 0.21085443 -0.26597542 0.003980173 -0.11358389 -0.024944002 0.073850684
-0.09734573 -0.044480972 0.011410938 -0.21816157 -0.004474298 0.21656927 0.051652197 0.15650906
0.20720987 0.14088173 0.21255171 -0.07860768 -0.24013807 -0.1033035 -0.16203886 -0.100354254
-0.12940447 0.21034409 -0.05082995 0.11746511 0.075411074 -0.15142854 0.06348777 0.24217413
-0.21565872 -0.0058656964 -0.2526598 -0.16329178 -0.038249724 0.21090116 -0.055079218 -0.009752484
-0.25749937 0.08747757 -0.17154093 0.05572371 0.18111217 -0.23643124 0.21019098 -0.041925363
-0.2352459 0.11156205 -0.1898937 0.0456674 -0.08300274 -0.0038079212 0.21463451 -0.19230062
0.22461793 -0.2295964 -0.16665378 -0.2637305 0.08985764 -0.06629898 0.26073256 -0.023768358
-0.042669255 0.18978249 0.12751059 -0.21186139 0.08116589 0.0035867908 0.13897546 0.034374245
-0.16198239 -0.06448288 0.16817836 0.10446049 0.24521694 -0.1847534 0.022718081 0.12638596
-0.019509139 0.09231663 0.06946848 0.21882783 0.18900964 0.16263556 0.06737832 -0.07087763
0.08215278 0.21375771 -0.12530339 0.13018101 0.08337062 0.1167897 -0.0479974 -0.07496655
0.15976845 0.20865798 0.23593886 0.08028997 0.25030267 0.06055608 -0.1693522 -0.08377902
-0.13177265 0.093712635 -0.123875916 0.14733844 0.028881006 0.09210957 -0.004354477 0.1515306
0.08873132 -0.18482795 -0.24492143 0.043244902 0.11917347 -0.19076915 -0.12983717 0.09456877
0.011162132 -0.13746813 -0.24922343 -0.09503888 0.25515205 -0.10106589 -0.18537493 0.011918534
-0.24323899 -0.2369825 -0.21274893 -0.03509648 -0.16471632 -0.077917516 0.029033866 0.016249508
-0.1130237 -0.22299203 -0.14975527 -0.10746765 0.16121948 -0.06844142 0.066592395 0.10188818
-0.22698449 -0.1940736 -0.1081335 -0.06432166 0.17373104 0.10235427 -0.098453924 0.119865425
0.13673016 0.24119325 -0.008040851 0.15227835 0.052804332 -0.04082396 0.14862475 0.12948957
-0.2159574 0.07602815 -0.043487553 0.24932384 0.07130178 -0.22046565 -0.20834431 0.18760097
-0.034045678 0.260755 0.23064367 0.2540419 0.20760901 0.24964583 0.1512023 -0.11514079
-0.0224476 0.22316532 -0.094066314 -0.21212128 -0.21744312 0.24692112 0.24018717 -0.18819296
-0.11468173 0.044672847 0.19474901 -0.052637935 0.10151928 -0.26314935 -0.096746884 -0.13484737
-0.19499797 -0.21490774 0.23544443 0.15860789 0.15123206 -0.05332199 -0.03773715 -0.07838822
-0.011808113 0.21192999 0.11212919 0.03505082 -0.06992697 -0.054640077 0.008691423 0.017849647
-0.053181995 0.02891214 0.19037753 0.08935215 -0.2524515 -0.10088296 -0.118155286 -0.02066157
0.0700267 0.225078 -0.2294957 -0.1729147 -0.06186009 -0.043943457 0.18551925 -0.04691929
0.19446766 -0.06444899 -0.12241973 -0.096845895 -0.0062978566 0.2225731 -0.02931323 0.049284145
0.102255315 0.12563995 -0.09563698 -0.075592 0.11280155 -0.11466452 0.10260734 -0.24470237
00000000: 2b61 2cbe 849b f1b9 a24a 173e 1301 65be
00000010: bc03 31bd 584b 3cbe 2e26 3e3e 0a7b d7bd
00000020: 9fe2 c43d e8e9 75be 12ec 62be cc6a fdbd
00000030: 3c6f 7d3e 0823 abbc 9b33 1e3d 2036 eabd
00000040: b1c0 c33d 82f5 533e 39ea 573e ee2d 88be
00000050: 1c6c 823b ac9e e8bd 5d57 ccbc 073f 973d
00000060: 335d c7bd ae31 36bd f1f4 3a3c bf65 5fbe
00000070: 229d 92bb 56c4 5d3e 4191 533d e943 203e
00000080: d32e 543e 4d43 103e 28a7 593e 10fd a0bd
00000090: c1e6 75be c990 d3bd 84ed 25be 8886 cdbd
000000a0: 9b82 04be 7164 573e 1133 50bd 8c91 f03d
000000b0: 1f71 9a3d 1510 1bbe e005 823d 7ffc 773e
000000c0: a4d5 5cbe 0735 c0bb a05c 81be f635 27be
000000d0: beab 1cbd 79f6 573e bf9a 61bd e2c8 1fbc
000000e0: f5d6 83be 7127 b33d 6da8 2fbe 8c3e 643d
000000f0: 7875 393e 081b 72be 4e3c 573e eeb9 2bbd
00000100: 4de4 70be a57a e43d 7e73 42be bd0d 3b3d
00000110: 57fd a9bd 518e 79bb 26c9 5b3e 74ea 44be
00000120: 3e02 663e 521b 6bbe 4aa7 2abe af07 87be
00000130: 4807 b83d c2c7 87bd bd7e 853e dcb5 c2bc
00000140: f5c5 2ebd 5756 423e 2392 023e 31f2 58be
00000150: 4d3a a63d 5d10 6b3b 954f 0e3e 02cc 0c3d
00000160: b6de 25be 9a0f 84bd f336 2c3e 62ef d53d
00000170: 261a 7b3e ff2f 3dbe 451b ba3c 526b 013e
00000180: a1d1 9fbc 8010 bd3d 7e45 8e3d 6714 603e
00000190: be8b 413e f089 263e a5fd 893d 4a28 91bd
000001a0: b73f a83d 4de3 5a3e 884f 00be 2c4e 053e
000001b0: 37be aa3d 702f ef3d ec98 44bd 1088 99bd
000001c0: 579a 233e 70aa 553e f599 713e 116f a43d
000001d0: ac27 803e a709 783d aa6a 2dbe 5694 abbd
000001e0: 69ef 06be 69ec bf3d a8b2 fdbd e3df 163e
000001f0: dc97 ec3c f1a3 bc3d 00b0 8ebb d62a 1b3e
00000200: c4b8 b53d 8a43 3dbe afcc 7abe 9121 313d
00000210: 3811 f43d fd58 43be 09f4 04be 45ad c13d
00000220: 60e1 363c 72c4 0cbe 6d34 7fbe bfa3 c2bd
00000230: 4aa3 823e a2fb cebd edd2 3dbe f445 433c
00000240: a413 79be 8aab 72be dbda 59be 54c1 0fbd
00000250: 65ab 28be 3893 9fbd 6ed8 ed3c b01d 853c
00000260: f878 e7bd 0658 64be 7259 19be 0018 dcbd
00000270: b816 253e 042b 8cbd 9861 883d c0aa d03d
00000280: 9f6e 68be 3bbb 46be 1975 ddbd 13bb 83bd
00000290: 8de6 313e 1e9f d13d 36a2 c9bd 017c f53d
000002a0: fe02 0c3e 5dfb 763e c6bd 03bc dbee 1b3e
000002b0: 5b49 583d 0637 27bd 1631 183e ea98 043e
000002c0: f023 5dbe a6b4 9b3d 0120 32bd c04e 7f3e
000002d0: ab06 923d bfc1 61be 3658 55be 781a 403e
000002e0: 7b73 0bbd ae81 853e db2d 6c3e c811 823e
000002f0: 7597 543e 28a3 7f3e c7d4 1a3e efce ebbd
00000300: 07e4 b7bc 7385 643e d7a5 c0bd 5236 59be
00000310: 69a9 5ebe e4d8 7c3e a0f3 753e a8b5 40be
00000320: 41de eabd e0fa 363d 496c 473e e09a 57bd
00000330: 57e9 cf3d 83bb 86be 3b23 c6bd 6e15 0abe
00000340: 8cad 47be c610 5cbe 5818 713e 1b6a 223e
00000350: 94dc 1a3e 2968 5abd 4592 1abd 018a a0bd
00000360: d176 41bc 2d04 593e fda3 e53d 7391 0f3d
00000370: df35 8fbd 46ce 5fbd 7866 0e3c 6c39 923c
00000380: 5dd5 59bd 27d9 ec3c 54f2 423e 43fe b63d
00000390: 5341 81be ba9b cebd 66fb f1bd 7442 a9bc
000003a0: 296a 8f3d d97a 663e ec00 6bbe 8d10 31be
000003b0: 0161 7dbd 0efe 33bd c2f8 3d3e 712e 40bd
000003c0: 8822 473e d5fd 83bd 32b7 fabd 2457 c6bd
000003d0: 405e cebb 34ea 633e 4d22 f0bc 2cde 493d
000003e0: 3c6b d13d c2a7 003e 52dd c3bd facf 9abd
000003f0: 8004 e73d 3bd5 eabd cc23 d23d 4293 7abe

fc1.bias f4 [64]
-0.12036187 0.103851296 0.22719665 -0.095203415 -0.19223364 -0.2109412 -0.10629555 -0.019237231
0.09495402 -0.029831083 0.22689562 -0.164074 -0.013022733 -0.04315889 -0.09653036 0.13446991
0.02260893 -0.14156605 -0.24208581 0.046935547 -0.19277199 -0.083120145 -0.21022692 0.033558305
0.16839655 -0.014054397 0.0853876 0.22534622 0.17271116 -0.12652454 0.06148506 0.21260409
-0.12042847 0.10734972 0.19148143 -0.019664906 -0.012358612 0.07269163 -0.2500908 0.24107158
-0.16829513 -0.0005234274 -0.024637397 0.16422819 -0.1855809 0.14087524 0.14681144 -0.10439222
-0.047233045 0.24419187 0.07931826 -0.063362636 0.039218318 0.10923758 -0.200351 -0.16421223
-0.0057913065 0.06911055 -0.016154284 -0.212976 0.23625344 -0.16757186 -0.086566165 0.2617989
00000000: 4980 f6bd fdaf d43d 3da6 683e 02fa c2bd
00000010: e5d8 44be f800 58be 7bb1 d9bd 6697 9dbc
00000020: 4177 c23d 5160 f4bc 5357 683e 0403 28be
00000030: 4d5d 55bc 60c7 30bd b6b1 c5bd 7bb2 093e
00000040: 5d36 b93c b1f6 10be 58e5 77be 7d3f 403d
00000050: 0566 45be e53a aabd ba45 57be 6f74 093d
00000060: 2570 2c3e 6a44 66bc b2df ae3d 29c1 663e
00000070: 32db 303e a68f 01be c2d7 7b3d e3b4 593e
00000080: 34a3 f6bd 2cda db3d b513 443e 4c18 a1bc
00000090: c77b 4abc 59df 943d e70b 80be 78db 763e
000000a0: 8f55 2cbe 9e36 09ba 5ed4 c9bc 6f2b 283e
000000b0: eb08 3ebe 9941 103e bd55 163e 97cb d5bd
000000c0: 7077 41bd 6f0d 7a3e 9d71 a23d 45c4 81bd
000000d0: 63a3 203d f4b7 df3d d028 4dbe 4027 28be
000000e0: 00c5 bdbb d589 8d3d fd55 84bc 6116 5abe
000000f0: 6cec 713e f597 2bbe 9a49 b1bd 810a 863e

fc2.weight f4 [32, 64]
0.041791674 0.110305786 0.10141439 0.005982366 0.09620352 0.029877394 0.089749545 0.110363685
-0.013537492 -0.09375525 -0.0444932 -0.008893778 -0.024772882 0.05873996 0.09315648 -0.06911605
0.04350297 0.0142367985 0.08879578 -0.0251553 -0.054664303 0.03357944 -0.08205262 -0.11515993
0.032202236 -0.10578011 -0.10933476 -7.6792436e-05 -0.039187253 -0.07992085 0.059852242 -0.008472169
-0.029459303 -0.021304395 -0.061606143 0.11226913 0.08245603 0.08541359 -0.11634761 -0.005579263
0.055829037 0.04252042 -0.02896871 0.04307258 -0.06683644 0.107707985 0.020902133 -0.12935786
0.095017135 0.016246956 0.08751897 -0.0021816746 -0.0064249737 0.0060038865 -0.102794364 0.09530385
0.03137231 -0.055726226 -0.0998074 -0.037034698 0.10494732 -0.023466095 0.025215276 -0.069865495
0.11052093 0.01906994 -0.04205934 0.08326387 0.076707974 -0.09866837 0.094733566 0.028799135
-0.020393478 -0.0899256 0.07896589 -0.011418584 -0.06931513 0.0012949617 0.09664487 0.11800695
-0.09907006 -0.04163142 0.08018143 0.050679468 -0.08449816 0.03397297 -0.10510285 -0.121885784
0.027065849 0.05893334 -0.07500243 0.10822838 0.044165824 -0.080616124 0.023114964 0.057545226
-0.048918147 -0.053390525 -0.091616824 0.08257368 0.008461758 -0.08145924 0.024412792 -0.003982693
0.06333786 -0.08391017 -0.038374454 -0.035698734 -0.04263845 0.10523596 0.04664678 -0.0805036
0.04855636 0.109744065 0.0073344037 0.08883264 -0.0900927 0.04785177 0.06728305 -0.010547534
0.056607977 0.083012044 -0.116929285 -0.0862905 0.085220724 -0.11642869 -0.08162963 0.01298106
-0.044583473 -0.088578984 0.102333054 -0.10785341 -0.028229978 -0.013100076 -0.10163066 0.12986866
0.10133883 -0.03820676 0.051638838 -0.101411924 0.061712716 0.0963604 -0.045433264 0.036491536
-0.06629541 0.13372809 -0.018244 0.037457503 -0.007836627 0.08916573 -0.08756722 0.081215665
-0.06429312 0.11171201 0.08079208 -0.055361245 -0.10011141 0.06142775 -0.105199225 0.08911604
-0.018862143 0.050466947 -0.044092175 -0.031234516 -0.08307926 -0.0814944 0.02822988 0.10560277
0.0924034 -0.012151911 0.012462955 0.111640744 -0.08142168 -0.05560073 0.050267164 0.017111141
-0.045126125 0.09480732 0.0121900905 0.0031820028 0.0277258 0.111808315 0.07328472 0.077781305
0.08556485 0.0011821728 -0.039461438 -0.11414752 0.10130379 -0.029614538 -0.04351733 -0.12269827
0.04229679 0.019280868 0.02349897 0.1214801 0.1297778 0.12598082 -0.07809345 0.09893184
-0.05398009 -0.07835795 0.047483966 -0.13253567 0.07795938 -0.12535569 0.106710956 0.032363363
0.03175055 0.07311879 -0.09972396 0.0495938 0.032667737 0.09344107 0.0012304678 0.050205115
0.034241322 0.117004454 -0.100731626 -0.032860894 -0.094107 0.0059638857 -0.06912957 0.12029564
0.09534772 -0.010122794 0.06413285 -0.0038844158 0.05885766 -0.029200137 0.014611347 -0.047318563
-0.05954299 0.0075953286 -0.016300887 0.032069594 0.10898523 0.09028421 -0.092860386 0.068648666
0.07660969 -0.048852857 -0.029506285 0.020237653 -0.06852701 0.051093027 0.09159362 0.05109626
0.0067944527 -0.06853044 0.05030683 -0.010138106 -0.106507085 -0.06648265 -0.10760395 0.03532127
00000000: bf2d 2b3d 00e8 e13d 59b2 cf3d b907 c43b
00000010: 5a06 c53d 70c1 f43c 9cce b73d 5b06 e23d
00000020: 5bcc 5dbc c102 c0bd 803e 36bd 35b7 11bc
00000030: 80f0 cabc 5099 703d d3c8 be3d b78c 8dbd
00000040: 2c30 323d 7641 693c 90da b53d 7d12 cebc
00000050: ade7 5fbd 988a 093d 340b a8bd f8d8 ebbd
00000060: 7ee6 033d 3ea3 d8bd e7ea dfbd a00b a1b8
00000070: d082 20bd 8bad a3bd a027 753d dace 0abc
00000080: a354 f1bc 8e86 aebc b956 7cbd 5ced e53d
00000090: b5de a83d 52ed ae3d a847 eebd 40d2 b6bb
000000a0: fdac 643d e429 2e3d ca4f edbc e06c 303d
000000b0: 8be1 88bd 0196 dc3d f33a ab3c 6376 04be
000000c0: 5898 c23d 5618 853c 253d b33d 6dfa 0ebb
000000d0: 9688 d2bb 40bc c43b da85 d2bd aa2e c33d
000000e0: 4080 003d 2f41 64bd d267 ccbd b2b1 17bd
000000f0: 9fee d63d f83b c0bc 4490 ce3c a415 8fbd
00000100: cc58 e23d 9038 9c3c 6a46 2cbd 3f86 aa3d
00000110: 1219 9d3d a412 cabd ac03 c23d 2aec eb3c
00000120: 3910 a7bc ea2a b8bd deb8 a13d 0315 3bbc
00000130: 17f5 8dbd b4bb a93a bfed c53d a1ad f13d
00000140: 3ee5 cabd b585 2abd 2936 a43d 4695 4f3d
00000150: 5f0d adbd 3e27 0b3d 2a40 d7bd 419f f9bd
00000160: 33b9 dd3c 1664 713d e09a 99bd d7a6 dd3d
00000170: 39e7 343d 111a a5bd 985b bd3c 8bb4 6b3d
00000180: 655e 48bd 06b0 5abd 9aa1 bbbd 641c a93d
00000190: 2fa3 0a3c 1ad4 a6bd 56fd c73c 4081 82bb
000001a0: 48b7 813d 18d9 abbd 882e 1dbd d638 12bd
000001b0: a8a5 2ebd f385 d73d b210 3f3d 12df a4bd
000001c0: 09e3 463d 7fc1 e03d 7055 f03b e3ed b53d
000001d0: 8682 b8bd 3800 443d b2cb 893d 90cf 2cbc
000001e0: c4dd 673d 3802 aa3d 9f78 efbd 13b9 b0bd
000001f0: 3488 ae3d 2a72 eebd 6f2d a7bd 83ae 543c
00000200: 299d 36bd e668 b5bd fe93 d13d 40e2 dcbd
00000210: 8e42 e7bc b3a1 56bc bc23 d0bd 4afc 043e
00000220: bc8a cf3d b17e 1cbd 3f83 533d 0eb1 cfbd
00000230: 79c6 7c3d 9a58 c53d 3b18 3abd 2678 153d
00000240: e3c5 87bd 04f0 083e 7174 95bc 0a6d 193d
00000250: 3265 00bc 869c b63d 7156 b3bd 6654 a63d
00000260: 1cac 83bd 44c9 e43d 5176 a53d 79c2 62bd
00000270: 3607 cdbd aa9b 7b3d b172 d7bd 7882 b63d
00000280: c884 9abc 6eb6 4e3d ff99 34bd 87df ffbc
00000290: 7625 aabd 89e6 a6bd 5942 e73c 4446 d83d
000002a0: fe3d bd3d cf18 47bc 6c31 4c3c e7a3 e43d
000002b0: 69c0 a6bd 97bd 63bd f1e4 4d3d aa2c 8c3c
000002c0: 2cd6 38bd 572a c23d f2b8 473c 2689 503b
000002d0: 3821 e33c c2fb e43d 4d16 963d ce4b 9f3d
000002e0: a03c af3d 23f3 9a3a 51a2 21bd 2dc6 e9bd
000002f0: 5d78 cf3d 309a f2bc 3a3f 32bd 3b49 fbbd
00000300: 663f 2d3d e9f2 9d3c e980 c03c 8fca f83d
00000310: 79e4 043e 1e01 013e 75ef 9fbd c79c ca3d
00000320: 3a1a 5dbd 227a a0bd 8c7e 423d 6eb7 07be
00000330: 2ba9 9f3d 3e5d 00be 468b da3d 728f 043d
00000340: dd0c 023d 4ebf 953d 133c ccbd de22 4b3d
00000350: 9bce 053d 085e bf3d a647 a13a e1a3 4d3d
00000360: a140 0c3d 08a0 ef3d 624c cebd 2599 06bd
00000370: 2cbb c0bd b36c c33b ce93 8dbd 8f5d f63d
00000380: aa45 c33d 13da 25bc 1558 833d af91 7ebb
00000390: bb14 713d 2035 efbc 6e64 6f3c 1cd1 41bd
000003a0: 5ae3 73bd 3ce2 f83b 7089 85bc 685b 033d
000003b0: a633 df3d eee6 b83d 962d bebd ac97 8c3d
000003c0: 8be5 9c3d ef19 48bd 2ab7 f1bc 6fc9 a53c
000003d0: e457 8cbd ec46 513d 7095 bb3d 504a 513d
000003e0: 00a4 de3b b059 8cbd 890e 4e3d 4c1a 26bc
000003f0: 6320 dabd 0e28 88bd 765f dcbd 09ad 103d

fc2.bias f4 [32]
0.06414392 0.09814083 -0.05798269 -0.075215444 0.13454689 0.02114272 0.032941654 -0.044698726
0.07709172 -0.11286586 0.020399757 -0.07967628 0.012932375 0.0060898224 -0.038845155 0.040798765
0.05780609 0.06370772 -0.02966705 -0.06426531 -0.05839531 0.060133986 -0.07749812 -0.10616314
-0.072820954 0.09514154 -0.043221213 -0.078274846 -0.06841933 0.10933378 -0.09081888 0.0364101
00000000: e35d 833d 0ffe c83d 427f 6dbd 8e0a 9abd
00000010: a9c6 093e 7f33 ad3c d4ed 063d 0316 37bd
00000020: 44e2 9d3d 3726 e7bd 641d a73c 512d a3bd
00000030: 50e2 533c 228d c73b 191c 1fbd 9b1c 273d
00000040: 14c6 6c3d 3179 823d 5008 f3bc 889d 83bd
00000050: ec2f 6fbd 0e4f 763d 56b7 9ebd 0f6c d9bd
00000060: 2723 95bd 91d9 c23d ba08 31bd 904e a0bd
00000070: 6f1f 8cbd 64ea df3d 40ff b9bd c222 153d

fc3.weight f4 [3, 32]
-0.056206644 0.059249 -0.1772329 -0.11728111 -0.16363116 0.09930718 -0.021590024 -0.09864687
-0.15880443 -0.0670522 0.103112265 0.14208338 0.13739055 -0.07068905 -0.0018486921 0.056816075
-0.14393732 0.059370287 0.05686959 0.1617326 -0.07496015 -0.00078194216 0.048023235 0.022043759
-0.034140103 0.10476796 -0.113402255 0.10990536 0.15532248 0.012352689 0.13371654 -0.13331065
-0.043234948 0.16227934 -0.0073233796 -0.083953194 0.028283758 -0.06883661 -0.1284429 0.009908238
0.10221323 -0.10821005 -0.011104327 -0.039681826 -0.05258736 -0.10828119 0.15403706 0.13086498
-0.11822442 -0.17346287 0.07815286 0.08141557 -0.04148847 -0.17247376 0.07026522 -0.15117036
0.10759666 0.0674207 -0.013084304 -0.014139187 -0.10464544 -0.0044879634 -0.14064908 -0.01796256
-0.1612438 -0.03373145 -0.14073843 0.024463622 0.19019087 -0.11678733 -0.17451991 -0.10387144
0.06662859 0.14704745 0.10744124 0.11410131 -0.15386844 0.10486595 -0.054631177 -0.16345005
-0.1641011 -0.129317 0.054599803 0.13517217 -0.04003224 0.10121984 0.15147936 0.118506275
-0.0021981297 -0.10048146 0.062654585 0.07551442 0.13184805 -0.012862315 -0.15029399 -0.07704915
00000000: f038 66bd 14af 723d 8b7c 35be 1431 f0bd
00000010: ed8e 27be 9061 cb3d 90dd b0bc 5f07 cabd
00000020: a19d 22be aa52 89bd 862c d33d 4e7e 113e
00000030: 1cb0 0c3e 6cc5 90bd d04f f2ba f9b7 683d
00000040: 4e64 13be 422e 733d 16f0 683d 3b9d 253e
00000050: b584 99bd 40fb 4cba 03b4 443d 1d95 b43c
00000060: 7ed6 0bbd 9690 d63d 713f e8bd 1016 e13d
00000070: db0c 1f3e ef62 4a3c fdec 083e 9682 08be
00000080: 2117 31bd 8e2c 263e f6f8 efbb a7ef abbd
00000090: 57b3 e73c 35fa 8cbd 8986 03be 2a56 223c
000000a0: 2c55 d13d 3b9d ddbd ecee 35bc 6989 22bd
000000b0: d865 57bd 87c2 ddbd e4bb 1d3e 7801 063e
000000c0: a51f f2bd 40a0 31be 9b0e a03d 35bd a63d
000000d0: d0ef 29bd f69c 30be 36e7 8f3d 67cc 1abe
000000e0: a35b dc3d dd13 8a3d 8c5f 56bc 0ca8 67bc
000000f0: 5950 d6bd c40f 93bb 5006 10be 3826 93bc
00000100: 181d 25be fd29 0abd bc1d 10be ef67 c83c
00000110: 65c1 423e 322e efbd 59b5 32be 8dba d4bd
00000120: 9274 883d 9b93 163e 270a dc3d f3ad e93d
00000130: b08f 1dbe f6c3 d63d f1c4 5fbd 735f 27be
00000140: 1e0a 28be ad6b 04be 0ba4 5f3d 936a 0a3e
00000150: d9f8 23bd 594c cf3d 681d 1b3e 6bb3 f23d
00000160: 7f0e 10bb 39c9 cdbd 0c51 803d 4ea7 9a3d
00000170: 2d03 073e 76bc 52bc abe6 19be f2cb 9dbd

fc3.bias f4 [3]
-0.13407998 0.17337349 -0.034434855
00000000: 434c 09be d288 313e 900b 0dbd
