neuronas/cnn_sin_img/modelo_red_neuronal_convolu_uefa.pth (torch, 15746 bytes, 6 tensors)

fc1.weight f4 [64, 15]
000000 f1 31 67 3e e4 4e 6c 3e 42 38 30 3e bb c1 3a 3e
       0.22577645 0.2307697 0.1720896 0.18237965
000010 43 28 62 3e 0a 7c 26 be 87 05 2f be 53 d3 43 3e
       0.22085671 -0.16258255 -0.17091952 0.19123583
000020 d2 87 c9 3d b1 de 0d bd c7 db 94 bc 2b 0b 20 be
       0.09840359 -0.034636203 -0.018171204 -0.1562926
000030 db 37 cc bd 72 81 5f 3e 35 38 a2 3c 1e 32 1e 3e
       -0.09971591 0.21826723 0.019802192 0.15448806
000040 ce a7 ee 3d 8b 25 8f bd 39 89 83 3d 7f 11 2c 3e
       0.116531 -0.06989583 0.064226575 0.16803549
000050 2e bf 2b be da 64 82 3d 18 58 5d be 28 86 ff bd
       -0.16772148 0.06366892 -0.21615636 -0.1247676
000060 a6 28 42 3d ce 60 e4 3d 4f 10 4a 3e ff ce 56 3e
       0.047402047 0.111512765 0.19732784 0.209774
000070 6c 57 0a bd db 2a 1b 3e 5d d0 08 be 44 03 31 be
       -0.03377478 0.15153067 -0.13360734 -0.17286402
000080 0a 6c 1f bd 70 c6 46 be 94 65 a8 3d a2 32 84 3e
       -0.038921393 -0.19411635 0.082224995 0.2581988
000090 e1 65 76 be e4 8a 46 be d8 6b 3e be 48 97 8d bd
       -0.24062301 -0.1938892 -0.18595827 -0.0691362
0000a0 bc 26 5c 3e d1 98 b5 bd a6 01 43 3d e1 81 66 3e
       0.21499151 -0.08867038 0.047608994 0.22510482
0000b0 4d b2 3a 3e 2d ca 12 be 3a 1d 09 3e 10 db f8 3d
       0.18232079 -0.14334936 0.13390055 0.12151158
0000c0 71 18 53 be 06 7b 80 3d 09 5c d7 bd e8 e9 c3 bd
       -0.20614792 0.06273465 -0.10515601 -0.095660985
0000d0 27 51 53 3e d0 90 04 be 03 19 0e bc 38 09 60 be
       0.20636426 -0.12945867 -0.008672955 -0.21878517
0000e0 a3 b3 14 be fe 42 7c 3d fd af 1b be f5 90 75 bd
       -0.14521651 0.061587326 -0.15203853 -0.059952695
0000f0 76 13 b7 3d a7 56 92 bd e4 d4 67 3e fc 53 91 bd
       0.08939259 -0.07145434 0.22639805 -0.07096097
000100 14 c8 f0 3d f6 b2 93 3d 6f d1 52 3e 38 35 77 be
       0.11756912 0.072118685 0.20587705 -0.24141395
000110 5b 3e 3a 3e 12 44 05 3e 37 5d dd 3d 63 b2 12 3e
       0.18187849 0.13014248 0.10808795 0.14325862
000120 7c 47 5f 3e a0 7e 85 be 76 54 52 bd d1 d0 39 bd
       0.21804613 -0.2607317 -0.05135008 -0.04536516
000130 49 4a 2d 3c c7 8b f7 bc 4d 5e 47 be 97 ec 1f 3e
       0.010576793 -0.030218018 -0.19469567 0.15617596
000140 ee 23 77 be 8f cc 82 be c0 1a 4b 3e db 80 02 be
       -0.241348 -0.2554669 0.19834423 -0.12744467
000150 70 93 c6 bd 99 d7 cc 3d 4e 98 0f be 24 e8 29 3e
       -0.0969609 0.100020595 -0.14022943 0.16592461
000160 12 3e 8c 3e f0 b7 04 3e 2f 3e 1c be 2d 6b af bd
       0.27391106 0.12960792 -0.15258096 -0.08565364
000170 c2 21 8b 3d e6 82 92 bb 65 27 83 bc 36 0a 7e 3c
       0.06793548 -0.0044711707 -0.016009996 0.015505364
000180 3f 7f 53 3e b9 8a a1 bd 36 17 cc 3d 43 91 16 bd
       0.2065401 -0.07887787 0.09965365 -0.036759626
000190 8d 86 b5 bd b5 9b 67 3e 4e 5a 67 be c3 6b 54 be
       -0.08863554 0.22617991 -0.22593042 -0.20744233
0001a0 56 b8 12 be 35 51 81 3d 13 85 f0 bd 59 18 63 bd
       -0.14328131 0.06314317 -0.11744132 -0.05544314
0001b0 3c e7 27 be bf ee 19 3e ba 30 0f bc 54 ee b2 3d
       -0.16396803 0.1503248 -0.008739645 0.08736864
0001c0 a1 47 fd bc 23 93 dc 3d 4a ba 3a be 7f 5e 4a bc
       -0.030917944 0.107702516 -0.18235126 -0.012351631
0001d0 ee 2c 89 3d 04 be 69 3d f3 34 24 be 10 e8 de 3d
       0.06698023 0.05706598 -0.16035824 0.10884106
0001e0 05 65 06 3e 55 93 81 3e 53 b0 89 3e ba ec 2e 3e
       0.13124473 0.25307718 0.26892337 0.17082492
0001f0 49 2b d1 bd 37 96 78 3b 9d ae b6 3d e2 d5 53 be
       -0.10213334 0.0037931332 0.089200236 -0.20687059
000200 c3 21 54 be 01 e3 79 3e 5a 62 56 bc 44 38 75 be
       -0.20716004 0.24403001 -0.013084972 -0.23947245
000210 05 fe 3c bd 7d 88 2b 3d 5c b3 e6 3a e2 e5 ec 3c
       -0.04614069 0.041878212 0.0017601061 0.02891821
000220 52 23 83 be 68 e9 81 3e 68 bd c7 bc 43 f2 34 3e
       -0.25612885 0.25373387 -0.024382308 0.1767054
000230 e3 2a cf bd 64 63 cd bd 28 56 77 3e b0 e5 15 be
       -0.10115602 -0.10028723 0.2415396 -0.146384
000240 a9 12 ac 3c d7 48 db 3d f9 70 2b 3d 4b 0b e3 3d
       0.021004992 0.107072525 0.041855786 0.11086138
000250 d8 b4 34 3e df 6d bc 3d 9c d4 6c bd 02 86 52 3e
       0.17647111 0.09200644 -0.057819948 0.20558932
000260 f4 73 c3 3d 12 68 3b be 66 70 3a 3e a4 40 24 be
       0.09543601 -0.18301418 0.18206939 -0.16040283
000270 e0 6d 9c 3c d6 7c 99 bd a4 b0 63 be 80 73 4d bd
       0.019095361 -0.07494514 -0.22235352 -0.050158978
000280 58 02 fc bc e4 71 74 bd 75 bb 7b be 38 5c 34 bd
       -0.030762836 -0.059678927 -0.24583228 -0.04403326
000290 51 26 53 be d6 2d 19 bc 9c 85 a8 3d 7f 28 39 be
       -0.20620085 -0.009349307 0.08228609 -0.18081854
0002a0 f9 b5 36 bc bb 6b 6b 3e ad d3 10 3e 05 b4 42 3e
       -0.011151784 0.22990315 0.14143248 0.19013985
0002b0 bd c3 cd bd dd 2f 05 ba a4 9f 9a 3d 30 92 39 3d
       -0.100471 -0.00050806795 0.0754998 0.04530543
0002c0 e7 5b 41 be f3 98 7f be ab 84 6c 3c c7 2f 30 be
       -0.18882714 -0.24960689 0.014435927 -0.17205726
0002d0 84 15 0d 3d 96 38 5f be ff 83 40 be 04 76 cd bd
       0.034444347 -0.2179893 -0.18800353 -0.10032275
0002e0 52 41 67 bd 88 1d 9c 3c 4e 7f 6f 3d 02 ce 4d bd
       -0.05645878 0.01905705 0.058471017 -0.050245292
0002f0 c9 e7 2e be b0 78 0f bc fe 6d 5e 3d eb 4f 6f 3e
       -0.17080607 -0.0087568015 0.054304115 0.2337033
000300 d0 d5 42 3e 60 30 29 be 3a a1 5d 3e cc b0 0e be
       0.19026875 -0.1652236 0.21643534 -0.1393463
000310 de d9 3c be b6 cd 11 be ed 28 b7 3d 5f 89 2f 3e
       -0.18442485 -0.14238629 0.08943353 0.17142247
000320 85 a8 6e bd 63 2a 0b be 36 0c 52 3e 6e 1d 80 3e
       -0.05826618 -0.13590388 0.2051247 0.25022453
000330 73 a5 8b 3e 61 6c 21 be 72 e3 70 bd 63 7b 1c be
       0.27274665 -0.15764 -0.05881066 -0.15281443
000340 c9 2f 57 3d d1 bd 0b be 72 11 53 bd 84 2b 98 3d
       0.052535806 -0.13646628 -0.05153031 0.07430175
000350 bc 86 66 3e 0e af 08 3e 78 58 1f bc 27 89 4b be
       0.22512335 0.13348028 -0.009725682 -0.19876538
000360 e4 22 9b bd 6f 3a f5 bd 97 d4 66 3e 7d f6 06 3e
       -0.07575014 -0.11974036 0.22542034 0.13179965
000370 84 17 70 3e bd 83 f6 3d f5 a3 19 3e 5e 59 59 be
       0.2344647 0.12036846 0.15003951 -0.21225497
000380 78 34 1b 3e 53 dd 6b bc e5 ba f6 bc a2 89 a5 3d
       0.15156734 -0.0143960295 -0.030118415 0.08082892
000390 ef 86 84 3c f0 be cc bd 69 0b 11 3e 50 51 95 3d
       0.016177623 -0.09997356 0.14164509 0.072909
0003a0 1e 16 6f be 79 99 1f be 09 e0 98 3c 4c 11 2d 3e
       -0.23348281 -0.15585889 0.018661516 0.1690113
0003b0 b6 65 a0 3c ef 05 3f 3e 33 ea 66 3e 07 95 7f 3d
       0.01957975 0.18654607 0.22550277 0.062397983
0003c0 8a 15 a9 bd 1b f2 9e 3d 2b 96 f5 3d a4 2e 4e 3e
       -0.082560614 0.07761022 0.11991533 0.2013498
0003d0 9d 21 c4 3c 2f 06 1a be ed 64 7a be c8 84 73 3e
       0.02394181 -0.15041421 -0.24452563 0.23781121
0003e0 5c f1 53 3e 64 80 8e 3d 0e a2 5a be b6 dd d5 3c
       0.2069754 0.06958082 -0.21350881 0.026106697
0003f0 59 5c b6 3d 7d ac 8d 3e b6 c3 d1 bd d3 76 a9 bd
       0.08904333 0.2767066 -0.10242407 -0.08274617

fc1.bias f4 [64]
000000 93 f1 33 3e a5 29 cb bd 9b 28 6c bd 8a 35 98 bd
       0.17572622 -0.099200524 -0.057655912 -0.07432087
000010 8a de 52 be d7 a8 11 be 0d 76 14 bd 5b 15 b9 bd
       -0.20592704 -0.14224564 -0.036245394 -0.09037276
000020 6c 56 25 3e 09 e3 3e be 94 bf ea 3d b1 5c 73 3b
       0.16146249 -0.18641295 0.11462322 0.0037134106
000030 69 79 09 be f7 a1 f9 ba 0d f2 5b 3e bf c7 ba 3d
       -0.1342522 -0.0019045462 0.21479054 0.0912013
000040 bd 40 83 be 9c d7 73 be 3f 8f 28 3e dd 4e 65 be
       -0.2563533 -0.23812717 0.16460894 -0.22393365
000050 bd 95 0d 3e ed cf 82 be 54 24 d4 3d 0a 91 b2 bc
       0.13826652 -0.2554926 0.103584915 -0.021797676
000060 bc c2 24 3e 3f d9 6c 3d ff 69 55 3e bc 0a 2e bc
       0.1608991 0.05782437 0.20841216 -0.010622676
000070 af 0d 0c bc 8d 5d 16 3e d4 05 61 bc 80 58 2f bb
       -0.008548184 0.14684124 -0.0137343 -0.002675563
000080 d5 fa 81 be ea e9 e0 3d c1 3f 8a 3d 2c fc 13 3e
       -0.25386682 0.109821156 0.06750441 0.14451665
000090 60 f4 6c 3c 3c 54 15 3e 74 a6 4f be c2 61 9e 3d
       0.01446256 0.14582914 -0.2027834 0.077334896
0000a0 02 8f a0 bd f2 5a 88 bc 35 38 3e be d2 67 23 be
       -0.078397766 -0.016644929 -0.18576129 -0.15957573
0000b0 64 97 20 3e f2 30 1d be 91 a1 b1 bd d5 ee 5a bc
       0.15682751 -0.15350702 -0.086733945 -0.013362606
0000c0 9a c4 14 3e 07 76 12 3e b7 59 3f 3e 2c 7d 1a be
       0.14528123 0.14302836 0.18686567 -0.15086812
0000d0 d9 b6 5a be 8a 96 89 be ed 72 b2 3d e6 18 74 be
       -0.21358813 -0.26872665 0.087133266 -0.23837623
0000e0 50 e9 f5 bd b1 12 77 3e 33 8b e5 bd 4c ba 3c 3e
       -0.120073915 0.24128224 -0.11208191 0.18430442
0000f0 e2 19 5f be 2d 43 fc 3c d0 c0 88 3d a9 d8 a2 bd
       -0.21787217 0.03079375 0.06677401 -0.07951481

fc2.weight f4 [32, 64]
000000 d3 5d 24 3c a5 0b 3d 3c ec 03 3c 3d 4d 92 08 3e
       0.010032135 0.011538421 0.045902178 0.1333706
000010 55 77 b6 bc 5c c5 59 bd 24 77 49 3c 4e 6e 88 bc
       -0.022273699 -0.053166732 0.012296472 -0.01665416
000020 cb 71 cc 3c 25 04 04 3c 58 2e c1 3d 67 f1 a7 bd
       0.024956604 0.008057629 0.094326675 -0.08200341
000030 af cc 21 bc 37 7a 1f bd 93 d8 9c bd 6c b0 0d bd
       -0.0098754605 -0.038934913 -0.07658496 -0.034592077
000040 18 81 f4 bd db e5 c6 3d a9 ac 58 bd 40 bc 9d bc
       -0.11938685 0.0971181 -0.052899037 -0.019254804
000050 79 11 01 be 36 3e 7b 3c 81 7f 31 3d f6 71 3a 3d
       -0.12604322 0.015334656 0.043334488 0.045518838
000060 d2 d5 cb bd 3d ef 93 3d 47 4a bf bd 24 52 9b bd
       -0.09952892 0.072233655 -0.09340339 -0.075840265
000070 ae 27 69 bc 16 d0 b9 3d 76 da 23 3d 64 f2 37 bd
       -0.014230652 0.09072892 0.040003262 -0.044908896
000080 f9 31 de bd 30 72 9b bd c7 d4 ae bd 53 5c 01 3e
       -0.10849375 -0.07590139 -0.08536678 0.12632875
000090 e7 41 df 3d f3 cc 84 3d 16 dd 1f 3d 4e c7 c8 3d
       0.10901242 0.064844035 0.039029203 0.09803639
0000a0 96 8a da bd b9 94 98 3d da 18 97 bc 0a 85 ad 3d
       -0.106709644 0.074502416 -0.018444467 0.08472641
0000b0 a5 66 bc 3d 7e 1b 41 bd c5 34 2e bd 1e e0 b1 3d
       0.091992654 -0.04714536 -0.042530794 0.08685325
0000c0 00 4a 6c bb e5 b1 b0 3d 8a 5b 99 3d 2f 2a ae bc
       -0.003605485 0.08627681 0.07488163 -0.02126035
0000d0 52 f1 dc bd b0 66 39 bd c1 85 c3 3d 6c 8b 0d 3d
       -0.10788216 -0.045263946 0.09546996 0.03455679
0000e0 70 fa 84 3c 5c 6a 6a 3d 78 e2 45 3d 66 e4 50 bd
       0.0162327 0.05723034 0.04831168 -0.050999068
0000f0 97 12 aa bd f4 3d 0a 3d 9f 0a 46 bd 9c f9 e6 3b
       -0.08304327 0.03375049 -0.048349973 0.0070487987
000100 be 58 67 bd 8a a7 9b 3d 00 b6 4b ba 4e b0 7e bd
       -0.056481116 0.07600315 -0.00077709556 -0.062179856
000110 b4 44 2c bd 01 3c 28 3d ee 10 69 3d 36 4f 75 3d
       -0.042057708 0.04107285 0.05690091 0.059889995
000120 cb d9 14 3d 74 30 65 3d aa 91 b8 bd 03 99 69 bc
       0.036340516 0.05595441 -0.09012158 -0.014257672
000130 53 3b be 3d 2e 29 77 3d 1e 63 b4 bd 0e 8f e4 bd
       0.09288659 0.060342006 -0.088079676 -0.11160098
000140 ae 93 ca 3d 38 c2 eb bd 0e 76 d8 3d 4e e6 8d bd
       0.09891449 -0.11511654 0.10569392 -0.06928693
000150 3e 85 9c 3d 46 57 e8 bd 0e 0a fd bc dc e3 40 bd
       0.076426014 -0.11344771 -0.030888584 -0.047092304
000160 80 f8 38 3b b9 0f f4 bd ac b5 e9 bd dd bc a3 3c
       0.002822429 -0.11917061 -0.11411604 0.019987518
000170 c3 27 90 bc 7e 15 6c 3d 78 f4 dc bd 38 d5 f2 3c
       -0.017597085 0.057637684 -0.10788816 0.029642686
000180 c4 34 cc 3d ec 83 86 3c 17 94 e1 3d e7 b6 16 3d
       0.09971002 0.016420327 0.11014574 0.036795523
000190 3b ef de bd 06 db ec bd 50 ee 27 3d 4a 13 c9 bd
       -0.10885473 -0.11565213 0.040998757 -0.09818132
0001a0 04 44 97 bc 6d 97 bb 3d eb 74 a4 bb 52 31 a4 bd
       -0.01846505 0.091597416 -0.0050188205 -0.080172196
0001b0 28 76 c0 3d c1 d2 8b 3d 0c eb e4 3d aa 43 eb bd
       0.093975365 0.068273075 0.11177644 -0.11487515
0001c0 30 bc d6 bd 62 2a fd bd 13 b8 a2 bd 26 b5 dd bc
       -0.10485113 -0.123615995 -0.079452656 -0.027063917
0001d0 99 cd bd 3d 04 f3 bb bd ae 72 ec bd 54 29 38 3c
       0.0926773 -0.09177211 -0.11545311 0.011240322
0001e0 f6 1c 98 3d 69 b9 1d bd 13 aa 90 3a ec 96 35 bd
       0.07427399 -0.0385069 0.0011037014 -0.044333383
0001f0 34 ed 89 3b ee e4 07 be 5e 36 81 3d 69 0f 96 3d
       0.004209185 -0.13270923 0.06309198 0.07327158
000200 2f 56 85 3d 99 ef 6f 3d 92 bc ac bd 13 88 02 3e
       0.06510579 0.058578108 -0.084344044 0.1274722
000210 17 3a 67 bd 31 30 18 3d cb ec 43 3c c6 b9 02 3d
       -0.056451883 0.037155334 0.011958311 0.03191545
000220 8e 93 fd 3b 3d 55 3f bd d8 d7 61 3d 25 d3 df 3d
       0.007738537 -0.04671215 0.055137485 0.109289445
000230 45 c0 23 3d 95 43 c8 bd f5 62 01 be b0 85 b6 3c
       0.039978284 -0.09778515 -0.12635405 0.022280544
000240 eb 10 5c 3d b9 49 80 3c 47 b7 b7 bb 74 47 56 3d
       0.05372707 0.015660154 -0.005606565 0.052314237
000250 48 41 ca bd a3 95 40 3d 61 90 cf bd 6c 18 b2 b9
       -0.09875733 0.047017705 -0.1013496 -0.00033969
000260 af 61 87 bd 6c e5 a4 bb 33 7b 73 3b fa cd 11 bd
       -0.066104285 -0.005032232 0.003715229 -0.035596825
000270 df 66 33 3d 5d 4c 7a 3c 06 9d cc bd b6 fb 97 3d
       0.043799277 0.0152769955 -0.09990887 0.07421057
000280 38 39 af bc d6 6f e6 bd 90 19 0c bd 91 5d 0a 3d
       -0.021389589 -0.112518 -0.034204066 0.033780638
000290 c8 06 e1 3c 0d 29 43 3d 3c 78 06 ba 94 ad 8d bd
       0.027469054 0.04764657 -0.00051296107 -0.06917873
0002a0 e1 01 5b bd 38 41 f1 3c 37 2d cd bd 60 e1 a7 bd
       -0.05346859 0.029450044 -0.1001839 -0.08197284
0002b0 0c 94 ba bd 9c d7 a1 3c a7 00 e1 3d 42 ec db bd
       -0.09110269 0.01975613 0.109864525 -0.10738422
0002c0 e4 fe 5f 3d 6a 8e 23 bd 81 de a9 bd 7a d8 e8 bc
       0.054686442 -0.03993074 -0.082943924 -0.028423537
0002d0 ef 29 e0 bd ea 4c bb 3d d6 0c 80 bd eb 70 85 3c
       -0.10945498 0.091455296 -0.06252448 0.016289195
0002e0 ed fb bf 3d 11 46 9d 3d 3c fb aa 3d 1b fa 55 bd
       0.09374223 0.0767938 0.083487004 -0.052240472
0002f0 cf f3 81 3c 3c b8 93 bd d4 93 d0 3d aa 83 4b 3d
       0.015863327 -0.07212874 0.10184446 0.04968611
000300 4a 2d b3 3a 20 5c 53 bd 3a 95 be 3d 97 ad 41 bd
       0.0013670113 -0.05160153 0.093058065 -0.04728469
000310 ce 4c a6 3c ea f6 7c bd d5 e7 2d 3d 6c 60 c3 3d
       0.020300295 -0.061758913 0.04245742 0.095398754
000320 fb 82 6c 3d 3c 75 9e 3d a8 92 fc bc 9b 12 e1 3d
       0.0577421 0.077372044 -0.03083165 0.10989877
000330 57 fb 49 bd 3e be 70 bd a2 08 f8 bc 0f f4 98 3d
       -0.049311962 -0.05877518 -0.030277554 0.074684255
000340 28 b4 31 3c 14 e0 42 3d 2a 11 29 3c 1c a4 ba bd
       0.010846175 0.04757698 0.010319034 -0.09113333
000350 fc 92 f2 3d 6e d0 c0 bc f9 b4 a0 3d 41 53 67 bc
       0.11844441 -0.023536887 0.07847018 -0.01411897
000360 ed 47 a2 3c d7 7f f0 3d 63 ff 14 3d e8 c5 30 3d
       0.019809688 0.117431335 0.03637637 0.043157488
000370 75 0c c1 3c 10 fc b2 3d 1e ec 8c bd 62 d0 f9 3d
       0.02356551 0.08739483 -0.06880973 0.12197949
000380 6d 24 d5 bd cb c0 f9 3d 79 e1 9a bd a4 2e 9a 3d
       -0.10407338 0.121949755 -0.07562537 0.07528427
000390 9f 2c bb 3d 71 87 63 bd 15 a0 d0 3c 4c 26 ea 3d
       0.0913937 -0.05554909 0.025466958 0.11433086
0003a0 87 92 b0 3d fc 04 bf 3d a0 f1 a3 3d 38 05 ae bd
       0.08621698 0.093271226 0.08005071 -0.08497089
0003b0 a3 d5 84 3d 1e 32 8b bb 60 2b 82 3d 95 c5 d5 bc
       0.064860605 -0.004247918 0.063559294 -0.026095191
0003c0 36 66 c9 bd bc a5 26 bc 37 30 b9 3d f0 86 04 3e
       -0.09833948 -0.01017135 0.090423994 0.129421
0003d0 98 51 4e 3d 11 03 2f bc c1 98 b5 3c 61 ea 0b 3d
       0.050370783 -0.010681883 0.022167565 0.034159068
0003e0 ff 9d 96 bb ac be 31 bd 69 be 28 bd 9f 56 dc bc
       -0.0045964713 -0.04339473 -0.041197214 -0.026896773
0003f0 01 50 df 3d 4b 1a 87 3d 55 95 18 bd 80 72 b7 3d
       0.109039314 0.06596812 -0.03725179 0.08957386

fc2.bias f4 [32]
000000 5c 93 e0 3c 03 10 d2 bc ad 8d ad 3c 12 ed 41 bd
       0.027414016 -0.0256424 0.02118572 -0.04734523
000010 e8 2e 00 be a2 c7 9e bd b5 ad aa bc fd 18 a0 3d
       -0.12517893 -0.07752921 -0.020834783 0.07817266
000020 1e df d9 bd 01 bd 02 3c 11 3d b6 bd aa 34 b8 3d
       -0.10638259 0.007979632 -0.08898366 0.0899442
000030 09 7f e1 3d 13 36 da 3c 56 7a 75 3b 8a 12 c5 3d
       0.11010558 0.026637113 0.003745695 0.09622677
000040 71 d9 89 bd c0 7c 1e bb f6 22 0a be 0e 55 93 3d
       -0.06730927 -0.0024183244 -0.13489899 0.07193957
000050 d6 00 f8 3d 56 a8 ee 3d e4 e5 a9 bd 63 59 86 bc
       0.121095344 0.11653201 -0.08295801 -0.016400045
000060 74 d2 d1 bc 3b b0 f7 bb 9c fd 1d 3d bc 03 d5 3d
       -0.025613047 -0.00755885 0.03857194 0.10401103
000070 c3 9b 90 bc 36 d9 e9 39 81 f9 45 bd ee 5c 29 bb
       -0.017652398 0.00044603058 -0.04833365 -0.0025842744

fc3.weight f4 [3, 32]
000000 e2 3a b7 bd 03 2b 3f bd 33 a5 f9 bd 92 51 b2 bc
       -0.08946778 -0.04667188 -0.121897124 -0.021767411
000010 30 12 c5 bd e1 43 f6 bd ca 5b 0a be 23 2e 38 3e
       -0.096226096 -0.120246656 -0.13511577 0.1798635
000020 e2 57 f4 bd b0 fe 03 be e4 29 4b bd 16 31 33 be
       -0.11930825 -0.12890124 -0.049600497 -0.17499194
000030 14 d3 0a 3e 4a b5 fc bd 03 e7 15 bc 98 07 33 3d
       0.13557082 -0.12339266 -0.009149316 0.043708414
000040 d2 4a b6 3d 4b 7c 1d be bf 8b 04 be 5d fe 01 3e
       0.089009896 -0.15379445 -0.12943934 0.12694688
000050 2e eb cf 3d 42 a1 17 3e db 4f 38 be 87 6f 57 bd
       0.10152279 0.14807609 -0.17999212 -0.052596595
000060 ab 9f 29 be 1a cc a2 bd ce f0 15 be 3c 74 7c 3c
       -0.16564815 -0.079490855 -0.14642641 0.015408572
000070 89 09 c3 3d 13 17 2f bd b0 23 c3 bd 02 1b 06 be
       0.09523303 -0.042746615 -0.09528291 -0.1309624
000080 ec b4 5c bc 65 c2 ed 3d df ea ea 3d 6e 45 f1 bd
       -0.0134708695 0.116093434 0.11470579 -0.11780821
000090 30 9d 54 3d 76 64 1a bd f9 8b c5 bd 0b 8b 28 bc
       0.05190772 -0.037693463 -0.09645838 -0.010287057
0000a0 2f da e0 bb b6 85 9b bd 74 0b 5d 3d 6e 46 fa bc
       -0.006861947 -0.07593863 0.053966 -0.030551162
0000b0 a6 3b a4 3d e5 20 7f 3c 44 a2 ef 3a 28 ca 7b bc
       0.080191895 0.0155718075 0.0018282612 -0.015368022
0000c0 7d ae bd bb 9d a6 26 3e 88 ad 0e be 61 d6 49 bc
       -0.005788623 0.16274495 -0.13933384 -0.012319178
0000d0 48 2c da 3c ef 9c 20 3e eb 21 92 3d 6f dd 13 be
       0.026632443 0.15684865 0.071353756 -0.14439939
0000e0 ec a8 22 3e 84 fb de 3d bd a5 27 3e 92 d1 32 3e
       0.15884751 0.108878165 0.16371818 0.17462757
0000f0 17 1e 03 3e 3c 55 1d 3e 18 c0 93 bd 2f cf 7f bd
       0.12804447 0.15364546 -0.07214373 -0.062453445
000100 04 c1 9c bd f0 6f 05 be d4 1f 7a 3d f3 4c b5 bd
       -0.07654002 -0.13030982 0.06106551 -0.088525675
000110 d2 8f 8b bd c9 77 95 bd 50 84 4c bd e5 14 bf bd
       -0.06814541 -0.07298238 -0.04993087 -0.09330157
000120 7d 8b 95 bc 2b 8e 66 3d 32 2d cb bd 1a fb 11 be
       -0.01825499 0.056287926 -0.0992073 -0.14255944
000130 81 87 35 bd 76 0e bb 3d 7c 01 cc bd 22 e2 b3 3d
       -0.04431868 0.091336176 -0.099612206 0.08783366
000140 59 63 f3 3d 87 38 0e 3e d1 41 9c 3d 84 45 8f 3d
       0.118841834 0.13888751 0.07629741 0.06995681
000150 bb 7b 2c 3e 94 e3 26 3e c6 a3 10 be f2 f3 99 3b
       0.16844074 0.16297752 -0.14124975 0.00469827
000160 0a 88 ee bd 40 c6 1d be b7 8f b9 3d 56 be aa 3d
       -0.11647041 -0.15407658 0.090606146 0.08337085
000170 b3 f7 e4 bd 8f 14 5c 3c ce e5 ab bd bc 4a e2 bd
       -0.111800574 0.013432636 -0.08393441 -0.11049411

fc3.bias f4 [3]
000000 43 f4 1f 3e 10 e0 32 3d a0 eb 32 be
       0.15620522 0.043670714 -0.17472696
