neuronas/cnn_sin_img/modelo_red_neuronal_convolu_uefa.pth (torch, 15746 bytes, 6 tensors)

fc1.weight f4 [64, 15]
0	0x3de2d367	0.11075478
1	0xbd643e86	-0.05572369
2	0xbdde358e	-0.108500585
3	0x3d9666ae	0.07343803
4	0x3e8181b0	0.25294256
5	0xbd86a84a	-0.06575067
6	0x3e6cc65f	0.23122548
7	0xbdd0ecf4	-0.10201445
8	0xbcfa8c30	-0.030584425
9	0x3e71feb9	0.23632325
10	0x3df74a2f	0.12074696
11	0x3e5eb3ad	0.21748228
12	0xbe1cfcb4	-0.15330774
13	0xbe67bdb5	-0.22630961
14	0x3e76fc2e	0.24119636
15	0x3e4a3311	0.19746043
16	0x3d0a76d8	0.033804744
17	0x3e1aeae7	0.1512867
18	0xbd96c184	-0.07361129
19	0x3e38cb56	0.18046317
20	0xbe279f20	-0.16369295
21	0xbe5f7cab	-0.21824901
22	0xbd82db67	-0.06389504
23	0xbe2d3c1e	-0.16917464
24	0x3d1f5239	0.038896773
25	0xbc86bff0	-0.016448945
26	0x3d9b736c	0.07590374
27	0xbe2c75dc	-0.16841835
28	0x3c8236bd	0.015895242
29	0x3d6225ef	0.055211958
30	0xbd591b88	-0.05300477
31	0xbd849bd0	-0.064750314
32	0xbcf6f990	-0.030148298
33	0x3e25ec6c	0.16203469
34	0x3e3bd7a0	0.18343973
35	0x3c4ce460	0.012505621
36	0xbe5d41db	-0.21607153
37	0xbe3b2890	-0.18277192
38	0x3d9dbdf0	0.07702243
39	0xbe6d92cc	-0.2320053
40	0xbd25450c	-0.04034905
41	0xbe6ec583	-0.23317532
42	0xbe508aac	-0.20365399
43	0x3d983a40	0.07432985
44	0xbd131004	-0.035903946
45	0x3e3bf394	0.18354636
46	0x3e7341cc	0.23755568
47	0xbd9092a6	-0.07059221
48	0xbd37d386	-0.04487946
49	0x3e763950	0.240453
50	0x3e5b7e62	0.2143493
51	0xbe8a1b18	-0.26973796
52	0x3d342bc7	0.04398706
53	0xbe6d795a	-0.23190823
54	0xbdee45f7	-0.116344385
55	0x3c966c5c	0.018362217
56	0x3e7887f6	0.24270615
57	0x3e08a06e	0.13342449
58	0xbe18a272	-0.14905718
59	0x3e72285b	0.23648207
60	0x3d5f5417	0.054523554
61	0x3e1f612d	0.15564413
62	0x3e13dab8	0.14438903
63	0x3e19cc85	0.15019424
64	0x3e3a6ac8	0.18204796
65	0x3dbe8201	0.0930214
66	0x3e1fe9c3	0.15616517
67	0xbdd1f83d	-0.10252426
68	0xbd8633ee	-0.065528736
69	0xbd83e1c0	-0.06439543
70	0x3ded69da	0.11592455
71	0xbd9554d5	-0.07291571
72	0x3e26d05b	0.16290419
73	0xbe262b5a	-0.16227475
74	0x3da069e8	0.078327
75	0xbc6ff5b9	-0.014645987
76	0xbe6bd3ca	-0.2303001
77	0xbd042828	-0.03226486
78	0xbd2fc052	-0.04290802
79	0x3d837814	0.064193875
80	0x3d9946c6	0.07484202
81	0xbdc80e4f	-0.09768354
82	0x3e28cc98	0.16484296
83	0x3bd88c8a	0.0066085504
84	0xbdecfb25	-0.115713395
85	0xbde761a5	-0.11297921
86	0xbdc1c1ec	-0.09460816
87	0xbddecc3e	-0.108788
88	0xbc3bd50a	-0.011464367
89	0x3e6ded47	0.23235045
90	0x3bf48a67	0.007462788
91	0xbc8e0420	-0.017335951
92	0xbdad246a	-0.08454211
93	0x3e765c2a	0.24058595
94	0x3e124386	0.1428357
95	0x3debd1f3	0.11514654
96	0x3e43a8c2	0.19107345
97	0x3e54b884	0.20773512
98	0x3d78797c	0.06066273
99	0xbe70aa2b	-0.23502414
100	0x3e5a972e	0.21346733
101	0x3d83470e	0.06410037
102	0x3cb19db1	0.021681638
103	0xbe20ee34	-0.15715867
104	0xbc9d190b	-0.01917698
105	0xbdbbafc2	-0.091643825
106	0x3e079098	0.13238752
107	0x3e3ca042	0.18420509
108	0xbdfdc59a	-0.12391205
109	0xbe15d0ac	-0.14630383
110	0x3e7431e5	0.23847158
111	0x3e17c83a	0.14822474
112	0xbe43c2d0	-0.19117284
113	0xbe64f107	-0.2235757
114	0xbdb2af90	-0.08724892
115	0x3d61c465	0.055118937
116	0x3e0be4d4	0.1366151
117	0x3e5cf9e8	0.21579707
118	0xbdb801e6	-0.08984737
119	0x3d23f9a9	0.040033016
120	0xbda04f7b	-0.0782766
121	0xbe4ea4af	-0.2018001
122	0x3e39dff1	0.18151833
123	0x3dd85a73	0.10564127
124	0x3b3b826e	0.0028611678
125	0xbe0425fc	-0.12905115
126	0xbe0ee793	-0.13955526
127	0xbe689c25	-0.22715814
128	0x3cc05e25	0.023482392
129	0xbe23ef50	-0.16009259
130	0xbe3ce2c3	-0.18445878
131	0xbcc5495f	-0.024082838
132	0x3e324d32	0.1741226
133	0x3e83d148	0.25745606
134	0xbe63c6df	-0.22243832
135	0xbe527366	-0.20551834
136	0x3e1740f2	0.14770868
137	0x3e6d7c3b	0.23191921
138	0xbe27a96b	-0.16373222
139	0xbe0de654	-0.13857394
140	0x3dd3e07c	0.10345551
141	0x3db06085	0.0861216
142	0xbdead6be	-0.1146674
143	0xbdb688e7	-0.08912831
144	0xbe37f756	-0.17965445
145	0xbe0c6e9c	-0.13714069
146	0xbba50697	-0.005036186
147	0x3e10f498	0.14155805
148	0x3d9d0eab	0.07668813
149	0x3e302f75	0.17205603
150	0x3e228d95	0.15874322
151	0x3e29a316	0.16566119
152	0x3d4192fe	0.047259323
153	0xbbc560b6	-0.0060234917
154	0x3d9397c6	0.07206683
155	0x3dcf85c7	0.10132938
156	0x3e492ab7	0.196452
157	0xbcbb6c76	-0.022878867
158	0xbbc2a111	-0.005939611
159	0xbde960ed	-0.1139544
160	0xbe0ef18c	-0.1395933
161	0x3dd24555	0.1026713
162	0x3deb289c	0.11482355
163	0xbdc861d2	-0.09784283
164	0x3c69fb47	0.014281101
165	0xbd5c5b85	-0.053798217
166	0xbcd2e94d	-0.025746012
167	0x3e3cf523	0.18452887
168	0x3e2ee735	0.17080386
169	0xbda9bb17	-0.08287638
170	0xbe3bfc59	-0.18357982
171	0x3cfa518b	0.03055646
172	0x3e731b44	0.2374087
173	0xbe546e26	-0.20745143
174	0x3e8ac9ee	0.27107185
175	0xbe259d32	-0.16173247
176	0x3dcb02dc	0.09912655
177	0xbdf33f12	-0.11877264
178	0x3e509d13	0.20372419
179	0xbd0692a3	-0.032854687
180	0xbcf9f354	-0.030511536
181	0xbe451502	-0.19246295
182	0x3ca8b672	0.02059481
183	0x3d09b81d	0.03362285
184	0xbe67d886	-0.22641191
185	0x3e1679d4	0.14694911
186	0xbdf82692	-0.12116732
187	0x3e0bd6a0	0.13656092
188	0x3d45bc7e	0.048275463
189	0x3d1c16fe	0.038107865
190	0x3e14d65e	0.145349
191	0x3e60c65a	0.21950665
192	0xbcd25610	-0.025675803
193	0xbddbca1d	-0.107319094
194	0x3e4a8bb9	0.19779862
195	0xbe618266	-0.220224
196	0x3e64b836	0.22335896
197	0xbd88ccc9	-0.06679685
198	0xbd07fdab	-0.0332009
199	0xbe568de1	-0.2095256
200	0x3d9a145a	0.07523413
201	0x3da10501	0.078622825
202	0xbe358a9d	-0.17728658
203	0xbd6cf08a	-0.057846583
204	0xbb85349d	-0.00406511
205	0xbd01b248	-0.031664163
206	0x3df057b5	0.11735479
207	0xbe09861d	-0.13430066
208	0xbe1158dd	-0.14194055
209	0x3e395952	0.18100479
210	0x3d336495	0.043797094
211	0x3bea5d5b	0.007152242
212	0x3e661f61	0.22472908
213	0x3e0e09ff	0.13871
214	0x3dc3ecd6	0.09566657
215	0xbe238aa0	-0.1597085
216	0x3e40ef93	0.1884139
217	0xbe3fa6ad	-0.18715926
218	0x3d338f6f	0.04383796
219	0x3d60b65d	0.054861415
220	0xbe8a8b6d	-0.27059498
221	0x3d3428eb	0.043984335
222	0xbd198d82	-0.037488468
223	0x3e57ba15	0.21067078
224	0x3e4126db	0.18862478
225	0x3e3c7aab	0.18406169
226	0x3e524602	0.20534518
227	0xbd5250f9	-0.051346753
228	0xbcba9992	-0.022778306
229	0xbdbdccda	-0.09267588
230	0x3e04586a	0.12924352
231	0x3e725e14	0.236687
232	0x3de98d60	0.11403918
233	0x3e1e64ba	0.15468112
234	0x3cc3526f	0.023843018
235	0x3e34d87c	0.17660707
236	0xbc9584d7	-0.01825182
237	0x3e1d903a	0.1538705
238	0xbe41cf59	-0.18926753
239	0x3d4c76b8	0.049917907
240	0xbd44411e	-0.047913663
241	0xbe6be654	-0.23037082
242	0xbded8ca8	-0.11599094
243	0xbe125fdf	-0.14294384
244	0x3e67590d	0.22592564
245	0x3d5a5096	0.05329951
246	0x3e01feab	0.12694804
247	0xbdc96119	-0.09832973
248	0xbce74b3b	-0.028234115
249	0xbe42b447	-0.19014083
250	0x3c0d2c41	0.008616508
251	0x3e18bdd6	0.14916167
252	0x3daef14a	0.08542116
253	0x3d9ee6e0	0.0775888
254	0x3dc35f46	0.09539656
255	0xbe5b28a2	-0.21402219

fc1.bias f4 [64]
0	0x3e4ea9fe	0.20182034
1	0xbcbd03c0	-0.023073077
2	0x3e5d222e	0.2159507
3	0xbd6c560d	-0.057699252
4	0xbe6b5f56	-0.22985587
5	0x3d46a2e7	0.0484952
6	0xbcbdf0a3	-0.023186034
7	0x3e49bea1	0.19701625
8	0xbe33a74e	-0.1754429
9	0x3e35bb86	0.17747316
10	0x3d3a7174	0.045518354
11	0x3e2eb658	0.17061746
12	0x3e028544	0.1274615
13	0x3e57659e	0.21034858
14	0x3d213339	0.03935549
15	0xbd6721a3	-0.056428563
16	0xbd97d103	-0.07412913
17	0x3e51009d	0.2041039
18	0x3c027d73	0.00796448
19	0x3e37067f	0.17873572
20	0x3db46a62	0.088093534
21	0xbcf50eef	-0.029914347
22	0x3e83bd95	0.25730577
23	0x3e39d489	0.18147482
24	0x3d99c262	0.07507779
25	0x3d4fb744	0.050711885
26	0x3be1234a	0.006870662
27	0x3e5907c8	0.21194375
28	0xbe436d42	-0.19084647
29	0xbe59c642	-0.21267036
30	0xbe350801	-0.17678834
31	0xbd631b64	-0.055446044
32	0x3c84a0fa	0.01619004
33	0xbcbdc4e7	-0.02316518
34	0x3daa80f4	0.08325377
35	0xbd504dec	-0.050855562
36	0xbe60b0f8	-0.21942508
37	0x3e495c3b	0.1966409
38	0xbd07b6ea	-0.033133425
39	0xbe4a1660	-0.19735098
40	0x3e62fcbe	0.22166726
41	0xbe6f874e	-0.23391458
42	0xbe5d54b5	-0.21614344
43	0x3ddb5437	0.10709422
44	0x3dfa16ba	0.12211366
45	0x3d300c0a	0.04298023
46	0x3dfe2cd9	0.12410898
47	0x3e7cd274	0.24689656
48	0xbe3b8812	-0.18313625
49	0x3e84a3cb	0.25906214
50	0xbda0a450	-0.0784384
51	0x3dc6bc6a	0.09703906
52	0xbe15a0ca	-0.14612117
53	0x3dd08757	0.10182064
54	0xbe5d35c0	-0.21602535
55	0xbe7c235c	-0.24622864
56	0xbd88c9f6	-0.06679146
57	0xbe46c7ee	-0.19412205
58	0x3e1d480e	0.15359518
59	0xbdb535c8	-0.088481486
60	0x3d2a37a4	0.04155697
61	0x3c70a57a	0.01468789
62	0x3dda39a8	0.10655528
63	0x3a0a0852	0.0005265522

fc2.weight f4 [32, 64]
0	0x3d2aaacb	0.041666787
1	0xbdd8d651	-0.105877526
2	0xbde111ee	-0.10989748
3	0x3dbef4cc	0.09324035
4	0xbca5cdd2	-0.020239744
5	0xbd91022e	-0.07080494
6	0xbde40582	-0.11133863
7	0xbca7b2db	-0.020471027
8	0xbc3c0370	-0.011475429
9	0xbc6aefae	-0.014339371
10	0x3aef98bb	0.001827977
11	0x3d7af2a1	0.061266545
12	0xbc9d13aa	-0.019174416
13	0x3dd3206e	0.1030892
14	0x3cdf3f31	0.027251812
15	0x3cb5ffa5	0.022216627
16	0x3cdadec9	0.02671756
17	0x3c342779	0.010995739
18	0xbaba3fe8	-0.0014209719
19	0x3d37d75c	0.044883117
20	0x3dd6fc60	0.104973555
21	0xbd7eb8cd	-0.06218796
22	0xbd89183a	-0.06694074
23	0xbdbebb67	-0.09313088
24	0xbaba5f3a	-0.0014219054
25	0x3b9b485d	0.004738851
26	0xbd19e8ad	-0.037575413
27	0x3dd066e7	0.10175877
28	0xbc81a8e3	-0.015827602
29	0x3d6fe614	0.05856903
30	0x3d8f1114	0.06985679
31	0x3d339b14	0.043849066
32	0xbce199ee	-0.02753922
33	0xbd86fea4	-0.065915376
34	0xbdc729f8	-0.09724802
35	0xbd3d6b0b	-0.046244662
36	0xbdf9c02b	-0.12194856
37	0xbdb9d0c1	-0.0907302
38	0x3cc37f4f	0.023864416
39	0xbdd1aa1e	-0.102375254
40	0x3dcbf49b	0.09958764
41	0xbda115da	-0.07865496
42	0xbdb42bab	-0.087973915
43	0x3df4680a	0.119339064
44	0x3de40550	0.11133826
45	0x3ca16788	0.019702688
46	0x3d51dc37	0.051235404
47	0xbc716e67	-0.014735795
48	0x3da0b0f3	0.078462504
49	0x3d5cadcc	0.053876683
50	0xbde567c9	-0.11201436
51	0x3be21957	0.0068999934
52	0x3d590ea4	0.052992478
53	0xbc906ce0	-0.01763004
54	0x3cd2d985	0.025738487
55	0x3d48b4a4	0.049000397
56	0xbd5066d2	-0.050879307
57	0xbdfc0980	-0.123064995
58	0xbd1e6961	-0.038674716
59	0x3d9b1bc4	0.07573655
60	0x3bec0b81	0.00720352
61	0x3d938cb0	0.072045684
62	0xbdaff55e	-0.08591722
63	0x3dcc49e8	0.09975034
64	0xbd239a5c	-0.03994213
65	0xbd689344	-0.05678107
66	0xbdb41cde	-0.087945685
67	0xbddfc66d	-0.109265186
68	0x3d054ea7	0.03254571
69	0xbd53f654	-0.05174859
70	0x3dc1a9a7	0.09456187
71	0xbd042130	-0.032258213
72	0xbdebe762	-0.11518742
73	0xbd74f502	-0.05980397
74	0x3d936a0c	0.07197961
75	0x3dde7aff	0.108633034
76	0xbde50e22	-0.11184336
77	0x3cac9a78	0.02106975
78	0xbdc1425d	-0.09436486
79	0xbd076f94	-0.033065394
80	0xbd7fe179	-0.062470887
81	0xbd799574	-0.060933545
82	0x3df8bab8	0.12144989
83	0xbdbe9c68	-0.09307176
84	0x3c0cf78f	0.008603944
85	0x3b04d6f9	0.0020269735
86	0xbd2e2693	-0.042517256
87	0x3c870b81	0.016484978
88	0xbdc2c7c1	-0.09510756
89	0x3c3e61df	0.011620014
90	0xbdb1477c	-0.08656213
91	0x3c68c1bf	0.014206349
92	0xbd6a5511	-0.057210032
93	0xbd5bd450	-0.053669274
94	0x3dd86ace	0.105672464
95	0x3cd78700	0.02630949
96	0x3d090e91	0.033461157
97	0x3c1c00eb	0.009521703
98	0xbd89cb56	-0.067282364
99	0x3d659fc4	0.056060567
100	0xbdc34436	-0.095344946
101	0xbd07f689	-0.0331941
102	0xbd623328	-0.055224568
103	0xbd6c9a46	-0.057764314
104	0x3daefcf5	0.085443415
105	0x3cd5fb10	0.026120692
106	0xbd14baf8	-0.03631112
107	0xbdf1c06a	-0.11804278
108	0x3d2dbfe0	0.042419314
109	0xbd9d6c93	-0.076867245
110	0x3b910d30	0.004426621
111	0x3d33d31b	0.043902498
112	0x3d05612c	0.032563373
113	0xbd55fcab	-0.052242916
114	0x3def9328	0.1169799
115	0x3d466351	0.04843456
116	0xbd32bf28	-0.043639332
117	0xbdf6b6a4	-0.12046555
118	0x3cfcef8a	0.03087594
119	0xbc7e7962	-0.01553187
120	0xbe086ec0	-0.13323498
121	0x3cc148ed	0.023594344
122	0xbdce86bd	-0.10084293
123	0x3dc7e3a3	0.09760215
124	0xbdc2f2ed	-0.09518991
125	0x3d318172	0.04333634
126	0xbd9962f8	-0.0748958
127	0xbdce2482	-0.10065557
128	0xbdc85a22	-0.097828165
129	0xbd8362d6	-0.06415336
130	0xbd750708	-0.05982116
131	0xbdf5601c	-0.11981222
132	0xbda66511	-0.08124746
133	0xbd2713c3	-0.04079033
134	0x3c22ccbf	0.009936511
135	0x3d279d1d	0.04092132
136	0xbd027928	-0.031853825
137	0x3d9e0e6e	0.07717596
138	0x3dc87f4d	0.09789906
139	0xbd513218	-0.051073164
140	0xbd7a2665	-0.061071772
141	0xbd9244a0	-0.071419954
142	0xbdda16cc	-0.106488794
143	0xbd885f4f	-0.06658804
144	0x3d25008b	0.04028372
145	0x3d9f4b90	0.07778084
146	0x3db23386	0.087012336
147	0xbcab4e28	-0.020911291
148	0xbdbb1384	-0.09134582
149	0x3d97d0fa	0.07412906
150	0x3c8bb7b1	0.017055364
151	0x3d81c1a3	0.063357614
152	0x3dd76896	0.10517995
153	0x3d152c64	0.036419287
154	0x3d8f9cb6	0.07012312
155	0xba801a00	-0.0009773374
156	0xbd48ee85	-0.049055595
157	0x3dbd21a8	0.09234935
158	0x3d8fd5b0	0.070231795
159	0x3d2660a8	0.040619522
160	0xbd9e1048	-0.07717949
161	0xbdab9fe2	-0.083801046
162	0xbdbaa742	-0.09113933
163	0x3d84ecd0	0.06490481
164	0xbd0bdd2e	-0.03414648
165	0xbd6be2ba	-0.05758927
166	0x3d8a05ef	0.06739413
167	0xbd0d9992	-0.034570284
168	0xbdd7021c	-0.10498449
169	0x3dd685ac	0.10474715
170	0xbd29fba1	-0.041499738
171	0xbdef20c7	-0.11676174
172	0x3d13e578	0.03610751
173	0x3bbce8d1	0.0057650586
174	0xbd171d57	-0.036893215
175	0xbbbfb511	-0.005850442
176	0xbde86142	-0.113466755
177	0x3c149590	0.009068862
178	0xbdb25eb2	-0.08709468
179	0xbde9b432	-0.11411323
180	0xbcd750e0	-0.026283681
181	0x3d06e7cc	0.032935902
182	0x3dee81ff	0.116458885
183	0xbda51805	-0.08061222
184	0x3c0de290	0.008659974
185	0xbdec851a	-0.115488246
186	0xbd5030c0	-0.05082774
187	0x3deec5e9	0.11658842
188	0x3da0535a	0.07828398
189	0x3dda78ea	0.10667594
190	0xbddf24c4	-0.10895684
191	0x3d75b120	0.059983373
192	0xbccb362e	-0.024806108
193	0xbd1995d5	-0.037496407
194	0xbd929150	-0.071566224
195	0x3c34a95b	0.011026706
196	0xbdc7c4e6	-0.09754352
197	0x3dd33185	0.103121795
198	0x3dbb7091	0.0915233
199	0x3d1ce125	0.038300652
200	0x3cadb478	0.021204218
201	0xbdbb65eb	-0.09150299
202	0xbd5a3910	-0.053277075
203	0xbce92eb2	-0.028464649
204	0x3d970f5a	0.07375975
205	0x3d4a53a3	0.04939617
206	0xbd30c225	-0.0431539
207	0x3cb9a1f4	0.022660233
208	0xbdf7ce0c	-0.12099847
209	0x3ddc86a1	0.10767866
210	0x3d806130	0.06268537
211	0xbc61993c	-0.013769444
212	0xbdbd5bcf	-0.09246027
213	0x3d487e30	0.048948467
214	0xbdc7dcfc	-0.09758946
215	0xbd34c575	-0.044133622
216	0x3d95770d	0.07298098
217	0x3d81cdc9	0.063380785
218	0xbe0038f2	-0.12521723
219	0xbd0686ef	-0.032843526
220	0x3b13ddb7	0.0022562572
221	0xbe02b31a	-0.12763634
222	0xbd6e1745	-0.05812766
223	0x3dba97a0	0.091109514
224	0xbd8369f2	-0.06416692
225	0xbdccb8b4	-0.09996167
226	0x3ddb677d	0.10713098
227	0xbdcee9de	-0.101032004
228	0xbc69dcca	-0.014273832
229	0xbdaa231a	-0.08307476
230	0x3d6a7db7	0.057248797
231	0x3d617fd9	0.055053566
232	0x3dac6237	0.084171705
233	0xbc579900	-0.013159037
234	0xbd864138	-0.06555408
235	0x3da8bbad	0.08238921
236	0xbddd6b5c	-0.10811493
237	0x3d6a1b32	0.05715484
238	0x3de29e0c	0.11065301
239	0xbddd3a7b	-0.1080217
240	0x3d82b60f	0.06382381
241	0xbc01907d	-0.007907984
242	0x3c9c5771	0.019084664
243	0xbd461f4e	-0.0483697
244	0xbd9b6fcc	-0.07589683
245	0x3c58200d	0.013191235
246	0xbd3e6764	-0.04648532
247	0x3d9a1042	0.07522632
248	0xbdb9dc0f	-0.09075176
249	0xbb1146e5	-0.00221675
250	0x3d05737e	0.032580845
251	0xbd478d5d	-0.0487188
252	0xbd5acfac	-0.053420708
253	0xbda6e3e7	-0.08148938
254	0x3dac6770	0.08418167
255	0xbcadc829	-0.021213608

fc2.bias f4 [32]
0	0xbdd0cd11	-0.10195363
1	0xbc0721ba	-0.008247787
2	0xbd940049	-0.07226617
3	0xbd3de582	-0.046361454
4	0xbde06100	-0.10956001
5	0xbd0f68e0	-0.035012126
6	0xbbb436f0	-0.005499713
7	0xbda812d2	-0.08206715
8	0xbe07923e	-0.1323938
9	0x3da13f82	0.07873441
10	0x3dc58d9a	0.09646149
11	0x3d88cbfe	0.066795334
12	0xbccba0b8	-0.02485691
13	0xbd58ff47	-0.052977826
14	0x3dcbaa90	0.099446416
15	0xbdd2a3c4	-0.10285142
16	0x3ce77fb8	0.028259143
17	0x3b842372	0.0040325457
18	0x3b62e10f	0.0034619009
19	0xbd837688	-0.064190924
20	0xbd73e8e2	-0.059548266
21	0x3bab9f89	0.005237524
22	0x3cd03ab7	0.025418622
23	0xbbd00b24	-0.0063489843
24	0xbd204cd1	-0.039135758
25	0xbdc057f6	-0.09391777
26	0x3d06e77e	0.032935612
27	0xbdec8cf5	-0.11550323
28	0x3d635e63	0.055509936
29	0xbdfe23fa	-0.12409206
30	0x3da8a9fb	0.08235546
31	0xbd4f3dcc	-0.050596043

fc3.weight f4 [3, 32]
0	0xbd4da325	-0.050204415
1	0x3d0b03b7	0.03393909
2	0x3e06c44c	0.13160819
3	0x3cd57262	0.026055519
4	0xbd4edd16	-0.050503813
5	0x3e0e3f41	0.13891317
6	0xbdf54483	-0.11975958
7	0xbced0fa0	-0.028938115
8	0xbd8937fd	-0.06700132
9	0xbdbcde84	-0.09222129
10	0xbe15c12a	-0.14624467
11	0xbc968d60	-0.01837796
12	0x3c8f5970	0.017498702
13	0xbd860cfc	-0.06545445
14	0x3d6d41e8	0.05792418
15	0xbda6ccaa	-0.08144505
16	0xbd0cadcd	-0.034345437
17	0xbd5b3d3e	-0.053525202
18	0x3de83da8	0.11339885
19	0xbceea439	-0.029131042
20	0x3d6e9497	0.058247175
21	0xbd54e991	-0.05198056
22	0x3e3870ff	0.18011855
23	0xbe196f14	-0.14983779
24	0xbdb5bbf4	-0.0887374
25	0x3de066b6	0.109570906
26	0x3df6590b	0.12028702
27	0xbcfdedb4	-0.030997135
28	0xbe5974db	-0.21235983
29	0xbdfbe702	-0.122999206
30	0x3df85b69	0.1212681
31	0x3c2bbe79	0.010482424
32	0xbd4b75e6	-0.049672984
33	0x3de2def6	0.11077683
34	0xbe1bd507	-0.15217982
35	0x3e0bf002	0.13665774
36	0xbc500b79	-0.012698048
37	0x3d673054	0.056442574
38	0xbd3d7a3f	-0.04625916
39	0x3dfbe1be	0.12298916
40	0x3e1981e0	0.1499095
41	0x3da8e66a	0.08247073
42	0x3d998853	0.07496705
43	0xbdc1621a	-0.094425395
44	0x3dcadda6	0.09905557
45	0xbd66b341	-0.056323294
46	0x3dc0012a	0.09375222
47	0xbd0650a4	-0.03279175
48	0x3d78638f	0.06064182
49	0xba724f51	-0.00092433864
50	0x3d7b9103	0.06141759
51	0xbd15f3a5	-0.03660931
52	0x3e267649	0.1625606
53	0x3cf1740b	0.029474279
54	0x3ddc0b71	0.1074437
55	0x3d47fdbb	0.04882596
56	0xbd1ec12b	-0.038758438
57	0xbcae90c0	-0.021309257
58	0x3e245800	0.16049194
59	0x3dd9fb83	0.10643675
60	0x3d909492	0.070595875
61	0xbdc08588	-0.09400469
62	0xbe273715	-0.16329606
63	0x3da245c6	0.079234645
64	0xbe1ef60b	-0.15523545
65	0x3c5d81d2	0.013519721
66	0x3ba2bd71	0.004966431
67	0xbe079004	-0.13238531
68	0x3dbb0be5	0.09133128
69	0xbe10bde0	-0.14134932
70	0x3e0902a1	0.13379909
71	0x3dc0c2c2	0.09412147
72	0xbb19700e	-0.0023412737
73	0x3de12913	0.109941624
74	0xbe34bb03	-0.17649464
75	0xbda592da	-0.0808465
76	0x3d4c4cdc	0.049877986
77	0x3e002b84	0.125166
78	0x3e0a6637	0.13515554
79	0xbe02e244	-0.12781626
80	0x3c98974d	0.018626833
81	0x3de67b4e	0.11253987
82	0xbdac15eb	-0.08402618
83	0x3dffd9e7	0.124927334
84	0x3e235dc5	0.15953739
85	0x3de0ff1d	0.10986159
86	0xbdb29401	-0.08719636
87	0x3daf36ca	0.08555372
88	0x3c4a24fa	0.012337917
89	0xbdf776ec	-0.120832294
90	0x3dc59c43	0.09648945
91	0xbab6ddaa	-0.0013951559
92	0x3cdd5cd1	0.027021797
93	0x3e2541b7	0.1613835
94	0xbe15291c	-0.14566463
95	0xbd770b4e	-0.060313515

fc3.bias f4 [3]
0	0x3e2330c7	0.15936576
1	0xbdd05ad5	-0.10173575
2	0x3d8c6ce6	0.06856708
