neuronas/dnn/modelo_dnn_uefa.pth (torch, 3416 bytes, 6 tensors)

fc1.weight f4 [10, 8]
0	0xbcb7a96f	-0.02241966
1	0x3e2e1ea9	0.17003883
2	0xbe9e6f1e	-0.3094415
3	0xbe8f1325	-0.27944294
4	0xbe1fb63c	-0.1559686
5	0x3d9a4272	0.07532205
6	0xbcd1fd4a	-0.025633473
7	0x3e85b617	0.26115486
8	0xbd0083e0	-0.031375766
9	0x3dbf9998	0.093554676
10	0xbddad35c	-0.10684845
11	0xbd8e541c	-0.06949636
12	0xbeacefc2	-0.3377667
13	0xbe6fc590	-0.23415208
14	0xbe153d9f	-0.14574288
15	0x3c569440	0.013096869
16	0x3dd2ca7a	0.102925256
17	0x3e33dc44	0.17564493
18	0xbe8cf5ed	-0.27531376
19	0xbe42b3a3	-0.19013838
20	0x3dbb9c7e	0.09160708
21	0x3e83a561	0.25712112
22	0xbdde5b68	-0.10857278
23	0x3e69be7c	0.2282657
24	0xbd696b20	-0.056986928
25	0x3d193c38	0.037410945
26	0x3ea3e8a1	0.3201342
27	0xbea7ed20	-0.327981
28	0xbe63eac5	-0.22257526
29	0xbdb74fac	-0.08950743
30	0xbe0d1f66	-0.13781509
31	0x3e9c669d	0.30547038
32	0xbe6aaa86	-0.22916612
33	0xbe26a886	-0.16275224
34	0xbe7cef53	-0.2470067
35	0xbea98920	-0.3311243
36	0xbe53562d	-0.20638342
37	0x3e9b9a97	0.3039138
38	0x3e218c5e	0.15776202
39	0x3e2f785e	0.1713576
40	0x3c985250	0.018593937
41	0xbe399c7b	-0.18126099
42	0x3d750170	0.059815824
43	0xbea9044d	-0.33011094
44	0xbe82cc68	-0.25546575
45	0xbe3aa44c	-0.18226737
46	0x3e646c86	0.22307023
47	0x3e54455e	0.20729586
48	0xbe3fcfe9	-0.18731655
49	0xbd314599	-0.043279264
50	0x3e482c2d	0.19548102
51	0x3ea439cd	0.32075348
52	0x3de0bf9d	0.10974047
53	0x3c8cfb1c	0.017209582
54	0x3e53567f	0.20638464
55	0xbe74a08d	-0.2388937
56	0x3d86ed70	0.06588256
57	0xbe8c5865	-0.2741119
58	0xbe7aec8a	-0.24504295
59	0xbe3b05f2	-0.18263987
60	0x3e23d00e	0.15997335
61	0x3e1198fe	0.14218518
62	0xbe56745b	-0.20942824
63	0x3ddabfb8	0.10681099
64	0x3e2ca8b4	0.1686123
65	0xbd92e399	-0.07172317
66	0xbc29f91c	-0.010374334
67	0x3d6e2ab7	0.058146205
68	0x3e45f27b	0.1933078
69	0x3ea0a4d6	0.3137576
70	0xbe9777ef	-0.2958369
71	0xbe1cafa6	-0.1530138
72	0x3e333db2	0.17504004
73	0x3ea85dd4	0.32884085
74	0x3eaf6aed	0.34261265
75	0x3eb217ae	0.3478369
76	0x3dda26e8	0.10651952
77	0xbe8b1810	-0.27166796
78	0x3d8abd9a	0.06774445
79	0xbe3dd3af	-0.18537782

fc1.bias f4 [10]
0	0xbeb29f11	-0.34886983
1	0x3ea0d595	0.3141295
2	0x3e6e0054	0.23242313
3	0xbeb49264	-0.35267937
4	0x3d8786ec	0.06617531
5	0xbd73f4c8	-0.059559613
6	0xbdb5daba	-0.088796094
7	0xbe25b9c7	-0.1618415
8	0x3de34500	0.11097145
9	0xbe31ca0b	-0.1736223

fc2.weight f4 [10, 10]
0	0x3dd4500d	0.10366831
1	0x3e23c1ca	0.15991893
2	0x3e544788	0.20730412
3	0x3df22860	0.11824107
4	0xbea03f25	-0.31298175
5	0xbe520f2a	-0.20513597
6	0x3e0d4a80	0.1379795
7	0x3d878d00	0.066186905
8	0xbe87cdb8	-0.26524138
9	0xbe4ff56b	-0.20308463
10	0x3e9850bf	0.29749104
11	0x3e5a319e	0.2130799
12	0xbe0d3145	-0.13788326
13	0xbda2ffee	-0.07958971
14	0xbe9a3bdd	-0.30123797
15	0xbbba4040	-0.0056839287
16	0xbe73da7c	-0.23813814
17	0xbe79c752	-0.24392441
18	0xbc8ebcd0	-0.017424017
19	0x3d427a70	0.047480047
20	0xbe049ceb	-0.12950484
21	0x3e40255a	0.18764248
22	0xbe450e32	-0.19243696
23	0x3e92e939	0.2869356
24	0x3e5de972	0.21671084
25	0xbe8888e7	-0.26666948
26	0xbda12fa2	-0.07870413
27	0x3c69c8a0	0.014269024
28	0x3d3cfb28	0.04613796
29	0x3d999a2c	0.07500109
30	0x3dfe266c	0.12409672
31	0x3c9b2c70	0.018942088
32	0xbe1dffef	-0.15429662
33	0x3e193a0c	0.1496355
34	0xbe9b4f87	-0.30334112
35	0xbe3fedbb	-0.1874303
36	0xbda21f4c	-0.07916126
37	0xbe1dbc57	-0.15403877
38	0xbde2906c	-0.110627025
39	0xbe84b42d	-0.25918713
40	0xbd89c2fc	-0.067266434
41	0x3d8a6fa0	0.06759572
42	0xbe450d7c	-0.19243425
43	0xbc84f1e0	-0.016228616
44	0x3e67ce0a	0.22637191
45	0xbd052768	-0.032508284
46	0x3c61f5d3	0.013791519
47	0xbcdf7ba0	-0.027280629
48	0x3da1865a	0.07886954
49	0x3e5c747a	0.21528807
50	0x3e90fa7c	0.28316104
51	0x3e4da45e	0.20082232
52	0x3e88f2d8	0.26747775
53	0xbcbb5a20	-0.022870123
54	0xbe91722c	-0.2840742
55	0xbe1983ae	-0.14991638
56	0x3e3c744f	0.18403743
57	0xbb065880	-0.0020499527
58	0xbe42665d	-0.18984361
59	0xbe8e0c8a	-0.27743942
60	0xbe9785c3	-0.2959424
61	0xbe88a6f7	-0.26689884
62	0xbd835d34	-0.064142615
63	0x3e319554	0.1734212
64	0x3e2f11a4	0.17096573
65	0xbe9c265b	-0.30498013
66	0x3e49fdca	0.19725719
67	0xbe7d63da	-0.24745122
68	0xbd88eaa6	-0.06685381
69	0xbe034c8d	-0.1282217
70	0xbd797d10	-0.060910285
71	0xbd7e5110	-0.062089026
72	0xbe9149e8	-0.28376698
73	0xbe8bcc4c	-0.27304304
74	0xbd4aaed8	-0.04948315
75	0x3b860140	0.0040895045
76	0xbe131a1f	-0.14365433
77	0x3df3f6a0	0.11912274
78	0xbe91ba2a	-0.28462344
79	0xbcaed410	-0.021341354
80	0x3e85f384	0.2616235
81	0xbe04151c	-0.12898678
82	0x3e80a10c	0.2512287
83	0x3dea8b14	0.11452308
84	0xbe921dbf	-0.2853832
85	0x3e4ce0da	0.20007649
86	0xbd891cc2	-0.06694938
87	0xbe108de2	-0.14116624
88	0x3e5f8be8	0.21830714
89	0xbe96b0f7	-0.29431888
90	0x3d50a066	0.050934218
91	0xbd879828	-0.066208184
92	0x3e7cd991	0.2469237
93	0x3db4c89c	0.08827326
94	0x3e1b988e	0.15194914
95	0x3de4b7c8	0.11167866
96	0xbd776382	-0.060397632
97	0xbd883378	-0.06650442
98	0xbe74c676	-0.23903832
99	0x3e43e081	0.1912861

fc2.bias f4 [10]
0	0x3e6c8de1	0.23100998
1	0x3e5d9056	0.21637091
2	0xbe6469e4	-0.22306019
3	0x3c671340	0.014103711
4	0xbe571387	-0.21003543
5	0xbe54b9c6	-0.20773992
6	0xbe3cb0a9	-0.18426766
7	0x3ddd536c	0.10806927
8	0xbe6574b0	-0.22407794
9	0x3c3bd3ec	0.0114641

fc3.weight f4 [3, 10]
0	0xbbbfc1f4	-0.0058519784
1	0x3e50bd72	0.20384768
2	0xbe74c7aa	-0.23904291
3	0xbe5e4df3	-0.21709423
4	0xbe68eed5	-0.22747357
5	0x3e47ff2b	0.19530933
6	0xbde8cd4a	-0.11367281
7	0x3e88916f	0.26673457
8	0x3d9eb7a2	0.07749869
9	0xbc026e6f	-0.0079609
10	0xbc91c721	-0.017795147
11	0xbd800680	-0.0625124
12	0x3d228340	0.03967595
13	0xbd93e246	-0.072208926
14	0xbb119e00	-0.002221942
15	0x3ca4425a	0.02005117
16	0xbe7d4a9f	-0.24735497
17	0xbe29b908	-0.1657449
18	0x3e6cf32e	0.2313964
19	0xbe92338d	-0.28554955
20	0xba212340	-0.0006146915
21	0x3ea02a91	0.31282476
22	0x3de9f318	0.114233196
23	0x3c12b120	0.008953363
24	0xbe8350b1	-0.256475
25	0x3e398c7d	0.18119998
26	0xbe66a616	-0.22524294
27	0xbdb7d71c	-0.08976576
28	0xbdaa496b	-0.083147846
29	0xbc85a2d0	-0.016312987

fc3.bias f4 [3]
0	0xbd246b12	-0.040141173
1	0x3e71119e	0.23541877
2	0x3d8ba440	0.068184376
