neuronas/dnn/modelo_red_neuronal_prof_uefa.pth (torch, 4516 bytes, 6 tensors)

fc1.weight f4 [10, 15]
-0.0011035403 0.13850912 -0.21167968 -0.18918902 -0.09861686 0.07006756 -0.0042861775 0.20555283
-0.02208409 0.06749306 -0.07803108 -0.04992333 -0.24584036 -0.17183016 -0.105606034 -0.013109129
0.09655621 0.13363263 -0.19305103 -0.13385691 0.069147095 0.1962588 -0.076832026 0.17444266
-0.024648778 0.0263874 0.23841442 -0.24588104 -0.103739135 -0.07638047 -0.048534203 0.19234514
-0.12503129 -0.0892875 -0.13563664 -0.19457515 -0.11961547 0.26381776 0.15008436 0.065796226
-0.014765341 -0.043366633 0.1275161 -0.31845623 -0.09711226 -0.1757174 0.14674973 0.11099233
-0.15149094 -0.050246544 0.12167289 0.2193351 0.06007451 -0.003007791 0.16954544 -0.16977337
0.009094484 -0.24046378 -0.15416957 -0.17414111 0.088035 0.08762709 -0.18050686 0.051254164
0.11304384 -0.06007821 -0.017051749 0.03228753 0.1329999 0.22429882 -0.21561095 -0.13078406
0.06909173 0.17062631 0.19513059 0.2849208 0.056431923 -0.17492208 0.064756274 -0.110830694
-0.18449083 0.2709306 0.25075042 -0.21430282 0.0071582384 -0.03412649 0.009132329 -0.04775178
0.028756555 -0.077536665 0.06649635 0.13436908 0.17780748 0.09677652 -0.25967023 -0.18451671
0.12737685 0.037876174 -0.20221393 -0.11012735 0.227981 0.11457697 -0.17396052 -0.024403732
-0.30769685 0.0438622 -0.17729802 -0.15649687 0.023901891 0.08218729 -0.057736 0.19210394
-0.11097462 0.27350608 0.19672592 -0.18875231 -0.0033068815 0.070236556 0.09457234 0.11955963
0.10132456 0.015466154 -0.12598266 0.122176886 -0.247677 -0.1530362 -0.06463489 -0.12577213
-0.09032659 -0.2116254 -0.05492282 0.055191666 -0.16820773 -0.013250604 0.18483189 -0.07177906
-0.00946432 -0.059373606 0.020455152 0.12728557 0.20172931 0.13122047 0.20343605 -0.051567864
-0.22062846 -0.13854066 0.11855569 -0.060151782 -0.07328393 -0.25874692
00000000: aba4 90ba 56d5 0d3e 8fc2 58be c4ba 41be
00000010: a3f7 c9bd 957f 8f3d 1073 8cbb 717c 523e
00000020: b2e9 b4bc cd39 8a3d c2ce 9fbd 687c 4cbd
00000030: 93bd 7bbe 3ff4 2fbe fa47 d8bd acc7 56bc
00000040: 43bf c53d fed6 083e 2baf 45be c911 09be
00000050: fe9c 8d3d 11f8 483e 1c5a 9dbd 19a1 323e
00000060: 3cec c9bc 642a d83c e922 743e 3dc8 7bbe
00000070: 2f75 d4bd 5d6d 9cbd cdcb 46bd 20f6 443e
00000080: 3408 00be 5ddc b6bd 55e4 0abe b53e 47be
00000090: f5f8 f4bd 1f13 873e b7af 193e 2cc0 863d
000000a0: 54ea 71bc 36a1 31bd 9593 023e b20c a3be
000000b0: cbe2 c6bd 43ef 33be 9045 163e f24f e33d
000000c0: 7120 1bbe 52cf 4dbd a32f f93d 6199 603e
000000d0: b010 763d 5c1e 45bb 529d 2d3e 12d9 2dbe
000000e0: 0801 153c 233c 76be a1de 1dbe 0c52 32be
000000f0: b24b b43d d575 b33d cad6 38be e3ef 513d
00000100: 8783 e73d 9214 76bd 1cb0 8bbc ee3f 043d
00000110: 2031 083e 97ae 653e 1ec9 5cbe 42ec 05be
00000120: f77f 8d3d aab8 2e3e 50d0 473e 24e1 913e
00000130: 2925 673d c61e 33be f09e 843d 34fb e2bd
00000140: 2aeb 3cbe 6ab7 8a3e 5c62 803e 3372 5bbe
00000150: a88f ea3b 38c8 0bbd c49f 153c 5f97 43bd
00000160: de92 eb3c 8bcb 9ebd 3d2f 883d 0c98 093e
00000170: 2a13 363e c532 c63d 7ff3 84be f3f1 3cbe
00000180: 146f 023e 0c24 1b3d 2b11 4fbe 738a e1bd
00000190: da73 693e 55a7 ea3d b522 32be 56ea c7bc
000001a0: 718a 9dbe daa8 333d 9d8d 35be b740 20be
000001b0: e6cd c33c cf51 a83d 957c 6cbd e5b6 443e
000001c0: a946 e3bd fd08 8c3e 8572 493e 4948 41be
000001d0: 44b8 58bb 2fd8 8f3d 25af c13d aedb f43d
000001e0: 4083 cf3d c065 7d3c 9901 01be e037 fa3d
000001f0: 0a9f 7dbe 86b5 1cbe 4c5f 84bd 69ca 00be
00000200: 26fd b8bd 54b4 58be c0f6 60bd a810 623d
00000210: a63e 2cbe 1019 59bc 9244 3d3e e600 93bd
00000220: 3c10 1bbc bd31 73bd 9091 a73c 2657 023e
00000230: 2192 4e3e a95e 063e 8a51 503e d338 53bd
00000240: 6dec 61be 9add 0dbe 53cd f23d b761 76bd
00000250: e315 96bd 7a7a 84be

fc1.bias f4 [10]
-0.24080653 -0.21869919 0.033709362 0.101814374 0.105019 -0.18686129 0.0993361 -0.14202404
-0.054585904 -0.163285
00000000: fd95 76be aef2 5fbe d412 0a3d 0e84 d03d
00000010: 3414 d73d 9158 3fbe ba70 cb3d c06e 11be
00000020: 7895 5fbd 2f34 27be

fc2.weight f4 [10, 10]
-0.060910285 -0.023054566 -0.2624976 -0.25765947 -0.01028932 0.054340657 -0.115846455 0.14847338
-0.28462344 -0.0014297641 0.28513515 -0.10148614 0.37046686 0.11984968 -0.30570632 0.23359394
0.012511987 -0.043751035 0.25287256 -0.1709195 0.029456377 -0.09702538 0.26245454 0.059824154
0.13086052 0.069906615 -0.113239236 -0.100155205 -0.26059744 0.14076844 0.25107792 0.22352827
-0.1953496 0.011594645 -0.19627935 -0.14588217 -0.18946233 0.18432021 -0.18844429 -0.01574238
0.023633625 0.24562079 -0.1323376 -0.18208198 -0.15966906 0.27370137 -0.056268416 0.3063269
0.11435035 0.09037878 -0.002353996 -0.0625124 0.021122491 -0.072208926 -0.002221942 0.04034847
-0.24735497 -0.1657449 0.25535163 -0.27092105 -0.018099912 0.28322944 0.2199454 -0.019168567
-0.29217926 0.116301395 -0.26258093 -0.118097425 -0.106099576 -0.06154841 -0.0053936783 0.22563905
-0.020507997 0.25054413 0.1764553 -0.262624 0.09631488 -0.25481704 -0.13402528 0.04419535
0.10139669 0.21809366 -0.106510416 -0.017143676 0.15068235 -0.32955715 0.20456427 -0.27499747
0.004358411 -0.07646069 -0.16654861 0.021108456 0.20569761 -0.09243955 -0.18774256 -0.14551538
-0.3155753 0.036716647 -0.15187272 -0.25805572
00000000: 107d 79bd eedc bcbc 1666 86be f1eb 83be
00000010: 8994 28bc 4f94 5e3d e840 edbd 6809 183e
00000020: 2aba 91be ec66 bbba 3cfd 913e f7d7 cfbd
00000030: d5ad bd3e c073 f53d 8a85 9cbe 4033 6f3e
00000040: 14ff 4c3c 4934 33bd 8378 813e 8505 2fbe
00000050: 804e f13c 3eb5 c6bd 7160 863e 2c0a 753d
00000060: 4d00 063e 332b 8f3d f9e9 e7bd 2c1e cdbd
00000070: 076d 85be 9a25 103e 498d 803e 98e4 643e
00000080: ba09 48be 77f7 3d3c 74fd 48be 2362 15be
00000090: 6a02 42be 70be 3c3e 8af7 40be 2af6 80bc
000000a0: 4e9b c13c 0484 7b3e 8283 07be b373 3abe
000000b0: 4980 23be 9622 8c3e b679 66bd e1d6 9c3e
000000c0: 8430 ea3d 8318 b93d 8045 1abb 8006 80bd
000000d0: 1309 ad3c 46e2 93bd 009e 11bb 7044 253d
000000e0: 9f4a 7dbe 08b9 29be 73bd 823e 2ab6 8abe
000000f0: 4446 94bc 7303 913e 5e39 613e 6607 9dbc
00000100: 8598 95be 6d2f ee3d 0271 86be 10dd f1bd
00000110: bc4a d9bd 301a 7cbd 74bd b0bb ec0d 673e
00000120: 6300 a8bc 5247 803e b3b0 343e a776 86be
00000130: bc40 c53d 6177 82be ec3d 09be 2f06 353d
00000140: 11a9 cf3d f253 5f3e 2222 dabd e570 8cbc
00000150: 794c 1a3e b7bb a8be 4c79 513e 78cc 8cbe
00000160: 00d1 8e3b 6c97 9cbd b88b 2abe a4eb ac3c
00000170: 65a2 523e f250 bdbd 963f 40be fc01 15be
00000180: 1693 a1be 3264 163d 8684 1bbe e11f 84be

fc2.bias f4 [10]
-0.15960462 0.2780326 0.14253747 0.2805149 0.18242669 -0.12293172 -0.02249092 0.038583927
0.23491517 0.024058409
00000000: 656f 23be 4a5a 8e3e 58f5 113e a69f 8f3e
00000010: 10ce 3a3e a0c3 fbbd e13e b8bc 2e0a 1e3d
00000020: 9a8d 703e 2416 c53c

fc3.weight f4 [15, 10]
-0.1496217 -0.14865153 -0.29898354 0.068320364 -0.17746149 -0.28194103 0.2772927 -0.20536184
-0.035974562 0.09059721 0.06864063 -0.185047 -0.22415902 0.3131382 0.13572969 0.2623503
-0.06088477 0.12609583 -0.05884596 -0.014063001 -0.27655077 0.2033348 0.18458925 0.012284376
0.05049675 -0.16178395 0.3206176 -0.16966105 0.10649483 -0.034046713 -0.18692675 0.08412092
-0.15154798 0.080772854 0.05160825 -0.23479578 0.050669294 0.120151445 0.12650526 -0.038832396
-0.27246237 -0.0971062 0.052799594 -0.20943654 0.02171236 0.21059588 -0.21644086 -0.05007723
0.101178646 0.0008599994 -0.015828919 0.01348015 -0.3310817 -0.0991803 0.1028316 0.2849572
0.07368551 -0.039704695 0.11294075 -0.15383837 -0.26205426 -0.34351665 0.28248817 0.1791872
-0.27359325 0.090217985 0.19785047 0.29165798 0.26223055 0.19574404 -0.07249814 -0.18904161
0.20055725 0.13606925 -0.25727838 0.2530818 0.07341942 0.13153365 -0.21961363 0.03404901
-0.110857576 0.18868174 -0.10965334 0.043897852 -0.028256513 0.10068711 -0.1666457 0.09140014
-0.25061524 0.018454673 -0.2960653 -0.33631843 -0.35528675 0.12039307 0.054533258 0.29668984
0.18381469 -0.35269046 -0.2543898 -0.051096886 -0.20536852 0.13378468 -0.30734107 -0.17727555
-0.3371508 -0.21322958 0.17276897 0.23495702 0.206344 0.16627716 0.19712044 -0.16177587
0.063930936 0.2080975 0.011572864 0.29135078 0.060837142 0.12884696 -0.14297247 0.09546227
0.03633663 -0.10375068 -0.20317812 -0.17744064 -0.2433312 0.18640174 0.19622679 -0.05370006
-0.18299659 0.21773827 0.11801388 -0.038515892 -0.22753868 0.20494623 0.030094288 -0.26537126
0.19483541 0.1641336 -0.1489361 0.13157843 -0.17967714 -0.12802047 0.20479107 0.004290394
-0.2730583 -0.13576028 -0.16522208 -0.096608885 0.021941185 0.23114529
00000000: 6e36 19be 1b38 18be 5f14 99be 8ceb 8b3d
00000010: 77b8 35be 935a 90be 4ff9 8d3e 604a 52be
00000020: 105a 13bd 088b b93d 7593 8c3d f67c 3dbe
00000030: f189 65be a653 a03e b9fc 0a3e c752 863e
00000040: 4f62 79bd 441f 013e 7608 71bd 8068 66bc
00000050: 1098 8dbe ff36 503e f704 3d3e 6844 493c
00000060: aed5 4e3d b1aa 25be fd27 a43e a0bb 2dbe
00000070: f619 da3d 9174 0bbd ba69 3fbe 9747 ac3d
00000080: 652f 1bbe 3d6c a53d 2c63 533d 4e6e 70be
00000090: 9b8a 4f3d f611 f63d 988a 013e b80e 1fbd
000000a0: 3080 8bbe 9edf c6bd 6344 583d 8876 56be
000000b0: 1fde b13c 72a6 573e aca2 5dbe c81d 4dbd
000000c0: c036 cf3d 9571 613a a6ab 81bc d9db 5c3c
000000d0: 8a83 a9be 0b1f cbbd 6099 d23d e9e5 913e
000000e0: 6ee8 963d 64a1 22bd 7b4d e73d ce87 1dbe
000000f0: fa2b 86be 6ae1 afbe 4aa2 903e d97c 373e
00000100: 6a14 8cbe 35c4 b83d 5099 4a3e 3254 953e
00000110: 1543 863e 2071 483e e879 94bd 2094 41be
00000120: e15e 4d3e bd55 0b3e feb9 83be f093 813e
00000130: ec5c 963d c2b0 063e 65e2 60be fa76 0b3d
00000140: 4c09 e3bd c935 413e ee91 e0bd 3cce 333d
00000150: 347a e7bc 0b35 ce3d 2ca5 2abe ff2f bb3d
00000160: a450 80be 412e 973c df95 97be ee31 acbe
00000170: 25e8 b5be a490 f63d 445e 5f3d bbe7 973e
00000180: eb39 3c3e d893 b4be 613f 82be f84a 51bd
00000190: 204c 52be dafe 083e cf5b 9dbe b987 35be
000001a0: 089f acbe db58 5abe 59ea 303e 9398 703e
000001b0: d74b 533e 8f44 2a3e f1d9 493e 93a8 25be
000001c0: 39ee 823d 8317 553e 1c9c 3d3c ee2b 953e
000001d0: 5e30 793d 75f0 033e 6067 12be b981 c33d
000001e0: b8d5 143d 3d7b d4bd ed0d 50be 00b3 35be
000001f0: d02b 79be 19e0 3e3e adef 483e 98f4 5bbd
00000200: 7563 3bbe c8f6 5e3e 43b1 f13d d7c2 1dbd
00000210: e6ff 68be 6ddd 513e 4c88 f63c bede 87be
00000220: ef82 473e a312 283e b482 18be 7fbc 063e
00000230: 49fd 37be cc17 03be c0b4 513e 6f96 8c3b
00000240: 4cce 8bbe be04 0bbe fa2f 29be e1da c5bd
00000250: 00be b33c 5ab1 6c3e

fc3.bias f4 [15]
0.016930938 -0.09582722 0.10673708 0.20083448 0.08976425 -0.3864227 -0.09943944 -0.29378787
-0.19099283 0.00740263 -0.2815593 0.031720012 0.24397127 -0.072710626 -0.27633902
00000000: c0b2 8a3c 1041 c4bd f898 da3d 8ea7 4d3e
00000010: 52d6 b73d 32d9 c5be e8a6 cbbd 5d6b 96be
00000020: a093 43be c391 f23b 8a28 90be d8ec 013d
00000030: 9bd3 793e 4fe9 94bd 4f7c 8dbe
