neuronas/dnn/modelo_red_neuronal_prof_uefa.pth (torch, 4516 bytes, 6 tensors)

fc1.weight f4 [10, 15]
00000000: 7157 00bc 56d5 0d3e c3a6 5fbe f49e 48be
00000010: f9bf d7bd 34b7 813d 757c 34bc 3d98 4b3e
00000020: 190b ecbc 2c02 983d c2ce 9fbd 330d 68bd
00000030: df50 81be 0b10 29be 4410 e6bd 538b 12bc
00000040: 1011 c43d f3b3 063e f23d 42be 0b48 18be
00000050: 7f4d 8c3d e6b5 4e3e 2555 9cbd 8a28 323e
00000060: e1fb 153b 905e 1a3d 32b3 ae3e a35d 2cbe
00000070: 880a 483d c5fb b73a ca55 243b 8451 3f3e
00000080: cb86 92bd cc41 98bd b814 a6bc ce38 12be
00000090: f2e7 fabd 6d6f 9b3e 5539 413e 2dcd f0bd
000000a0: b9c1 03bd edb2 e8bc a3cc 503e e3e7 e8be
000000b0: d295 193e 56e3 37be 1a3a 0f3e 420b e93d
000000c0: c3a1 1abe cab8 14bd a126 f63d b2a6 5c3e
000000d0: 67c4 753d f328 8b39 d0b7 163e 292d 36be
000000e0: f658 d63c dfec 5fbe 882e 49be 424c fbbd
000000f0: f5e6 a43d 5403 a43d 5648 40be 1f69 343d
00000100: 340c d83d 1775 89bd 56d2 c8bc 252d cc3c
00000110: 91c0 003e 26ec 5d3e 30c9 64be e44a 11be
00000120: b6f3 733d 0655 1f3e f637 3c3e 3ee0 9f3e
00000130: 31e8 533d 3daa 21be 5549 913d 402c a8bd
00000140: ade1 27be c573 8e3e 1826 893e f31b 50be
00000150: a299 8cbc 011f 94bc af9d e13d 4adc 9d3d
00000160: cb37 b4bd 84ba 63bd 100a 913d ff6c 0d3e
00000170: d285 343e 8c8a c63d 5719 8ebe 8531 38be
00000180: 3a0b 113e dad6 2f3d 3e9e 52be b1f9 bfbd
00000190: bfd6 5e3e 0138 f43d 8ec8 35be 0864 09bc
000001a0: f701 b7be d0bd 403d 6483 2bbe 8de5 23be
000001b0: cc31 0d3d 1137 493d 91e2 78bd 7911 553e
000001c0: 9a8d e0bd c71c 8d3e c798 793e 6e06 2abe
000001d0: 7801 063e 6ba8 0b3e dfd7 aa3e 0844 053e
000001e0: 4083 cf3d c065 7d3c 9901 01be e037 fa3d
000001f0: 0a9f 7dbe 86b5 1cbe 4c5f 84bd 69ca 00be
00000200: 26fd b8bd 54b4 58be c0f6 60bd a810 623d
00000210: a63e 2cbe 1019 59bc 9244 3d3e 2f34 a9bd
00000220: daa7 7abc 29c1 8ebd b9b5 6b3c 7bf8 ea3d
00000230: cee3 3f3e 6a09 073e d2f8 493e 682a 71bd
00000240: 67bc 4ebe f561 13be b57c d63d f634 b7bd
00000250: 5359 febc 6ebc f5be
-0.007833348 0.13850912 -0.21840958 -0.19591886 -0.10534663 0.06333771 -0.011016001 0.19882293
-0.028813886 0.07422289 -0.07803108 -0.056653213 -0.25257012 -0.16510026 -0.11233571 -0.00894435
0.09573567 0.13154583 -0.18968943 -0.14871232 0.06850719 0.20186576 -0.076334275 0.17398277
0.0022885727 0.037687838 0.3412109 -0.16832595 0.04883817 0.0014036825 0.0025075548 0.1868344
-0.07154616 -0.07434425 -0.020273551 -0.14279482 -0.12251271 0.3035845 0.18869527 -0.11757884
-0.03216717 -0.028405631 0.20390563 -0.45489416 0.14998558 -0.17957816 0.13987008 0.113791004
-0.1510077 -0.03630904 0.12019087 0.21547964 0.060001757 0.00026542656 0.14718556 -0.17790665
0.026165467 -0.21867703 -0.19646657 -0.122704044 0.08051864 0.08008447 -0.18777594 0.044045564
0.105492026 -0.06711786 -0.024514358 0.02492387 0.12573458 0.21672115 -0.22342372 -0.14188725
0.059558593 0.15559778 0.18380722 0.3122577 0.051735107 -0.15787597 0.07094065 -0.08211565
-0.16394682 0.278227 0.26786876 -0.20323162 -0.017163102 -0.01808119 0.11016404 0.077080324
-0.08799704 -0.055597797 0.070819974 0.1381111 0.17629173 0.096943945 -0.27753708 -0.1798764
0.14164439 0.042929508 -0.20568177 -0.09373797 0.21761607 0.119247444 -0.17752287 -0.008385666
-0.35743687 0.04705602 -0.1674934 -0.16005535 0.034471318 0.04912478 -0.060762946 0.20807447
-0.10964508 0.27561018 0.24374686 -0.16604015 0.13086498 0.13638465 0.33367822 0.13014233
0.10132456 0.015466154 -0.12598266 0.122176886 -0.247677 -0.1530362 -0.06463489 -0.12577213
-0.09032659 -0.2116254 -0.05492282 0.055191666 -0.16820773 -0.013250604 0.18483189 -0.08261906
-0.015298808 -0.06970436 0.014386588 0.11473175 0.18739244 0.13187185 0.19723824 -0.058878332
-0.20189057 -0.14392836 0.10473005 -0.08945648 -0.031048452 -0.47995323

fc1.bias f4 [10]
00000000: 177a 7dbe 6de4 02be 5d87 b33d 6b83 f83d
00000010: fdb2 c13d 53bb 93bd 12a4 cb3d 252e 16bd
00000020: 7895 5fbd 67da 3fbe
-0.24753605 -0.1278245 0.08766053 0.12134441 0.094579674 -0.07213464 0.09943403 -0.0366651
-0.054585904 -0.18735658

fc2.weight f4 [10, 10]
00000000: 107d 79bd f2d1 033e 4674 ddbe 1f89 24be
00000010: 6013 e73c ce8c 313e b677 143e 39d9 ad3e
00000020: 2aba 91be b2a5 46bc b562 8e3e 7e29 11be
00000030: 91e3 f03e f3d6 873d 88c5 99be bf87 6e3e
00000040: c697 08be e5e8 72bd 8378 813e fdf0 1abe
00000050: 944e e63c 3d4b d9bd 5b28 c13e ad05 583d
00000060: ff37 ff3d 0275 7d3d 8a24 f7bd 11d9 ffbd
00000070: 076d 85be 1f14 123e 498d 803e 93c4 963e
00000080: 257a 17be fac9 dc3c b963 53be 169c dbbc
00000090: cb44 2fbe 90a9 a53e 8af7 40be 252e 6cbb
000000a0: 06b8 9b3c b8b4 863e 81ca 8dbb d4cc 39be
000000b0: bdab 20be 6a96 a73e 502b 6bbd ce09 bc3e
000000c0: 8430 ea3d 5757 c03d 8045 1abb 62f9 c8bd
000000d0: 9b4a 173e 8c5c 293c 009e 11bb 79e4 383e
000000e0: 2e07 69be e16c 1bbe 73bd 823e f4d8 a1bd
000000f0: 4004 babc 6011 8f3e 1027 b03e 6fdb e6bc
00000100: 01fa 98be 525e 123e 0a5b 8cbe fde7 f7bd
00000110: bc4a d9bd 1441 4fbd a3ff 1ebb 7df0 5f3e
00000120: c1ea debc 57ea 783e 8b29 2b3e 309f 89be
00000130: 0eef b43d 03ba 86be ec3d 09be 48da 083d
00000140: e5f4 ca3d d26c 593e dc04 e9bd 9158 bfbc
00000150: 7e1c 133e b01b acbe dcb8 4c3e 7e7f 8fbe
00000160: 00d1 8e3b c08e a8bd b88b 2abe 566a 9d3d
00000170: 9f54 763e 6d0e 1c3b 7653 dcbe 5b40 d6bd
00000180: 1714 fbbe 2966 b93d 8684 1bbe e33b 9abe
-0.060910285 0.12873057 -0.43252772 -0.16067933 0.02820748 0.17338869 0.14498791 0.3395479
-0.28462344 -0.012124466 0.27809682 -0.14175984 0.4704862 0.06632795 -0.30033517 0.2329397
-0.13339147 -0.059304137 0.25287256 -0.15130992 0.02811364 -0.10610054 0.377261 0.052739788
0.12461852 0.061879165 -0.12067516 -0.12492574 -0.26059744 0.14265488 0.25107792 0.2944685
-0.14792688 0.026951779 -0.2064351 -0.026807826 -0.17116086 0.32355928 -0.18844429 -0.0036038246
0.019008648 0.26309752 -0.004327119 -0.18144542 -0.15690513 0.32731944 -0.057414353 0.3672623
0.11435035 0.09391659 -0.002353996 -0.09813191 0.14774553 0.010337006 -0.002221942 0.18055905
-0.22756645 -0.15178253 0.25535163 -0.07902709 -0.022707105 0.27942944 0.34404802 -0.028180806
-0.29878238 0.14293793 -0.27413207 -0.12104795 -0.106099576 -0.050599173 -0.0024261258 0.21869083
-0.027211549 0.24308144 0.16715066 -0.26879263 0.088346586 -0.2631379 -0.13402528 0.033411294
0.09909991 0.21232918 -0.1137788 -0.023357661 0.14366338 -0.33614874 0.19992393 -0.28026956
0.004358411 -0.082303524 -0.16654861 0.076862976 0.24055718 0.002381231 -0.43032426 -0.104614936
-0.49038765 0.09052689 -0.15187272 -0.30123815

fc2.bias f4 [10]
00000000: e589 d9bc 1f69 b83e 337f 0e3e f65e d43e
00000010: b500 8e3e 3627 13be 6123 463d a172 c93c
00000020: 7b0b 6a3e 5936 503d
-0.026555011 0.360177 0.1391571 0.414787 0.27734914 -0.14370427 0.048373584 0.024590792
0.22855942 0.05083308

fc3.weight f4 [15, 10]
00000000: 6e36 19be 1b38 18be 5f14 99be 8ceb 8b3d
00000010: 77b8 35be 935a 90be 4ff9 8d3e 604a 52be
00000020: 105a 13bd 088b b93d d8d5 ef3e a9e1 63be
00000030: 04a9 74be 5f29 ea3e 10a5 563e 5631 7bbe
00000040: 1b5f 82bc 897b 043e 86ce 67bd 14c2 cfbe
00000050: fe09 24bf b0b2 a43e 33f5 813e 2655 bfbc
00000060: b881 8c3d cf0b 0a3f 78da e93e de43 26be
00000070: ae74 c63d 7101 403b 4956 cdbd 96e0 6c3e
00000080: 921f 0ebe f501 643e 33be 113e fb3e 84bf
00000090: 877c 263e 05de fb3d 763e 093e e5fb bb3e
000000a0: 7650 91be a076 d1bd aaae 163d db35 64be
000000b0: baa6 1e3c 72a6 573e fe89 61be 1338 82bd
000000c0: c50b c43d 16b2 dfbb 5570 0abe 9cf1 bfbc
000000d0: 6eaa bdbe d127 b7bd d08a 0c3e e9e5 913e
000000e0: 594c 253d effe c6bc 902a dc3d 7112 38be
000000f0: fa2b 86be d507 babe 9584 8c3e bdf0 323e
00000100: 1265 89be 5391 c43d 513c 423e 25b4 913e
00000110: 736e 823e 5389 3d3e e879 94bd b725 4abe
00000120: 3846 443e 8d19 0b3e ecca 85be 3a8c 863e
00000130: 087f 843d dbd1 fb3d 75d0 69be 710b f13c
00000140: 4c09 e3bd 72b5 393e 1ed7 f5bd db8d 493d
00000150: 59d7 d7bc dfbc ea3d eadb 31be a553 aa3d
00000160: e186 82be 8d63 1e3c 4851 b8be 328f b2be
00000170: 2043 c5be dcfe ce3d e0f4 173d bbe7 973e
00000180: 258a 183e 30dc b6be e503 65be f84a 51bd
00000190: 204c 52be 9acd ed3d 88a8 a7be 2d50 3bbe
000001a0: fd0c afbe 473f 53be 7b84 1c3e 1f49 673e
000001b0: 50ca 4a3e f23d 183e 9f67 d3bc b4b3 4dbe
000001c0: 8fc1 473d dbb1 123e 3cc6 d3bb c160 973e
000001d0: 4a75 a6bc d5a9 033e e6b2 16be 732e 9d3d
000001e0: b8d5 143d 7d22 e0bd 1f11 57be 00b3 35be
000001f0: d02b 79be de99 503e 6b46 433e 7448 7dbd
00000200: 7563 3bbe af55 583e 981f eabd 1b33 2ebe
00000210: 78e8 7ebe 73b2 163e ba5b 733c 8ef7 85be
00000220: 9002 923d e4ff 273e f034 1dbe 47f8 963d
00000230: 49fd 37be 0474 09be 05cb 493e 92a1 a3bb
00000240: 9068 92be 4f95 02be c36a 2fbe d0fb d6bd
00000250: cc9f 5c3c 164b 663e
-0.1496217 -0.14865153 -0.29898354 0.068320364 -0.17746149 -0.28194103 0.2772927 -0.20536184
-0.035974562 0.09059721 0.46842837 -0.22254051 -0.238926 0.4573469 0.20961404 -0.24530539
-0.01591449 0.1293775 -0.05659344 -0.40577757 -0.64077747 0.32167578 0.25382385 -0.023356032
0.068606794 0.5392427 0.4567449 -0.16236827 0.09690224 0.0029297734 -0.10026223 0.23132548
-0.1387923 0.22266372 0.14232711 -1.033172 0.16258441 0.12298206 0.13402733 0.36715618
-0.283817 -0.10227704 0.036787666 -0.22286169 0.009683305 0.21059588 -0.22025296 -0.063583516
0.09572557 -0.0068266494 -0.13519414 -0.023430638 -0.3704409 -0.08943141 0.13724828 0.2849572
0.040356014 -0.024291484 0.10750306 -0.17975785 -0.26205426 -0.363341 0.27444902 0.17474647
-0.26834923 0.09598031 0.18968321 0.28457752 0.2547489 0.18509416 -0.07249814 -0.1974095
0.19167411 0.13583966 -0.2613138 0.2627886 0.06469542 0.12295886 -0.22833426 0.029424401
-0.110857576 0.18135622 -0.12003921 0.04920755 -0.026347803 0.114618056 -0.17369047 0.08316735
-0.2549353 0.009667289 -0.35999513 -0.34874874 -0.38527775 0.10107204 0.037098765 0.29668984
0.14896448 -0.35714865 -0.22364767 -0.051096886 -0.20536852 0.11611481 -0.32745767 -0.18292303
-0.34189597 -0.20629607 0.15284912 0.22586487 0.19803739 0.1486738 -0.025806246 -0.20088083
0.048768576 0.14325659 -0.0064628404 0.29566005 -0.0203196 0.12857755 -0.14716682 0.07674875
0.03633663 -0.10944078 -0.21002625 -0.17744064 -0.2433312 0.20371196 0.19069831 -0.061836675
-0.18299659 0.21126436 -0.11431807 -0.17011683 -0.24893367 0.1471651 0.014853412 -0.26165432
0.07129395 0.16406208 -0.15352225 0.07371574 -0.17967714 -0.13423163 0.19706352 -0.004993626
-0.285954 -0.12752269 -0.1713057 -0.10497248 0.013465833 0.2248958

fc3.bias f4 [15]
00000000: c0b2 8a3c 282f 5dbc 17f9 143e 2e79 bb3e
00000010: 3bd4 8f3d 57be d6be f69f e1bd 5940 9cbe
00000020: 7808 4ebe 7966 f4bb 0c1f 9bbe 5126 e2bb
00000030: e559 723e b1d8 0bbe 84f8 92be
0.016930938 -0.013500012 0.14548145 0.3661589 0.070229016 -0.41942093 -0.11016838 -0.30517843
-0.20120418 -0.0074585048 -0.30297124 -0.0069015403 0.23667105 -0.1365688 -0.28705227
