neuronas/dnn/predecir/modelo_dnn_uefa.pth (torch, 3416 bytes, 6 tensors)

fc1.weight f4 [10, 8]
00000000: 0290 8abc aa8e 333e 54d0 9bbe cf2f 8cbe
00000010: d509 1abe 8425 a53d 7102 a9bc ce7b 883e
00000020: e083 00bd 9899 bf3d 5cd3 dabd 1c54 8ebd
00000030: c2ef acbe 90c5 6fbe 9f3d 15be 4094 563c
00000040: d34f f13d 3ab5 423e c5e3 85be 56f6 33be
00000050: effa d93d 860e 8b3e fccf c1bd 3289 783e
00000060: 206b 69bd 383c 193d a1e8 a33e 20ed a7be
00000070: c5ea 63be ac4f b7bd 661f 0dbe 9d66 9c3e
00000080: 86aa 6abe 86a8 26be 53ef 7cbe 2089 a9be
00000090: 2d56 53be 979a 9b3e 5e8c 213e 5e78 2f3e
000000a0: 5052 983c 7b9c 39be 7001 753d 4d04 a9be
000000b0: 68cc 82be 4ca4 3abe 866c 643e 5e45 543e
000000c0: a637 35be 58e9 07bd 4ada 523e fdc7 a93e
000000d0: 30f4 f53d 7f74 e03c 12fe 5d3e 64b1 69be
000000e0: 70ed 863d 6558 8cbe 8aec 7abe f205 3bbe
000000f0: 0ed0 233e fe98 113e 5b74 56be b8bf da3d
00000100: 66d0 403e 95d7 5fbd 1755 863c 0893 bb3d
00000110: c648 5d3e d297 aa3e f03f 8abe 704d fabd
00000120: 15d3 263e b962 a23e 05a0 a93e 2bb1 ab3e
00000130: fb62 c13d fc0c 91be 4275 663d 7138 4abe
-0.016914371 0.17534891 -0.3043238 -0.27380225 -0.15042813 0.08063796 -0.020631047 0.26656955
-0.031375766 0.093554676 -0.10684845 -0.06949636 -0.3377667 -0.23415208 -0.14574288 0.013096869
0.117828034 0.19014445 -0.26150337 -0.17574438 0.10643565 0.27159518 -0.09463498 0.24271086
-0.056986928 0.037410945 0.3201342 -0.327981 -0.22257526 -0.08950743 -0.13781509 0.30547038
-0.22916612 -0.16275224 -0.2470067 -0.3311243 -0.20638342 0.3039138 0.15776202 0.1713576
0.018593937 -0.18126099 0.059815824 -0.33011094 -0.25546575 -0.18226737 0.22307023 0.20729586
-0.1769701 -0.03318152 0.20591083 0.3316039 0.12009466 0.0273993 0.21678951 -0.22821575
0.06588256 -0.2741119 -0.24504295 -0.18263987 0.15997335 0.14218518 -0.20942824 0.10681099
0.18829498 -0.054648954 0.016397996 0.09158903 0.21609792 0.33318955 -0.27001905 -0.12221801
0.16291459 0.31715944 0.33129898 0.33533606 0.09442707 -0.2833022 0.05626417 -0.19748093

fc1.bias f4 [10]
00000000: 8fe2 afbe 95d5 a03e 7bce 7c3e 6492 b4be
00000010: ec86 873d c8f4 73bd d09f a0bd c7b9 25be
00000020: bf8e 0a3e dfdb 3dbe
-0.34352538 0.3141295 0.24688141 -0.35267937 0.06617531 -0.059559613 -0.07842982 -0.1618415
0.13531016 -0.18540905

fc2.weight f4 [10, 10]
00000000: 60fa e13d cac1 233e e621 5f3e 6028 f23d
00000010: 253f a0be 2a0f 52be 74b6 183e 008d 873d
00000020: 63ae 82be 9d18 44be bf50 983e 9e31 5a3e
00000030: 4531 0dbe eeff a2bd dd3b 9abe 4040 babb
00000040: 7cda 73be 52c7 79be d0bc 8ebc 707a 423d
00000050: eb9c 04be 5a25 403e 320e 45be 39e9 923e
00000060: 72e9 5d3e e788 88be a22f a1bd a0c8 693c
00000070: 28fb 3c3d 2c9a 993d 6c26 fe3d 702c 9b3c
00000080: efff 1dbe 0c3a 193e 874f 9bbe bbed 3fbe
00000090: 4c1f a2bd 57bc 1dbe 6c90 e2bd 2db4 84be
000000a0: 72e0 69bd a06f 8a3d b08c 38be e0f1 84bc
000000b0: 0ace 673e 6827 05bd af6b 043d a07b dfbc
000000c0: 670b b93d 4f13 683e 40c0 943e 5ea4 4d3e
000000d0: 2131 8f3e 205a bbbc 2c72 91be ae83 19be
000000e0: 4eb2 483e 8058 06bb 9ed2 36be 3e01 88be
000000f0: c385 97be f7a6 88be d1ac 81bd 5495 313e
00000100: a411 2f3e 5b26 9cbe 21d6 4a3e da63 7dbe
00000110: 3f39 87bd f673 02be 107d 79bd 1051 7ebd
00000120: e849 91be 4ccc 8bbe d8ae 4abd 4001 863b
00000130: 1f1a 13be a0f6 f33d 2aba 91be 10d4 aebc
00000140: e74c 893e 1c15 04be 5b60 873e 148b ea3d
00000150: bf1d 92be dae0 4c3e 18cf 60bd e28d 10be
00000160: ec76 6c3e 04dd 8ebe d8e8 3a3d 2898 87bd
00000170: c88e 743e 9cc8 b43d 8e98 1b3e c8b7 e43d
00000180: b1d0 9cbd 7833 88bd 75a4 7cbe ac7a 373e
0.11034083 0.15991893 0.21790275 0.11824107 -0.31298175 -0.20513597 0.1491335 0.066186905
-0.25523672 -0.19150014 0.29749104 0.2130799 -0.13788326 -0.07958971 -0.30123797 -0.0056839287
-0.23813814 -0.24392441 -0.017424017 0.047480047 -0.12950484 0.18764248 -0.19243696 0.2869356
0.21671084 -0.26666948 -0.07870413 0.014269024 0.04613796 0.07500109 0.12409672 0.018942088
-0.15429662 0.1496355 -0.30334112 -0.1874303 -0.07916126 -0.15403877 -0.110627025 -0.25918713
-0.057098813 0.06759572 -0.18022418 -0.016228616 0.22637191 -0.032508284 0.032329258 -0.027280629
0.09035378 0.22663616 0.29052925 0.20082232 0.2796717 -0.022870123 -0.2840742 -0.14991638
0.19599268 -0.0020499527 -0.17853782 -0.26563448 -0.2959424 -0.26689884 -0.0633179 0.1734212
0.17096573 -0.30498013 0.19808246 -0.24745122 -0.06602716 -0.12739548 -0.060910285 -0.062089026
-0.28376698 -0.27304304 -0.04948315 0.0040895045 -0.14365433 0.11912274 -0.28462344 -0.021341354
0.26816484 -0.12898678 0.264407 0.11452308 -0.2853832 0.20007649 -0.054885 -0.14116624
0.2309224 -0.27902997 0.045632213 -0.066208184 0.23882592 0.08827326 0.15194914 0.11167866
-0.07656992 -0.06650442 -0.2467211 0.1791789

fc2.bias f4 [10]
00000000: e0f0 773e 5690 5d3e e469 64be 4013 673c
00000010: 4c70 4abe 5c39 48be 30d8 3bbe 6c53 dd3d
00000020: c41d 57be ad35 7f39
0.2421298 0.21637091 -0.22306019 0.014103711 -0.197694 -0.19553131 -0.18344188 0.10806927
-0.21007448 0.00024338691

fc3.weight f4 [3, 10]
00000000: 8698 c23b 72bd 503e aac7 74be f34d 5ebe
00000010: 139a 58be b3b9 543e aa7c eabd 6f91 883e
00000020: 0ee1 c23d 355f 863c 4882 5bbb 8006 80bd
00000030: 4083 223d 46e2 93bd cc4d b8bb a654 ea3c
00000040: 9f4a 7dbe 08b9 29be bbdb 713e 6d23 8ebe
00000050: e5d2 9fbc 912a a03e 18f3 e93d 20b1 123c
00000060: 3bbf 8abe 85f8 233e 16a6 66be 1cd7 b7bd
00000070: 5971 d2bd 2e3c 2ebd
0.0059385924 0.20384768 -0.23904291 -0.21709423 -0.21152525 0.20773964 -0.11449559 0.26673457
0.09515582 0.01640282 -0.0033494402 -0.0625124 0.03967595 -0.072208926 -0.0056245085 0.028604817
-0.24735497 -0.1657449 0.23618977 -0.27761403 -0.019509742 0.31282476 0.114233196 0.008953363
-0.27099022 0.16012771 -0.22524294 -0.08976576 -0.102755256 -0.04253786

fc3.bias f4 [3]
00000000: 880f 98bc bc3d 793e a2d2 323d
-0.018562093 0.24339956 0.043657906
