neuronas/dnn/clasificar/modelo_red_neuronal_prof_uefa.pth (torch, 4516 bytes, 6 tensors)

fc1.weight f4 [10, 15]
0.2065685 0.10286598 -0.091375545 0.08083313 -0.046839327 0.34138614 -0.09451379 -0.054401953
0.24898125 -0.4273559 0.12256395 0.11571534 -0.023692017 -0.2838615 0.088148855 0.05698438
-0.012489044 -0.07816504 0.037469387 -0.024912417 0.026447844 0.07216759 -0.026072735 -0.21894433
-0.113464706 -0.23929992 0.11967792 0.20438033 0.072397046 0.2117858 0.19150633 0.27477112
0.017418163 0.08397131 0.010279391 0.10926672 -0.028091487 -0.1233283 0.13186531 0.26474077
-0.034135006 0.047944635 0.16472574 0.5169937 0.072933435 -0.03850128 0.2312994 0.22444017
-0.18536913 0.22363041 0.19585958 0.2240398 -0.16253331 -0.12055896 -0.12230545 0.16435723
0.023287117 0.10517524 -0.2148237 0.28119913 -0.14732952 0.28582123 0.017309943 0.25928324
-0.13913849 -0.06013435 0.21992362 -0.06200209 0.021053603 -0.006011801 0.012082421 -0.024467468
0.19365446 0.43006814 -0.1482258 -0.049882036 -0.03316036 -0.06094818 -0.2070313 -0.050934207
-0.09975574 -0.13441181 -0.009341986 0.0115933865 -0.14111854 0.17915905 -0.15413374 0.084899835
0.0692653 -0.17112762 -0.068491995 -0.014770165 0.034371 -0.20983201 -0.02777872 0.07542325
0.08584065 -0.25214905 -0.044042934 -0.17457813 -0.22037527 -0.043005247 -0.026391858 0.091343835
-0.018732326 0.19305526 -0.2370352 0.04503155 -0.11197398 -0.1418051 -0.22718203 0.06313492
0.24092078 0.22035193 -0.2131551 0.11357082 0.17600778 -0.04721296 -0.08771395 -0.12762068
0.0010090806 -0.19118254 -0.062174156 0.076695345 0.15183213 0.08201287 0.18334915 -0.16986898
0.14451979 0.21372662 -0.023659261 -0.2933608 0.17244415 0.0072716046 -0.023618326 -0.23279116
0.14263394 -0.19691533 0.05558127 -0.14484394 0.23432294 -0.039562196 -0.034653246 -0.085516796
-0.0022855103 -0.14027756 0.19141439 -0.2580751 -0.1836834 -0.21219379
00000000: b186 533e 66ab d23d 1a23 bbbd d78b a53d
00000010: 98da 3fbd 2aca ae3e 7290 c1bd 95d4 5ebd
00000020: f1f4 7e3e 64ce dabe cf02 fb3d 2afc ec3d
00000030: c315 c2bc 4b56 91be 6387 b43d 7468 693d
00000040: d99e 4cbc fe14 a0bd 8079 193d 2015 ccbc
00000050: 26a9 d83c 9acc 933d 7d96 d5bc f132 60be
00000060: 2f60 e8bd 0a0b 75be b319 f53d 1449 513e
00000070: e744 943d 60de 583e 3c1a 443e cdae 8c3e
00000080: 89b0 8e3c 26f9 ab3d e46a 283c 3bc7 df3d
00000090: 1e20 e6bc 8c93 fcbd b307 073e 1a8c 873e
000000a0: 26d1 0bbd 9861 443d ddad 283e b359 043f
000000b0: 205e 953d 85b3 1dbd c0d9 6c3e a5d3 653e
000000c0: 68d1 3dbe 5fff 643e 6a8f 483e b06a 653e
000000d0: 226f 26be 9ee7 f6bd 487b fabd 434d 283e
000000e0: a0c4 be3c 1e66 d73d befa 5bbe 55f9 8f3e
000000f0: 8ddd 16be 2957 923e 95cd 8d3c c6c0 843e
00000100: 527a 0ebe 704f 76bd a833 613e e7f5 7dbd
00000110: 9b78 ac3c a4fe c4bb 59f5 453c 0070 c8bc
00000120: 5b4d 463e e431 dc3e 81c8 17be 1b51 4cbd
00000130: 28d3 07bd cca4 79bd 0300 54be 63a0 50bd
00000140: bd4c ccbd 40a3 09be 210f 19bc 30f2 3d3c
00000150: 6181 10be 7875 373e 3cd5 1dbe f7df ad3d
00000160: f7da 8d3d 143c 2fbe 8845 8cbd 90fe 71bc
00000170: 9bc8 0c3d 34de 56be 3390 e3bc 8177 9a3d
00000180: 39cd af3d ae19 81be 5d66 34bd 9cc4 32be
00000190: 0eaa 61be 4526 30bd bd33 d8bc 7a12 bb3d
000001a0: 8974 99bc 47b0 453e 5bb9 72be 0173 383d
000001b0: 9d52 e5bd 5b35 11be 68a2 68be e24c 813d
000001c0: f0b3 763e f0a3 613e 5545 5abe d197 e83d
000001d0: 623b 343e 6062 41bd 5fa3 b3bd ffae 02be
000001e0: 2043 843a 5bc5 43be 54aa 7ebd 7312 9d3d
000001f0: e279 1b3e 5df6 a73d e1bf 3b3e 22f2 2dbe
00000200: fffc 133e 27db 5a3e 11d1 c1bc 6333 96be
00000210: 3395 303e a446 ee3b 387b c1bc ce60 6ebe
00000220: a20e 123e 2ca4 49be 30a9 633d f851 14be
00000230: 5af2 6f3e f80b 22bd 90f0 0dbd 6e23 afbd
00000240: 80c8 15bb eca4 0fbe 2202 443e 6b22 84be
00000250: 8017 3cbe 5449 59be

fc1.bias f4 [10]
0.26200634 0.024219504 0.30041176 0.09484057 0.13535748 0.038850997 -0.15705909 0.026224356
-0.13204464 -0.22476028
00000000: b225 863e fb67 c63c 92cf 993e c63b c23d
00000010: 279b 0a3e 3922 1f3d 19d4 20be 76d4 d63c
00000020: b636 07be 8f27 66be

fc2.weight f4 [10, 10]
0.07662984 -0.35959557 -0.28359336 0.12505879 -0.21997945 0.2692557 -0.19594994 -0.0752679
0.13320714 -0.236988 0.4843774 0.18634386 -0.118112475 0.12991989 -0.19822206 0.09140936
0.21522076 0.38317442 -0.17443289 0.25979295 -0.15003392 -0.22712916 -0.29285607 0.080679014
-0.16500889 -0.08711234 0.16233757 -0.26919958 0.23578751 0.13852996 0.20356232 0.18927862
-0.32685184 0.19913362 -0.035779703 -0.10440104 -0.3003861 -0.038055576 0.042475473 0.23725751
0.14415789 0.063204266 0.36457172 -0.26248345 0.07670321 0.022047335 -0.15738538 -0.16271502
-0.23667043 0.262745 -0.24068159 0.09295104 0.23710996 0.16137779 0.29564586 0.06065488
-0.06684985 0.19890268 -0.100142494 -0.038212836 -0.12589617 -0.16272442 0.11148594 -0.14816475
-0.12007884 0.07565507 -0.25746498 -0.1311606 -0.26673067 -0.029994875 0.12539595 -0.08015816
-0.14167078 -0.10982615 -0.26145318 0.015235513 -0.212295 -0.23094043 -0.27075723 0.10647151
0.51431346 0.2736851 -0.27053738 0.29964864 0.008249796 -0.18007061 0.1738346 0.24563801
-0.11167103 -0.14302196 0.2816435 0.21482207 -0.039467275 0.16975193 0.17738548 0.13847822
0.2488202 -0.028842958 -0.12183783 -0.08602607
00000000: 1bf0 9c3d e91c b8be 2633 91be 690f 003e
00000010: 4b42 61be e2db 893e 1aa7 48be 0f26 9abd
00000020: 7467 083e fbac 72be 5100 f83e edd0 3e3e
00000030: f4e4 f1bd b809 053e b9fa 4abe d534 bb3d
00000040: d562 5c3e 702f c43e 899e 32be 9503 853e
00000050: 7ea2 19be 8c94 68be 3bf1 95be 0a3b a53d
00000060: 17f8 28be f467 b2bd d23b 263e 87d4 89be
00000070: 4872 713e ccda 0d3e a472 503e 41d2 413e
00000080: 2059 a7be afe9 4b3e bd8d 12bd 36d0 d5bd
00000090: 35cc 99be 2ae0 1bbd c3fa 2d3d a2f3 723e
000000a0: 209e 133e 3d71 813d 25a9 ba3e 3b64 86be
000000b0: 9316 9d3d 9d9c b43c a229 21be c49e 26be
000000c0: bc59 72be 8386 863e 3c75 76be 1d5d be3d
000000d0: f4cc 723e 3840 253e e55e 973e 4071 783d
000000e0: 93e8 88bd 25ad 4b3e 8217 cdbd 1085 1cbd
000000f0: edea 00be 3ba1 26be be52 e43d 80b8 17be
00000100: e5eb f5bd 0cf1 9a3d 73d2 83be f74e 06be
00000110: ec90 88be d0b7 f5bc cc67 003e f629 a4bd
00000120: 2512 11be 88ec e0bd 31dd 85be 609e 793c
00000130: dc63 59be a67b 6cbe b1a0 8abe bc0d da3d
00000140: 0caa 033f 7420 8c3e e083 8abe 8c6b 993e
00000150: 272a 073c 6e64 38be b301 323e 8888 7b3e
00000160: c8b3 e4bd 5974 12be 9433 903e 51fa 5b3e
00000170: 70a8 21bd 73d3 2d3e 8aa4 353e 3ccd 0d3e
00000180: b9ca 7e3e 1148 ecbc 1d86 f9bd 702e b0bd

fc2.bias f4 [10]
-0.2646239 -0.24183843 0.27197447 0.24132949 0.12063531 -0.014158804 -0.26687154 -0.23802659
0.15050174 0.07390682
00000000: c97c 87be 7ea4 77be 3d40 8b3e 141f 773e
00000010: a50f f73d 54fa 67bc 63a3 88be 3ebd 73be
00000020: 211d 1a3e 755c 973d

fc3.weight f4 [15, 10]
0.14782874 0.15494703 -0.09891743 0.11142838 -0.19449428 -0.35402948 0.20564677 -0.05026123
-0.16226692 -0.11107954 -0.23785532 -0.040959157 -0.23783134 -0.24416228 -0.049228188 0.5475535
-0.03934896 -0.022268683 -0.052441906 0.09636816 0.005819207 0.33321702 0.009051835 0.40750918
-0.52685523 -0.19064541 -0.13767388 0.115447104 0.1585139 0.2951774 0.19642866 -0.051760238
0.05307216 -0.109559424 -0.035357 0.06928369 0.18187301 -0.14021438 0.19487396 0.4360858
-0.20907417 0.070101514 0.25293884 -0.2793248 -0.24950598 0.0021769959 0.2395856 0.25906888
-0.28030798 -0.016775813 -0.09398329 0.023852637 -0.015481591 -0.18929693 -0.2829525 -0.21885002
0.29022124 0.16421974 -0.05856961 -0.047662824 0.027424335 -0.111544356 -0.31500763 0.24316183
-0.29689825 -0.14219545 -0.007843077 0.13149184 -0.20072758 -0.23507169 0.15557086 -0.23961784
0.019242467 -0.13363568 -0.027810767 0.019486481 0.033758223 0.086639345 -0.15930162 -0.111649446
-0.32541913 -0.10551586 -0.1442728 -0.0059047397 -0.012278113 -0.37897325 -0.110825606 0.010377884
0.11880396 0.008312232 0.26546735 -0.27575144 0.101484776 0.05070178 -0.19908059 0.0149256475
0.22954097 0.092220396 -0.34476194 0.035381127 0.24305508 -0.116506316 0.012852615 0.16474178
-0.0985267 -0.14628111 0.22110279 -0.028696269 -0.3501605 0.25480103 -0.23558572 -0.015259316
-0.0005480417 -0.003828147 -0.013832747 -0.013463001 0.09337852 -0.12553856 -0.36579922 0.104560345
-0.028508848 -0.011917794 0.24361765 0.24525133 -0.045916267 -0.15584041 0.101135105 -0.13284852
-0.28533536 -0.15769725 0.0047430396 -0.1304209 -0.24716333 -0.18654989 -0.0006191288 -0.035968155
0.26375845 -0.011478782 -0.30343926 -0.007904506 0.0048685563 -0.02374593 -0.23713858 -0.0041185706
0.010803651 -0.026494786 -0.19780605 0.23963484 -0.09185624 0.05638024
00000000: 6b60 173e 6faa 1e3e 3995 cabd 9034 e43d
00000010: 8229 47be 5a43 b5be 1195 523e b8de 4dbd
00000020: 4d29 26be ab7d e3bd 5890 73be cac4 27bd
00000030: 0f8a 73be ad05 7abe 7fa3 49bd 772c 0c3f
00000040: 602c 21bd d06c b6bc 53cd 56bd ab5c c53d
00000050: 0caf be3b 6c9b aa3e 264e 143c 0ba5 d03e
00000060: fcdf 06bf 8d38 43be 62fa 0cbe 886f ec3d
00000070: 7851 223e 7e21 973e 9824 493e 8b02 54bd
00000080: 3162 593d b160 e0bd 80d2 10bd 9be4 8d3d
00000090: eb3c 3a3e 5c94 0fbe 0a8d 473e a346 df3e
000000a0: 8a17 56be 6291 8f3d 3381 813e a903 8fbe
000000b0: 7f7e 7fbe eeab 0e3b ed55 753e ada4 843e
000000c0: 8784 8fbe 6e6d 89bc 507a c0bd 9b66 c33c
000000d0: 80a6 7dbc 0ed7 41be 26df 90be 381a 60be
000000e0: e197 943e 3829 283e b0e6 6fbd 183a 43bd
000000f0: 00a9 e03c 5e71 e4bd ae48 a1be 6aff 783e
00000100: 0c03 98be af9b 11be 4080 00bc cca5 063e
00000110: 888b 4dbe a2b6 70be f84d 1f3e 615e 75be
00000120: 61a2 9d3c cbd7 08be 68d3 e3bc 1da2 9f3c
00000130: 1046 0a3d f86f b13d f71f 23be 77a8 e4bd
00000140: 569d a6be b318 d8bd 40bc 13be 8c7c c1bb
00000150: 232a 49bc c808 c2be 89f8 e2bd 0008 2a3c
00000160: 7e4f f33d 0730 083c 56eb 873e 4b2f 8dbe
00000170: 40d7 cf3d abac 4f3d c8db 4bbe b48a 743c
00000180: ca0c 6b3e 0cde bc3d a384 b0be cdeb 103d
00000190: 6ee3 783e dd9a eebd c693 523c 12b2 283e
000001a0: 5ec8 c9bd b7ca 15be c568 623e 7014 ebbc
000001b0: 3d48 b3be 4875 823e 623d 71be 3602 7abc
000001c0: 75aa 0fba a6e1 7abb bfa2 62bc eb93 5cbc
000001d0: 3d3d bf3d 2e8d 00be 094a bbbe bc23 d63d
000001e0: 638b e9bc da42 43bc e876 793e 2a23 7b3e
000001f0: b212 3cbd a194 1fbe ec1f cf3d 7109 08be
00000200: 7a17 92be 637b 21be 806b 9b3b 0e8d 05be
00000210: 6218 7dbe ef06 3fbe 084d 22ba 5853 13bd
00000220: 590b 873e 8011 3cbc 645c 9bbe e781 01bc
00000230: 6988 9f3b d386 c2bc 75d4 72be 13f5 86bb
00000240: cc01 313c 980b d9bc ab8d 4abe d662 753e
00000250: 201f bcbd f7ee 663d

fc3.bias f4 [15]
-0.029181099 0.041896433 0.29463923 0.17046598 0.026541902 -0.031922445 -0.25467032 0.095433235
-0.21985056 -0.26867384 -0.1634144 -0.21553563 0.08560935 -0.024258757 -0.2512326
00000000: 330d efbc 989b 2b3d f4da 963e a28e 2e3e
00000010: 676e d93c 1cc1 02bd 2664 82be 8072 c33d
00000020: 8120 61be 9e8f 89be 1b56 27be 5fb5 5cbe
00000030: f453 af3d 4dba c6bc 8fa1 80be
