neuronas/dnn/clasificar/modelo_red_neuronal_prof_uefa.pth (torch, 4644 bytes, 6 tensors)

fc1.weight f4 [10, 17]
-0.23411927 -0.030457504 0.11452272 -0.16109918 0.20793642 0.14028986 -0.0019138431 -0.19185212
0.21438648 -0.16538838 0.09150244 0.07848354 0.040105887 -0.21900691 -0.12064611 -0.17226838
0.0070441402 -0.22213794 0.16881019 -0.23598896 -0.21320587 -0.05300228 0.013875527 0.17432038
-0.10172469 -0.007308373 -0.10065282 -0.2380727 0.042411555 0.056708086 -0.1143738 0.0038628252
0.13297507 0.17038494 -0.16717143 -0.12728705 -0.2183449 -0.1696573 0.064929456 0.21841072
-0.18503717 0.0803899 -0.14041676 0.06473225 -0.034913167 -0.041919246 -0.041328773 -0.24177305
-0.09737639 0.12572335 0.091332816 0.1754472 -0.03715745 -0.13879785 -0.022095937 -0.1729329
-0.099541076 -0.128609 -0.034602523 0.13725911 -0.035986185 0.08688798 -0.104894504 0.03926694
0.023880258 -0.11950187 0.27688208 -0.026473563 -0.13027819 -0.033958077 -0.01995536 -0.17864081
0.17939545 0.04142833 0.2108503 -0.19863279 -0.13472773 0.034845833 -0.1182605 -0.04118542
-0.025471663 -0.03349538 -0.06791978 0.07154414 0.09508244 -0.20463464 0.113069415 0.21403684
-0.22210759 0.18070811 -0.20396271 0.12012575 -0.03835977 -0.088317245 -0.23249637 -0.05451353
-0.08372677 -0.2147674 0.078886755 0.055827875 -0.22206928 -0.107749835 -0.11794721 0.18411712
-0.0010154457 0.0887062 0.105154656 0.1905475 0.07771432 0.18619975 0.090426944 0.14631899
-0.063229546 0.16766147 -0.07777076 0.19469722 -0.009792542 -0.021617476 -0.11284108 -0.15403311
-0.12626122 0.115390174 0.26789147 0.1571084 -0.16813284 0.03446979 0.13934284 -0.13019577
0.16329505 0.20707658 0.22958162 0.0658057 0.06777827 0.313582 0.13350554 -0.124108925
0.11899102 -0.36303288 0.05858384 0.20657703 -0.0032608008 -0.081354655 -0.067522205 0.19058543
-0.082169384 -0.39794782 -0.1552872 0.09919564 0.2798859 0.06279148 -0.1464185 0.230667
-0.18250276 0.16622539 0.12253741 0.029635062 0.17359993 -0.21141803 0.044633064 0.0932353
-0.043544035 -0.11819668 0.14851457 0.07751672 0.18147092 0.009038168 0.12362436 0.124708734
-0.17174637 0.38366786
00000000: f6bc 6fbe 0482 f9bc e38a ea3d 2ff7 24be
00000010: 49ed 543e 25a8 0f3e ebd9 faba e274 44be
00000020: 2188 5b3e 925b 29be a265 bb3d fabb a03d
00000030: 1246 243d 5943 60be 4f15 f7bd 1f67 30be
00000040: 88d2 e63b 2178 63be 94dc 2c3e 17a7 71be
00000050: a452 5abe eb18 59bd 2e56 633c 0b81 323e
00000060: 0955 d0bd 147b efbb 1123 cebd 54c9 73be
00000070: bdb7 2d3d bd46 683d d03c eabd 7427 7d3b
00000080: 9e2a 083e 6479 2e3e fd2e 2bbe 8957 02be
00000090: ce95 5fbe a5ba 2dbe bcf9 843d 0fa7 5f3e
000000a0: 627a 3dbe 76a3 a43d 69c9 0fbe 5892 843d
000000b0: 1c01 0fbd 84b3 2bbd 5c48 29bd 5b93 77be
000000c0: 466d c7bd 9fbd 003e b30c bb3d 6ea8 333e
000000d0: 6932 18bd 0621 0ebe 8a02 b5bc 5215 31be
000000e0: 31dc cbbd 14b2 03be 60bb 0dbd a78d 0c3e
000000f0: 4066 13bd 53f2 b13d eed2 d6bd 5fd6 203d
00000100: 88a0 c33c 65bd f4bd 7dc3 8d3e 16df d8bc
00000110: a567 05be a017 0bbd 6c79 a3bc 9eed 36be
00000120: 71b3 373e c1b0 293d 24e9 573e 6566 4bbe
00000130: 11f6 09be 81ba 0e3d 9032 f2bd 0bb2 28bd
00000140: f3a9 d0bc 7432 09bd 8719 8bbd bc85 923d
00000150: 95ba c23d be8b 51be f090 e73d 792c 5b3e
00000160: 2c70 63be 8c0b 393e 9adb 50be 7d04 f63d
00000170: 221f 1dbd acdf b4bd 8713 6ebe 9449 5fbd
00000180: f178 abbd fceb 5bbe 618f a13d c5ab 643d
00000190: 2166 63be f2ab dcbd 4f8e f1bd 3389 3c3e
000001a0: b418 85ba 99ab b53d 535b d73d e21e 433e
000001b0: af28 9f3d 26ab 3e3e c331 b93d a5d4 153e
000001c0: 7e7e 81bd 73af 2b3e 4746 9fbd b55e 473e
000001d0: e670 20bc 2217 b1bc 3919 e7bd dbba 1dbe
000001e0: 9f4a 01be af51 ec3d 1229 893e 06e1 203e
000001f0: 042b 2cbe 3230 0d3d e4af 0e3e 0a52 05be
00000200: d136 273e e20b 543e 7217 6b3e 24c5 863d
00000210: 55cf 8a3d d28d a03e adb5 083e d22c febd
00000220: 90b1 f33d 72df b9be 9cf5 6f3d ee88 533e
00000230: 29b3 55bb 459d a6bd 1549 8abd d428 433e
00000240: 6c48 a8bd d1bf cbbe 9c03 1fbe 1527 cb3d
00000250: 344d 8f3e d298 803d bbee 15be f833 6c3e
00000260: 01e2 3abe fd36 2a3e e5f4 fa3d 3bc5 f23c
00000270: 2ec4 313e f87d 58be 29d1 363d 26f2 be3d
00000280: 3b5b 32bd 1a11 f2bd 3414 183e 16c1 9e3d
00000290: 83d3 393e d314 143c c52e fd3d 4b67 ff3d
000002a0: 48de 2fbe 1d70 c43e

fc1.bias f4 [10]
-0.2359572 0.20570336 -0.22902733 -0.040071175 -0.05446496 -0.10790182 0.17533374 0.07501001
-0.08720649 0.10604825
00000000: c49e 71be e7a3 523e 2486 6abe ac21 24bd
00000010: a616 5fbd a1fb dcbd b08a 333e d99e 993d
00000020: 5199 b2bd d32f d93d

fc2.weight f4 [10, 10]
0.16821727 -0.15414344 -0.11212661 0.31860092 -0.11497473 0.23948362 0.018626021 0.36040297
0.15964966 -0.15129884 0.001489666 0.17591624 -0.14640963 0.12485216 0.22615345 0.1737107
0.18532503 -0.048821412 -0.34441748 -0.051771764 -0.19837259 0.12349194 0.10538965 0.210967
-0.12100298 0.06891564 0.20226322 0.04123021 0.41733885 -0.16834894 -0.2847065 0.14551568
-0.041368984 -0.440621 -0.16807204 -0.018573755 0.0038137469 0.2644009 0.122283824 0.19756582
-0.27980798 0.35249227 0.30485862 0.16655825 -0.19978234 0.0008924491 0.21403411 0.20975412
-0.27217314 0.08376796 0.08670662 -0.056931198 0.022916391 0.28249046 -0.11929822 0.25647342
-0.03289273 0.081903756 0.33752528 -0.532151 0.28914842 -0.08373019 -0.06717237 -0.37158498
0.015183683 0.015218579 -0.043694813 0.18225978 -0.19297571 0.15656419 -0.14126548 0.07375609
-0.21572432 -0.23112053 -0.27099422 -0.17711347 0.124081016 0.12439917 -0.25121573 -0.117783
0.27406865 -0.28841197 0.25917694 -0.19227232 0.11635548 0.09834487 0.17479675 -0.12874548
0.043798495 -0.03342694 0.11423777 0.16897221 -0.30337375 0.06296728 0.2823527 -0.13268661
0.021532044 -0.09246719 -0.28314593 0.00075053785
00000000: 2641 2c3e c7d7 1dbe a3a2 e5bd a91f a33e
00000010: df77 ebbd 323b 753e 9995 983c bd86 b83e
00000020: 337b 233e 15ee 1abe e640 c33a 6323 343e
00000030: 68ec 15be 7db2 ff3d c594 673e 38e1 313e
00000040: d8c5 3d3e f6f8 47bd 7d57 b0be a10e 54bd
00000050: 2f22 4bbe 58e9 fc3d 87d6 d73d bc07 583e
00000060: 69d0 f7bd a523 8d3d 171e 4f3e 02e1 283d
00000070: 70ad d53e aa63 2cbe 0dc5 91be 1002 153e
00000080: 8672 29bd 1399 e1be 141b 2cbe fd27 98bc
00000090: 0ef0 793b 8e5f 873e f16f fa3d b24e 4a3e
000000a0: fe42 8fbe de79 b43e 6e16 9c3e 3f8e 2a3e
000000b0: be93 4cbe 3ff3 693a c22b 5b3e c9c9 563e
000000c0: 475a 8bbe 898e ab3d 3e93 b13d b030 69bd
000000d0: 28bb bb3c 97a2 903e a052 f4bd 7c50 833e
000000e0: 87ba 06bd 28bd a73d 1dd0 ac3e 0c3b 08bf
000000f0: 430b 943e bc7a abbd ab91 89bd 6340 bebe
00000100: fbc4 783c 5957 793c 55f9 32bd 4fa2 3a3e
00000110: 6d9b 45be 5d52 203e e6a7 10be 6f0d 973d
00000120: d6e6 5cbe dcaa 6cbe c1bf 8abe 3c5d 35be
00000130: 301e fe3d fec4 fe3d 599f 80be 3738 f1bd
00000140: ba52 8c3e bcaa 93be d7b2 843e 09e3 44be
00000150: c84b ee3d 0969 c93d ebfd 323e dbd5 03be
00000160: 0d66 333d b0ea 08bd 7ef5 e93d 0d07 2d3e
00000170: ce53 9bbe fdf4 803d 8890 903e 00df 07be
00000180: f863 b03c 705f bdbd 81f8 90be bebf 443a

fc2.bias f4 [10]
0.08479689 0.03805359 0.24004479 -0.02621451 -0.18549128 -0.019373242 -0.1878261 -0.24793996
-0.05774919 -0.008828789
00000000: fea9 ad3d 15de 1b3d 4dce 753e d0bf d6bc
00000010: 6df1 3dbe a2b4 9ebc 7c55 40be f9e3 7dbe
00000020: 6a8a 6cbd a0a6 10bc

fc3.weight f4 [17, 10]
-0.25623676 0.22741725 0.17438802 -0.26489606 -0.122588746 0.07268199 0.03184951 -0.14448641
0.14819995 0.115459085 0.14999664 -0.13405572 -0.08644451 0.35040843 -0.058740556 -0.20041813
0.46450278 0.25851777 0.24414474 0.081191964 0.21445312 0.122896746 0.2024029 0.035168517
-0.19248645 0.1260501 -0.05123734 0.07673566 0.103057206 0.3011863 0.09843496 -0.17707156
0.06137368 0.17259423 0.1443196 0.034956593 -0.037826285 -0.2526161 -0.22627953 0.088666186
-0.12116033 0.15131956 0.05060208 -0.13228461 -0.26446357 -0.23876414 -0.23591022 -0.02002272
-0.28868964 -0.2042744 -0.23585704 0.07466146 -0.29113454 -0.10228458 -0.20021433 -0.21182698
0.22031948 -0.018894136 -0.30014494 0.3052915 0.060249876 -0.32774577 0.21101782 0.014911516
-0.2743809 -0.3220056 -0.052115615 -0.2223621 0.10754741 0.033404946 -0.2862664 0.251569
0.07261439 -0.2401115 -0.12143365 -0.066960834 0.22271076 -0.17538564 0.16811323 0.16644436
-0.21339235 -0.26566213 0.26435664 -0.2886877 0.03600266 -0.29310882 -0.26652986 0.11270257
0.20321228 -0.1646518 -0.018278806 -0.037080042 -0.21778372 0.19511047 -0.038987346 -0.28168815
0.03669736 0.11369876 0.06232609 0.09137459 -0.2758101 -0.1045875 0.06330428 -0.40712634
0.08769797 0.2885897 -0.24144068 -0.31016785 -0.29118162 0.14383395 -0.13981867 0.25108698
0.073912404 0.13362943 -0.11985781 0.19540903 0.26909798 -0.0039695534 0.2018917 0.19308972
-0.25885078 -0.2509467 -0.013271969 0.111392565 0.01201082 0.20062262 -0.21998364 0.12928034
0.04904456 -0.24243784 0.1405217 -0.1630436 -0.0040677004 -0.026254121 -0.14437005 -0.18586987
-0.06436344 -0.20203893 -0.060775004 0.10208881 -0.32408628 -0.052049108 0.19654486 -0.13937841
-0.041262522 -0.045433544 -0.07103507 0.1245419 -0.07657676 -0.03677992 -0.062530115 0.12451597
0.07866485 -0.090573795 -0.13564333 0.07291607 0.27367008 0.2196441 -0.11083821 0.18287596
0.029682372 -0.1405354 0.13399836 -0.058250006 -0.07200833 -0.08471388 -0.04585348 0.18039428
0.11502186 0.08646305
00000000: 7731 83be 11e0 683e c692 323e 75a0 87be
00000010: cf0f fbbd 4cda 943d a274 023d 3ff4 13be
00000020: bac1 173e d075 ec3d b898 193e e745 09be
00000030: d209 b1bd bc68 b33e f099 70bd 693a 4dbe
00000040: 4fd3 ed3e 715c 843e 1401 7a3e f947 a63d
00000050: 9999 5b3e 4ab1 fb3d b542 4f3e dd0c 103d
00000060: 2b1b 45be 4713 013e 3fde 51bd 9627 9d3d
00000070: a80f d33d 1735 9a3e 4598 c93d 3f52 35be
00000080: f862 7b3d 8bbc 303e 84c8 133e a52e 0f3d
00000090: bcef 1abd e656 81be d2b5 67be 9e96 b53d
000000a0: e822 f8bd 84f3 1a3e 2044 4f3d 9e75 07be
000000b0: c567 87be 967e 74be 7392 71be b006 a4bc
000000c0: 21cf 93be 4f2d 51be 8284 71be 1ce8 983d
000000d0: 960f 95be 947a d1bd fc04 4dbe 2ce9 58be
000000e0: 6e9b 613e e0c7 9abc 99ac 99be 2b4f 9c3e
000000f0: 93c8 763d 4bce a7be 0e15 583e 6e4f 743c
00000100: a77b 8cbe ebdd a4be 2f77 55bd e4b2 63be
00000110: d141 dc3d a0d3 083d 8291 92be a7cd 803e
00000120: dab6 943d cadf 75be 35b2 f8bd c322 89bd
00000130: 4a0e 643e 4b98 33be e025 2c3e 6470 2a3e
00000140: 8683 5abe de04 88be c159 873e e0ce 93be
00000150: 8677 133d 5c12 96be 9a76 88be 9bd0 e63d
00000160: e116 503e 7b9a 28be 6fbd 95bc 3ee1 17bd
00000170: b202 5fbe 0acb 473e 32b1 1fbd 6e39 90be
00000180: f94f 163d e5da e83d a449 7f3d 9a22 bb3d
00000190: fb36 8dbe f931 d6bd ada5 813d dd72 d0be
000001a0: fe9a b33d 07c2 933e 3a3c 77be 52ce 9ebe
000001b0: c215 95be 3549 133e a02c 0fbe 798e 803e
000001c0: 635f 973d 27d6 083e 0378 f5bd 4e19 483e
000001d0: 36c7 893e 0713 82bb b3bc 4e3e 50b9 453e
000001e0: 1788 84be 167c 80be ac72 59bc c921 e43d
000001f0: 08c9 443c 0470 4d3e 6443 61be 1162 043e
00000200: f3e2 483d a041 78be ece4 0f3e e7f4 26be
00000210: 584a 85bb e212 d7bc bed5 13be ac54 3ebe
00000220: fbd0 83bd 4be3 4ebe 36ef 78bd f013 d13d
00000230: a3ee a5be 7231 55bd 0e43 493e 37b9 0ebe
00000240: e402 29bd 8618 3abd d67a 91bd d30f ff3d
00000250: 47d4 9cbd 8ba6 16bd ca0f 80bd 3b02 ff3d
00000260: 091b a13d c17e b9bd 16e6 0abe 0555 953d
00000270: 7c1e 8c3e 62ea 603e 25ff e2bd d643 3b3e
00000280: 7228 f33c 83e8 0fbe de36 093e 8f97 6ebd
00000290: 1a79 93bd 797e adbd dcd0 3bbd 47b9 383e
000002a0: 9590 eb3d 8a13 b13d

fc3.bias f4 [17]
-0.099268846 0.15641227 -0.2349884 0.13295208 -0.07353176 0.15254965 -0.20685767 0.016505871
0.1431424 -0.03194651 -0.040325385 0.009775123 0.16438775 0.006699532 0.08895981 -0.16820799
-0.05453496
00000000: 774d cbbd 8a2a 203e cda0 70be 9724 083e
00000010: d297 96bd fa35 1c3e 7fd2 53be 5237 873c
00000020: ec93 123e 58da 02bd 3b2c 25bd d627 203c
00000030: 4355 283e bf87 db3b 9030 b63d b73e 2cbe
00000040: 0d60 5fbd
