neuronas/dnn/clasificar/modelo_red_neuronal_prof_uefa.pth (torch, 4516 bytes, 6 tensors)

fc1.weight f4 [10, 15]
0	0xbb74c3b6	-0.0037348098
1	0x3e0dd556	0.13850912
2	0xbe5b7464	-0.21431118
3	0xbe446c98	-0.1918205
4	0xbdcf5b3d	-0.10124824
5	0x3d8a1bf5	0.06743614
6	0xbbe2abf7	-0.0069174725
7	0x3e4fca9c	0.20292133
8	0xbcca77d8	-0.02471535
9	0x3d8f9d69	0.070124455
10	0xbd9fcec2	-0.07803108
11	0xbd57439a	-0.052554704
12	0xbe7e6f59	-0.24847163
13	0xbe2d426a	-0.16919866
14	0xbdddab8e	-0.10823737
15	0xbb7bbfa6	-0.0038413792
16	0x3dc23a86	0.09483819
17	0x3e0d0c54	0.13774234
18	0xbe3f8226	-0.18701991
19	0xbe09e579	-0.13466443
20	0x3d975dce	0.07390939
21	0x3e5066d7	0.2035173
22	0xbd93441a	-0.07190724
23	0x3e3759eb	0.17905395
24	0xbc41f920	-0.011839181
25	0x3d1fba42	0.03899599
26	0x3ea80b8a	0.32821304
27	0xbe2c74b0	-0.16841388
28	0xbcca5328	-0.024697855
29	0x3a603c0c	0.00085538696
30	0xbb2aecac	-0.002608101
31	0x3e331936	0.17490086
32	0xbdac2931	-0.08406294
33	0xbda3b19f	-0.07992863
34	0xbd6d21a9	-0.05789343
35	0xbe18f6f6	-0.14937958
36	0xbdefcb24	-0.11708668
37	0x3e9a3b78	0.30123496
38	0x3e345579	0.1761073
39	0xbd593e8d	-0.05303817
40	0xbd017f88	-0.031615764
41	0xbc995a8a	-0.01871993
42	0x3e3e2396	0.18568262
43	0xbece6a59	-0.40315512
44	0x3d1312d8	0.035906643
45	0xbe368022	-0.17822316
46	0x3e129dd6	0.14318022
47	0x3de39b7f	0.11113643
48	0xbe1c6969	-0.15274586
49	0xbd360429	-0.04443756
50	0x3df5926a	0.11990817
51	0x3e5d3f05	0.21606071
52	0x3d70ed0b	0.05881981
53	0xbb36e4db	-0.0027907405
54	0x3e20996c	0.15683526
55	0xbe32a6bf	-0.17446421
56	0x3c88b866	0.01668949
57	0xbe6bc092	-0.23022678
58	0xbe357113	-0.17718916
59	0xbe15227e	-0.14563939
60	0x3da93d04	0.08263591
61	0x3dafdf82	0.085875526
62	0xbe3e02a4	-0.18555695
63	0x3d3ec831	0.046577636
64	0x3ddca01b	0.10772725
65	0xbd860b95	-0.06545178
66	0xbcb355a8	-0.02189143
67	0x3cdc555a	0.026896168
68	0x3e0346c7	0.12819968
69	0x3e623763	0.22091441
70	0xbe6046d9	-0.21902026
71	0xbe0eb1f4	-0.13935071
72	0x3d7edcdd	0.06222235
73	0x3e221269	0.15827335
74	0x3e405db9	0.18785752
75	0x3e9a62a7	0.3015339
76	0x3d6e10a7	0.05812135
77	0xbe279191	-0.16364123
78	0x3d90fe94	0.07079807
79	0xbdbfec56	-0.093712494
80	0xbe2fba72	-0.17160967
81	0x3e8d97d3	0.27654895
82	0x3e85de62	0.26146227
83	0xbe52b917	-0.20578419
84	0xbc51ab1e	-0.012797145
85	0xbcc563d8	-0.02409546
86	0x3db8cd3a	0.09023519
87	0x3d36a4ef	0.044590887
88	0xbd68471c	-0.05670844
89	0xbc4953d6	-0.012288054
90	0x3d67f201	0.056627277
91	0x3e0a4375	0.13502295
92	0x3e351a7b	0.17685883
93	0x3dc76a91	0.09737123
94	0xbe8582f7	-0.2607648
95	0xbe4072a4	-0.18793732
96	0x3e04e1e3	0.12976794
97	0x3d15daf6	0.03658577
98	0xbe4ec8f7	-0.2019385
99	0xbdd555ef	-0.10416781
100	0x3e5ef283	0.21772198
101	0x3dcf3d94	0.10119167
102	0xbe3d33ad	-0.18476744
103	0xbcee2611	-0.029070886
104	0xbea2a237	-0.31764385
105	0x3d4e1ece	0.050322346
106	0xbe303796	-0.17208704
107	0xbe1da482	-0.15394786
108	0x3d0382c3	0.032107126
109	0x3d96dd85	0.0736647
110	0xbd63cdc2	-0.055616148
111	0x3e4f623f	0.20252322
112	0xbddb74f3	-0.10715666
113	0x3e8e9586	0.27848452
114	0x3e627d08	0.22118008
115	0xbe2dbbe6	-0.16966209
116	0x3dc1c5ca	0.094615534
117	0x3e0719df	0.13193463
118	0x3e773e20	0.24144793
119	0x3e0fb000	0.14031982
120	0x3dcf8340	0.10132456
121	0x3c7d65c0	0.015466154
122	0xbe010199	-0.12598266
123	0x3dfa37e0	0.122176886
124	0xbe7d9f0a	-0.247677
125	0xbe1cb586	-0.1530362
126	0xbd845f4c	-0.06463489
127	0xbe00ca69	-0.12577213
128	0xbdb8fd26	-0.09032659
129	0xbe58b454	-0.2116254
130	0xbd60f6c0	-0.05492282
131	0x3d6210a8	0.055191666
132	0xbe2c3ea6	-0.16820773
133	0xbc591910	-0.013250604
134	0x3e3d4492	0.18483189
135	0xbdad46e4	-0.08460787
136	0xbc4b3b07	-0.01240421
137	0xbd927955	-0.071520485
138	0x3c4ff50f	0.012692704
139	0x3ddfd4b8	0.10929245
140	0x3e407b3a	0.18797007
141	0x3e00a163	0.12561564
142	0x3e455718	0.19271505
143	0xbd7b61c5	-0.061372537
144	0xbe543ec5	-0.2072707
145	0xbe0f9a22	-0.14023641
146	0x3dbe57c7	0.09294086
147	0xbdb0a779	-0.08625693
148	0xbd492987	-0.04911187
149	0xbeb3d022	-0.3511973

fc1.bias f4 [10]
0	0xbe7947c8	-0.24343789
1	0xbe09b890	-0.13449311
2	0x3da51489	0.080605574
3	0x3de2e37e	0.11078547
4	0x3dc70155	0.09717051
5	0xbdca6a76	-0.09883587
6	0x3db26ed2	0.087125435
7	0xbd71fccf	-0.059078988
8	0xbd5f9578	-0.054585904
9	0xbe420651	-0.18947722

fc2.weight f4 [10, 10]
0	0xbd797d10	-0.060910285
1	0x3dc3769d	0.09544108
2	0xbeb3fcab	-0.35153708
3	0xbe2794a6	-0.16365299
4	0x3d405d31	0.046963874
5	0x3e1af991	0.15134265
6	0x3d4cf83d	0.050041426
7	0x3e99e629	0.3005841
8	0xbe91ba2a	-0.28462344
9	0x3c1d4ee2	0.009601327
10	0x3e923a22	0.28559977
11	0xbdcc4d8e	-0.0997573
12	0x3edfa089	0.43677166
13	0x3d97cc36	0.07411997
14	0xbe97c6f9	-0.29643992
15	0x3e78e11d	0.24304624
16	0xbd443fe3	-0.04791249
17	0xbcd55090	-0.026039392
18	0x3e817883	0.25287256
19	0xbe14d49e	-0.14534232
20	0x3cef452f	0.029207794
21	0xbdd22a97	-0.102620296
22	0x3eb11ade	0.3459081
23	0x3d65420d	0.055971194
24	0x3e032f59	0.1281103
25	0x3d85daf7	0.06535905
26	0xbdf0eb28	-0.117636025
27	0xbded7793	-0.115950726
28	0xbe856d07	-0.26059744
29	0x3e1105e1	0.14162399
30	0x3e808d49	0.25107792
31	0x3e916113	0.28394374
32	0xbde05857	-0.109543495
33	0x3cb76ed0	0.022391707
34	0xbe4b6fff	-0.19866942
35	0xbd5f4b70	-0.054515302
36	0xbe367cdb	-0.17821066
37	0x3e9f0d8a	0.31065017
38	0xbe40f78a	-0.18844429
39	0xbbba28df	-0.0056811417
40	0x3c9a30d4	0.018822111
41	0x3e861562	0.2618819
42	0xbc730235	-0.014832069
43	0xbe393a0e	-0.18088552
44	0xbe21fa49	-0.15818132
45	0x3ea45b1c	0.3210076
46	0xbd61f2a1	-0.05516303
47	0x3eb6395e	0.35590643
48	0x3dea3084	0.11435035
49	0x3dc26bb2	0.094931975
50	0xbb197b3c	-0.00234194
51	0xbda6929e	-0.08133434
52	0x3de1077e	0.10987757
53	0x3cad5699	0.021159457
54	0xbb119e00	-0.002221942
55	0x3e386195	0.18005975
56	0xbe42ce1d	-0.19023938
57	0xbdf0ef59	-0.11764402
58	0x3e82bd73	0.25535163
59	0xbdd6681f	-0.10469078
60	0xbc74631d	-0.014916209
61	0x3e913282	0.28358847
62	0x3e9d83a2	0.3076449
63	0xbcc5f4dd	-0.024164611
64	0xbe973c9e	-0.29538435
65	0x3e0d8960	0.13821936
66	0xbe89b143	-0.26893052
67	0xbded245c	-0.115792006
68	0xbdd94abc	-0.106099576
69	0xbd5158b8	-0.05111
70	0xbaddc9a0	-0.0016921051
71	0x3e63781f	0.22213791
72	0xbcc6901f	-0.024238644
73	0x3e7cc21f	0.24683426
74	0x3e2fb564	0.17159039
75	0xbe88094e	-0.265696
76	0x3dbdf76a	0.09275706
77	0xbe845fce	-0.25854343
78	0xbe093dec	-0.13402528
79	0x3d1e903b	0.038711768
80	0x3dcdaab0	0.10042322
81	0x3e5c84be	0.21535012
82	0xbde0eb17	-0.1098234
83	0xbca41727	-0.020030571
84	0x3e1729a2	0.14761975
85	0xbea8d813	-0.32977352
86	0x3e4e74a9	0.2016169
87	0xbe8dc1d5	-0.27686945
88	0x3b8ed100	0.004358411
89	0xbda2bd2f	-0.0794624
90	0xbe2a8bb8	-0.16654861
91	0x3da0622a	0.07831223
92	0x3e60c2fb	0.21949379
93	0xbcb9ff90	-0.02270487
94	0xbeb2c13d	-0.34913054
95	0xbdfbdfee	-0.122985706
96	0xbead2d6f	-0.33823726
97	0x3d951efc	0.072813004
98	0xbe1b8486	-0.15187272
99	0xbe84ba7e	-0.25923532

fc2.bias f4 [10]
0	0xbd1bba20	-0.0380193
1	0x3eae7fd2	0.34081894
2	0x3e0d6594	0.1380828
3	0x3ec8ac01	0.3919373
4	0x3e841035	0.25793615
5	0xbe0941e9	-0.13404049
6	0x3d18c7f1	0.037300054
7	0x3d015b20	0.031581044
8	0x3e6d219c	0.23157352
9	0x3d09d525	0.033650536

fc3.weight f4 [15, 10]
0	0xbe19366e	-0.1496217
1	0xbe18381b	-0.14865153
2	0xbe99145f	-0.29898354
3	0x3d8beb8c	0.068320364
4	0xbe35b877	-0.17746149
5	0xbe905a93	-0.28194103
6	0x3e8df94f	0.2772927
7	0xbe524a60	-0.20536184
8	0xbd135a10	-0.035974562
9	0x3db98b08	0.09059721
10	0x3eaff70c	0.3436817
11	0xbe058bbc	-0.13041586
12	0xbe67779d	-0.22604223
13	0x3ed45e2d	0.414781
14	0x3e48787f	0.19577216
15	0xbd4b7934	-0.049676135
16	0x3bbabed9	0.0056990203
17	0x3e03c2dc	0.12867302
18	0xbd64cd85	-0.05586006
19	0xbecc8ef3	-0.39952812
20	0xbf090b1a	-0.53532565
21	0x3e947a52	0.28999573
22	0x3e6e31d0	0.2326119
23	0xbcda7017	-0.026664777
24	0x3d9877f6	0.07444756
25	0x3e8038a1	0.25043204
26	0x3ed78edb	0.42101178
27	0xbe283849	-0.16427721
28	0x3dbcd482	0.0922022
29	0x3b05f5df	0.002044074
30	0xbe083e8a	-0.13305107
31	0x3e4cbd14	0.19994003
32	0xbe0a1102	-0.1348305
33	0x3e555bc3	0.20835786
34	0x3e082678	0.13295925
35	0xbf59845a	-0.8496758
36	0x3e1c9f3a	0.15295115
37	0x3df39c67	0.11895066
38	0x3e02be39	0.12767877
39	0x3e687ab9	0.22703065
40	0xbe8c0096	-0.27344197
41	0xbdcb6ea1	-0.0993321
42	0x3d3b59ef	0.045740064
43	0xbe5e3b59	-0.21702327
44	0x3c7864f2	0.015160786
45	0x3e57a672	0.21059588
46	0xbe5ed68b	-0.21761529
47	0xbd648118	-0.055787176
48	0x3dca4048	0.09875542
49	0xbb305605	-0.002690674
50	0xbd7b4c53	-0.061352085
51	0x3a500a01	0.0007936061
52	0xbeaf31af	-0.34217593
53	0xbde6449f	-0.11243557
54	0x3dcb8182	0.09936811
55	0x3e91e5e9	0.2849572
56	0x3d66f2ed	0.056384016
57	0xbd32cbf1	-0.043651525
58	0x3ddb952f	0.10721814
59	0xbe1d87ce	-0.15383837
60	0xbe8a257d	-0.26981726
61	0xbeb8ab08	-0.36067986
62	0x3e8e6b16	0.27816075
63	0x3e351430	0.17683482
64	0xbe8b25da	-0.27177316
65	0x3da4d68f	0.08048736
66	0x3e449eac	0.19201154
67	0x3e9397ab	0.2882665
68	0x3e844fa0	0.25842
69	0x3e3f0e2a	0.18657747
70	0xbd9479e8	-0.07249814
71	0xbe47d44d	-0.1951458
72	0x3e485947	0.19565307
73	0x3e0ab399	0.13545074
74	0xbe84e0d1	-0.2595277
75	0x3e809759	0.2511547
76	0x3d8885bf	0.06666135
77	0x3e02297f	0.12711142
78	0xbe64e2be	-0.2235212
79	0x3d000456	0.031254135
80	0xbde3094c	-0.110857576
81	0x3e3d9921	0.18515445
82	0xbdea42c3	-0.11438515
83	0x3d3c3d85	0.045957107
84	0xbce36dce	-0.02776232
85	0x3d9acd5f	0.07558703
86	0xbe2e132d	-0.16999502
87	0x3db24070	0.08703697
88	0xbe8109e2	-0.25202852
89	0x3c6a4331	0.014298246
90	0xbeb1c851	-0.34723142
91	0xbebc1788	-0.36736703
92	0xbec255d8	-0.3795612
93	0x3db7dd08	0.08977705
94	0x3d003685	0.031301994
95	0x3e97e7bb	0.29668984
96	0x3e1744f2	0.14772394
97	0xbeb60d52	-0.35557038
98	0xbe7c1be0	-0.24620008
99	0xbd514af8	-0.051096886
100	0xbe524c20	-0.20536852
101	0x3df32531	0.11872328
102	0xbea4bd05	-0.3217546
103	0xbe384d06	-0.17998132
104	0xbeae526c	-0.34047258
105	0xbe59f4a7	-0.21284734
106	0x3e1f3f9d	0.1555161
107	0x3e6b7c45	0.22996624
108	0x3e4e42fd	0.20142742
109	0x3e1c846b	0.15284888
110	0xbc0cd939	-0.008596712
111	0xbe521dab	-0.2051913
112	0x3d58a009	0.052886996
113	0x3e20342a	0.15644899
114	0xbc2e4afe	-0.010637997
115	0x3e967be1	0.29391387
116	0xbc438573	-0.011933672
117	0x3e039b9d	0.1285233
118	0xbe156354	-0.14588672
119	0x3da64006	0.0811768
120	0x3d14d5b8	0.03633663
121	0xbdda5efb	-0.10662647
122	0xbe535be1	-0.20640518
123	0xbe35b300	-0.17744064
124	0xbe793138	-0.24335182
125	0x3e481766	0.19540176
126	0x3e45f17b	0.19330399
127	0xbd691a5f	-0.056909915
128	0xbe3b6375	-0.18299659
129	0x3e5ba8b9	0.21451081
130	0xbdc725b9	-0.09723992
131	0xbe425a14	-0.18979675
132	0xbe7c7560	-0.2465415
133	0x3e233ad7	0.15940414
134	0x3c6254f0	0.013814196
135	0xbe8a1396	-0.26968068
136	0x3da04fee	0.078277454
137	0x3e2899e4	0.16464955
138	0xbe1cfa78	-0.15329921
139	0x3da169a0	0.078814745
140	0xbe37fd49	-0.17967714
141	0xbe073c55	-0.13206609
142	0x3e4d847d	0.20070072
143	0x396c6ca1	0.00022547181
144	0xbe8e024d	-0.2773613
145	0xbe06194d	-0.13095589
146	0xbe2d9e34	-0.16954881
147	0xbdcdede6	-0.10055141
148	0x3c8beaf8	0.017079815
149	0x3e6927e1	0.22769119

fc3.bias f4 [15]
0	0x3c8ab2c0	0.016930938
1	0xbcc57c36	-0.02410708
2	0x3e0bbfde	0.1364741
3	0x3ea7e4c2	0.32791716
4	0x3da45f35	0.08025972
5	0xbecbcd17	-0.3980491
6	0xbdd85fa3	-0.10565116
7	0xbe9972fe	-0.29970545
8	0xbe48ba3a	-0.1960229
9	0xbc189083	-0.009311798
10	0xbe9745d5	-0.29545465
11	0xba21dc80	-0.00061745197
12	0x3e76849f	0.24074028
13	0xbe0818cd	-0.13290711
14	0xbe904657	-0.28178665
