neuronas/dnn/clasificar/modelo_red_neuronal_prof_uefa.pth (torch, 4516 bytes, 6 tensors)

fc1.weight f4 [10, 15]
0.15416868 0.19863522 -0.06302478 -0.06885519 0.058470868 0.19004917 0.12900548 0.23243733
-0.06522152 0.31460962 -0.10554504 0.17484671 -0.03810277 0.40961137 -0.099171214 0.14820111
-0.038485017 -0.054967158 -0.23280612 0.14506893 0.09978764 -0.20898119 0.06297682 0.1947955
0.04238612 0.04350778 -0.07407574 0.02705572 0.18165238 0.2258896 -0.13529329 0.20847854
-0.13157235 -0.059644308 -0.21170676 -0.034664225 -0.17253214 0.11618537 0.017811434 0.22092436
-0.11508477 -0.1390071 -0.067857735 -0.22724111 -0.24059035 -0.14512824 -0.030684164 -0.0072878907
0.24923155 -0.03319009 -0.05263275 -0.11027282 0.14489552 -0.13493925 0.38909915 0.06170875
0.14357589 0.015696047 0.47415936 -0.2585301 0.24594884 -0.19974607 0.137984 -0.04461434
-0.214183 -0.14894216 0.16127634 0.09023443 -0.20476387 -0.117107615 0.01993034 -0.0006646954
0.21893884 -0.123918414 -0.13197073 -0.122121654 0.10919959 0.118584864 -0.12239297 -0.15857089
0.26188907 0.13950883 0.065637484 -0.053817585 -0.014417466 0.13004884 -0.005796681 0.11864851
-0.17845991 -0.04168548 0.010717218 0.1329393 0.150744 0.12903741 0.16728579 -0.07310168
-0.03634424 0.054696586 0.038712226 -0.11843531 0.093087696 0.23343258 0.27311918 -0.08105644
-0.032966282 0.20717785 -0.1022685 0.1077638 -0.14975345 -0.12895958 0.049746633 -0.08480394
0.065039456 -0.24542373 0.07807416 0.08964825 -0.17591286 -0.20929812 0.21712756 -0.06000279
-0.11164887 0.016923517 -0.17155652 -0.2536164 0.0016941765 0.009608238 -0.11215609 0.24752638
-0.08075438 -0.2716833 -0.2536025 -0.026756896 0.16192266 -0.05397143 0.27871698 -0.20756595
-0.11093296 -0.1189473 0.06723152 0.23602895 -0.003493759 -0.1389249 -0.011573163 0.18252575
0.037945956 -0.093744986 0.16490605 0.1714773 0.20009963 -0.13468479
00000000: 65de 1d3e 0867 4b3e 2313 81bd f303 8dbd
00000010: 267f 6f3d 409c 423e 031a 043e 0d04 6e3e
00000020: dc92 85bd 8314 a13e ff27 d8bd 040b 333e
00000030: a611 1cbd 95b8 d13e 471a cbbd 08c2 173e
00000040: 77a2 1dbd 3e25 61bd ba64 6ebe f38c 143e
00000050: 765d cc3d 2aff 55be fef9 803d 7978 473e
00000060: 119d 2d3d 3735 323d 06b5 97bd f5a3 dd3c
00000070: 1503 3a3e 9a4f 673e 538a 0abe 667b 553e
00000080: e7ba 06be 974d 74bd a8c9 58be 13fc 0dbd
00000090: 44ac 30be 98f2 ed3d 49e9 913c ff39 623e
000000a0: 90b1 ebbd e157 0ebe fff8 8abd e5b1 68be
000000b0: 515d 76be 7f9c 14be 5b5d fbbc 42cf eebb
000000c0: 8e36 7f3e 55f2 07bd 7095 57bd b7d6 e1bd
000000d0: 7e5f 143e 842d 0abe 0138 c73e 50c2 7c3d
000000e0: 8f05 133e ff94 803c 04c5 f23e 0f5e 84be
000000f0: 03da 7b3e 3c8a 4cbe ad4b 0d3e 87bd 36bd
00000100: ca52 5bbe 4b84 18be a025 253e d4cc b83d
00000110: 9fad 51be 1ed6 efbd f444 a33c f43e 2eba
00000120: 8131 603e f0c8 fdbd 5623 07be eb1a fabd
00000130: 09a4 df3d 9fdc f23d 2aa9 fabd 6860 22be
00000140: 5316 863e 67db 0e3e f26c 863d d46f 5cbd
00000150: 3c37 6cbc 862b 053e 16f2 bdbb fdfd f23d
00000160: 32be 36be 65be 2abd 4597 2f3c 3d21 083e
00000170: a35c 1a3e 6222 043e f74c 2b3e 55b6 95bd
00000180: b3dd 14bd 8709 603d b690 1e3d 368e f2bd
00000190: c3a4 be3d f308 6f3e 47d6 8b3e eb00 a6bd
000001a0: a707 07bd 6e26 543e 2672 d1bd 44b3 dc3d
000001b0: f858 19be fb0d 04be 20c3 4b3d b0ad adbd
000001c0: 6833 853d 5c50 7bbe 58e5 9f3d 8099 b73d
000001d0: 8022 34be 3f52 56be b056 5e3e 7cc5 75bd
000001e0: 2aa8 e4bd 30a3 8a3c 83ac 2fbe 02da 81be
000001f0: 210f de3a df6b 1d3c 18b2 e5bd 8e77 7d3e
00000200: 8d62 a5bd 131a 8bbe 30d8 81be 4731 dbbc
00000210: 0ecf 253e 2511 5dbd feb3 8e3e 2b8c 54be
00000220: d230 e3bd a49a f3bd aeb0 893d 93b1 713e
00000230: 8df7 64bb 5442 0ebe 5d9d 3dbc 08e8 3a3e
00000240: 386d 1b3d 5ffd bfbd 22dd 283e bf97 2f3e
00000250: ebe6 4c3e cfea 09be

fc1.bias f4 [10]
-0.2413328 -0.13318652 -0.1280385 0.25044233 0.2272067 0.018355116 -0.1603766 0.20531985
0.024344785 0.22471985
00000000: f21f 77be 0c62 08be 861c 03be fa39 803e
00000010: e0a8 683e 785d 963c c339 24be 5e3f 523e
00000020: b76e c73c f61c 663e

fc2.weight f4 [10, 10]
-0.1164331 0.0013639012 0.02579838 -0.30543268 0.39132702 -0.11733876 0.09543432 0.17046526
0.3205548 -0.1315559 0.17981042 0.39754218 -0.11496537 0.19287714 0.1981182 0.07356668
0.22747597 0.114378065 -0.16290495 0.25071093 0.28139868 0.24352928 0.26879403 0.44038647
-0.24751428 -0.2585876 0.18668494 -0.139211 -0.057024434 0.15262964 -0.17883043 -0.25247106
0.28260443 -0.20783223 -0.17993206 -0.15237153 -0.23473144 -0.1878999 0.29762802 -0.21233264
-0.10413571 -0.22926827 -0.088552356 0.18653849 -0.16167077 -0.20338146 -0.18304905 -0.25841087
-0.1349748 -0.21230365 -0.2552101 -0.06404424 -0.22484693 -0.07851711 -0.075105205 -0.1518573
0.07284424 -0.12152776 -0.10854183 -0.043566525 -0.17815147 0.25477162 0.077307954 -0.31412098
-0.12162798 0.20035586 0.18026766 0.14482352 -0.082580656 0.27590522 -0.07830634 -0.1779959
0.11680165 -0.18111698 0.3691551 0.009864316 0.26566517 0.032604396 0.18520316 0.11753893
-0.18630603 0.2587649 0.2997067 0.19812694 0.10425277 -0.08639632 -0.17952949 -0.17048673
-0.019895911 -0.23254322 -0.25834975 -0.16509596 0.28438798 -0.19091645 -0.059274893 0.07947616
0.13438699 0.041240156 0.29828995 0.14337352
00000000: 7a74 eebd eec4 b23a 2057 d33c ac61 9cbe
00000010: 045c c83e 4e4f f0bd 1273 c33d 728e 2e3e
00000020: c21f a43e 97b6 06be 3920 383e a68a cb3e
00000030: f772 ebbd 9681 453e 7fdf 4a3e 21aa 963d
00000040: 76ef 683e 0c3f ea3d 8ed0 26be 2f5d 803e
00000050: 7d13 903e bd5f 793e 5f9f 893e 567a e13e
00000060: 6274 7dbe 9865 84be 562a 3f3e 548d 0ebe
00000070: 7492 69bd f24a 1c3e 531f 37be e343 81be
00000080: 87b1 903e f9d1 54be 1c40 38be 4807 1cbe
00000090: 705d 70be d568 40be b362 983e ba6d 59be
000000a0: 1a45 d5bd 4dc5 6abe f05a b5bd f203 3f3e
000000b0: 068d 25be 3b43 50be 3671 3bbe 6e4e 84be
000000c0: d536 0abe 2166 59be e6aa 82be a029 83bd
000000d0: 463e 66be 94cd a0bd c2d0 99bd 7b80 1bbe
000000e0: 5c2f 953d 8ce3 f8bd 2e4b debd d072 32bd
000000f0: 576d 36be 6d71 823e a253 9e3d 77d4 a0be
00000100: 1718 f9bd 162a 4d3e 1698 383e 9e4c 143e
00000110: 0c20 a9bd 7343 8d3e 135f a0bd 8f44 36be
00000120: b435 ef3d bb76 39be e601 bd3e f19d 213c
00000130: 4405 883e 308c 053d e6a5 3d3e 40b8 f03d
00000140: 02c7 3ebe d57c 843e 2873 993e cae1 4a3e
00000150: 7a82 d53d 8ef0 b0bd 94d6 37be 1394 2ebe
00000160: c0fc a2bc cf1f 6ebe 6b46 84be ea0e 29be
00000170: 4d9b 913e 9a7f 43be 3bca 72bd 66c4 a23d
00000180: be9c 093e 70eb 283d 76b9 983e 82d0 123e

fc2.bias f4 [10]
-0.02327749 0.20127276 0.30468577 0.0775843 0.1031245 -0.16318601 -0.24617168 0.21024457
-0.1412472 -0.16560704
00000000: 6fb0 bebc 721a 4e3e c6ff 9b3e 84e4 9e3d
00000010: f032 d33d 3c1a 27be 6e14 7cbe 5a4a 573e
00000020: 1ba3 10be e494 29be

fc3.weight f4 [15, 10]
-0.04841761 0.18370467 0.03371601 -0.09533045 0.14525288 -0.15208176 -0.26560196 -0.32286087
0.20994559 -0.022684224 -0.33763057 0.28679165 0.39029518 0.20719734 -0.07322766 0.08318511
-0.37732646 0.05336616 0.2236683 -0.21374436 0.17500074 0.2584312 -0.40334636 -0.22729388
0.039709598 0.049052417 0.02556558 0.29210982 0.23419707 0.04748214 -0.1869636 0.13237557
0.26936835 -0.038214833 -0.20092496 0.07217687 0.20286618 0.1150846 0.24648058 0.20621829
-0.30109257 -0.20450808 -0.24554162 0.1281173 0.23233572 0.25271377 0.053694308 -0.107156456
0.31132564 -0.1372237 0.28299206 0.036392696 0.06992627 0.15233812 0.27184853 0.16233075
0.07608711 -0.2153945 -0.3161438 -0.070158646 -0.02997065 -0.02986876 0.13825706 -0.01931414
-0.018522173 0.24064365 0.29276535 -0.23606649 0.29041982 0.21623981 0.21306479 0.009727173
0.06088774 -0.2995664 0.011475593 -0.3025849 -0.35848245 0.02506116 -0.15348637 -0.07925301
-0.043978076 0.23642635 -0.30468222 -0.24686155 0.22772172 -0.2779671 -0.08899099 -0.3210239
0.18593338 -0.25214985 0.26629487 -0.29932243 0.033284545 0.310613 0.101546794 0.27346
0.1016916 -0.007996091 0.05029002 -0.2224696 -0.08184409 -0.11752537 -0.00432384 -0.022885382
0.2747043 -0.036702216 0.031074017 -0.2020109 0.07467753 -0.05703923 0.06427473 -0.02240321
-0.059024036 0.10487762 -0.14937897 -0.040409446 0.026280373 -0.17122187 -0.29962006 -0.20573393
0.009733277 -0.20057365 0.1313963 -0.2581223 -0.012836605 -0.26352003 -0.18003377 0.092423424
0.09769038 0.10115608 -0.20284285 -0.24767433 0.21144114 -0.16876638 0.3107451 -0.1204097
-0.17684948 -0.2965434 -0.038505644 -0.040994134 0.1283675 0.19065557 -0.059199184 -0.12061605
0.08451429 0.26626554 -0.31464636 -0.1617298 -0.28340957 0.17543268
00000000: 8b51 46bd 141d 3c3e cd19 0a3d 9c3c c3bd
00000010: 2cbd 143e 52bb 1bbe fbfc 87be 054e a5be
00000020: fafb 563e 44d4 b9bc eadd acbe 5bd6 923e
00000030: c5d4 c73e 8a2b 543e 62f8 95bd f45c aa3d
00000040: ef30 c1be 7996 5a3d 4e09 653e cddf 5abe
00000050: 6533 333e 1851 843e 6a83 cebe babf 68be
00000060: 88a6 223d 30eb 483d e86e d13c 6b8f 953e
00000070: 5bd1 6f3e a27c 423d 6373 3fbe 768d 073e
00000080: a6ea 893e 2887 1cbd 46bf 4dbe 78d1 933d
00000090: 27bc 4f3e 7ab1 eb3d 6865 7c3e e32a 533e
000000a0: ce28 9abe 916a 51be 436f 7bbe 2e31 033e
000000b0: 6ae9 6d3e b363 813e 90ee 5b3d d874 dbbd
000000c0: 1366 9f3e 5f84 0cbe 56e4 903e 8210 153d
000000d0: 8135 8f3d 86fe 1b3e bb2f 8b3e 083a 263e
000000e0: 8fd3 9b3d 6090 5cbe 9add a1be 56af 8fbd
000000f0: 0285 f5bc 54af f4bc 4293 0d3e b038 9ebc
00000100: d0bb 97bc 4a6b 763e 57e5 953e 6abb 71be
00000110: e8b1 943e f86d 5d3e a82d 5a3e b85e 1f3c
00000120: 6c65 793d c460 99be 2004 3c3c 68ec 9abe
00000130: 038b b7be 104d cd3c 882b 1dbe 674f a2bd
00000140: 5b22 34bd c019 723e 4fff 9bbe 46c9 7cbe
00000150: e22f 693e b451 8ebe e840 b6bd 3f5d a4be
00000160: 5265 3e3e c919 81be cd57 883e ca40 99be
00000170: 6055 083d ab08 9f3e c4f7 cf3d f302 8c3e
00000180: b043 d03d 0902 03bc e8fc 4d3d 12cf 63be
00000190: e09d a7bd 24b1 f0bd 00af 8dbb 207a bbbc
000001a0: 0ba6 8c3e 1055 16bd f08e fe3c f2db 4ebe
000001b0: 88f0 983d f8a1 69bd 78a2 833d f086 b7bc
000001c0: 30c3 71bd 14ca d63d cdf6 18be 6084 25bd
000001d0: f049 d73c c954 2fbe cd67 99be eaab 52be
000001e0: 5378 1f3c 2e63 4dbe c08c 063e 9b28 84be
000001f0: a050 52bc 19ec 86be c65a 38be 7e48 bd3d
00000200: e511 c83d eb2a cf3d 09b6 4fbe 579e 7dbe
00000210: 0784 583e 18d1 2cbe fb19 9f3e 5c99 f6bd
00000220: 0818 35be 89d4 97be 18b8 1dbd 77e9 27bd
00000230: c572 033e 373b 433e d87a 72bd 8c05 f7bd
00000240: d415 ad3d f553 883e 5419 a1be 7f9c 25be
00000250: 0f1b 91be a0a4 333e

fc3.bias f4 [15]
-0.15499459 0.2077992 -0.19541052 -0.17339128 0.13167801 0.25823402 0.06770549 -0.012676876
-0.11976925 -0.14459349 0.100456744 -0.0025482178 -0.05377499 0.049436715 -0.06923841
00000000: e7b6 1ebe 50c9 543e b219 48be 7c8d 31be
00000010: 9ad6 063e 4037 843e 2da9 8a3d acb2 4fbc
00000020: 9549 f5bd 5110 14be 44bc cd3d 0000 27bb
00000030: 2a43 5cbd 277e 4a3d decc 8dbd
