neuronas/dnn/clasificar/modelo_red_neuronal_prof_uefa.pth (torch, 4644 bytes, 6 tensors)

fc1.weight f4 [10, 17]
0	0xbdd4f138	-0.10397571
1	0xbdb5a720	-0.08869767
2	0x3e6feeff	0.23431014
3	0x3e85a086	0.26099032
4	0xbe18cb42	-0.14921287
5	0xbd036f16	-0.03208836
6	0xbe25ff81	-0.16210748
7	0x3e78b383	0.24287228
8	0x3e5f5dff	0.218132
9	0x3dd1ce1f	0.102443926
10	0x3ddfe0b3	0.1093153
11	0xbdb84118	-0.08996791
12	0xbce41724	-0.027843066
13	0x3d8ba079	0.06817717
14	0x3e92c62b	0.28666815
15	0x3e2aefd1	0.16693045
16	0xbcb505bb	-0.022097459
17	0xbce0ea23	-0.027455395
18	0x3e791944	0.24326044
19	0x3d154f13	0.036452364
20	0x3d558309	0.052126918
21	0xbdf0abfa	-0.11751552
22	0xbd2b5937	-0.04183313
23	0x3e84012a	0.25782138
24	0xbdf6ad32	-0.12044753
25	0xbe4c00a9	-0.19922127
26	0x3d3f82cb	0.046755593
27	0xbe33ec0a	-0.1757051
28	0x3e34d85c	0.1766066
29	0x3d13d9c3	0.036096346
30	0x3c647be6	0.013945555
31	0xbdbc01f4	-0.0918006
32	0x3e6a5086	0.2288228
33	0x3f02b14d	0.5105179
34	0xbe87c93b	-0.26520714
35	0xbd292f70	-0.041305006
36	0xbc3200d0	-0.0108644515
37	0x3dd8fdbd	0.10595272
38	0xbe553d00	-0.20824051
39	0x3dda53b8	0.10660499
40	0xbe671c85	-0.22569473
41	0xbde6b771	-0.112654574
42	0xbe3243ff	-0.17408751
43	0xbd89e50b	-0.067331396
44	0xbdb7e3f8	-0.089790285
45	0x3e41bcdf	0.18919705
46	0x3e45f378	0.19331157
47	0xbdb5b3d7	-0.08872192
48	0xbe0747ca	-0.13210979
49	0x3dc02f43	0.093840145
50	0xbe2e8fed	-0.17047091
51	0x3e6adad1	0.22935034
52	0xbe272266	-0.16321716
53	0xbb3a6a08	-0.0028444547
54	0x3ca4cd00	0.020117283
55	0xbde895db	-0.11356708
56	0x3e3342d3	0.1750596
57	0x3e2e9ba6	0.17051563
58	0xbe1908c2	-0.14944747
59	0xbdcb0a15	-0.09914032
60	0xbec3ce1c	-0.38243186
61	0x3dc7aeac	0.09750113
62	0x3e01c4af	0.12672685
63	0x3e77eed3	0.24212198
64	0xbdc8c7cf	-0.098037355
65	0xbe486f36	-0.19573674
66	0x3e50b7f2	0.2038267
67	0xbe37b7d4	-0.17941219
68	0xbddada5a	-0.106861785
69	0x3e92e982	0.28693777
70	0x3d8aabaa	0.067710236
71	0xbe2d9593	-0.1695159
72	0xbc7662cb	-0.0150382025
73	0x3e3cc1d8	0.1843332
74	0x3e1bc055	0.15210088
75	0xbde8eaa7	-0.113728814
76	0xbe1083fd	-0.1411285
77	0x3e877b2d	0.26461163
78	0xbcccf117	-0.025017304
79	0x3e57b543	0.2106524
80	0xbdbc12bc	-0.09183261
81	0xbe3b6c0e	-0.18302938
82	0x3e8f41dd	0.27979937
83	0xbd84cf25	-0.06484822
84	0x3e20a4fa	0.15687934
85	0xbe3bde97	-0.1834663
86	0xbe581fcf	-0.21105884
87	0xbd9c9b78	-0.07646841
88	0x3e023004	0.12713629
89	0x3dc9e93a	0.098589376
90	0x3da5e668	0.08100587
91	0xbe1c32f6	-0.15253815
92	0xbe16fa23	-0.14743857
93	0xbe6d2de9	-0.23162045
94	0xbb756df8	-0.003744958
95	0xbbb2afe5	-0.005453097
96	0x3d4ddbff	0.050258633
97	0x3dd016b2	0.10160579
98	0xbdf24126	-0.11828832
99	0x3d471024	0.048599377
100	0x3e109d85	0.14122589
101	0x3bc22d96	0.0059258444
102	0x3e37303c	0.17889494
103	0x3e530e1d	0.20610853
104	0xbe1a660e	-0.15077993
105	0xbd394590	-0.045232356
106	0x3d69c9b1	0.057077114
107	0xbdded5c3	-0.108806156
108	0xbe65afda	-0.22430363
109	0x3d04b825	0.032402176
110	0xbc8c3a95	-0.017117778
111	0xbe4c8859	-0.19973888
112	0x3e3ce4bf	0.18446635
113	0x3d28f053	0.041244816
114	0xbc7fb985	-0.015608196
115	0xbdd45d03	-0.10369303
116	0x3d9bbce1	0.07604385
117	0xbdd1a517	-0.102365665
118	0x3e3fd960	0.18735266
119	0x3d53193d	0.05153774
120	0x3dbfab9a	0.09358902
121	0xbc928579	-0.01788591
122	0x3dc2f10d	0.09518633
123	0x3e058d91	0.13042285
124	0x3c8223ff	0.015886305
125	0xbc1c4463	-0.009537789
126	0x3d9ef77f	0.0776205
127	0xbe19d100	-0.15021133
128	0xbedf0731	-0.43560174
129	0xbb19455a	-0.0023387284
130	0x3dc4ac08	0.09603125
131	0x3e1f1a39	0.15537347
132	0xbd06d6ba	-0.032919623
133	0x3dcef47a	0.10105224
134	0xbdb69ae9	-0.089162655
135	0xbeccb9fd	-0.39985648
136	0x3e1becfa	0.15227118
137	0x3e1b7dc1	0.1518469
138	0xbb9c63b8	-0.0047726296
139	0xbe1a33c3	-0.15058808
140	0xbdfd7193	-0.12375178
141	0xbe2e9132	-0.17047575
142	0xbe2295f4	-0.15877515
143	0x3e0953d0	0.13410878
144	0x3e902ec7	0.28160688
145	0xbe95996e	-0.2921862
146	0x3dcd6b22	0.100301996
147	0x3dc599c3	0.09648468
148	0x3e5df934	0.21677095
149	0x3e7270fb	0.23675911
150	0x3dbdd0f5	0.09268371
151	0xbd9f1994	-0.077685505
152	0xbe6ae480	-0.22938728
153	0xbe5d9a45	-0.2164088
154	0xba26b23c	-0.00063589565
155	0xbe1159da	-0.14194432
156	0x3d434f74	0.047683194
157	0x3e163d32	0.14671782
158	0x3e1d87f6	0.15383896
159	0x3e1cdf2c	0.15319508
160	0xbe46d9b8	-0.1941899
161	0x3d7387f1	0.059455816
162	0xbb226482	-0.0024779146
163	0xbc9d2440	-0.019182324
164	0xbe796ab5	-0.24357112
165	0xbdf85bc0	-0.12126875
166	0x3cb94134	0.0226141
167	0xbe010e30	-0.12603068
168	0x3c94745f	0.018121896
169	0xbe4888cc	-0.19583434

fc1.bias f4 [10]
0	0x3e6d44fa	0.23170844
1	0x3e0da1a7	0.13831197
2	0x3dc7cc48	0.097557604
3	0xbe032df1	-0.12810494
4	0xbe0ed7a8	-0.13949454
5	0xbd12ed60	-0.03587091
6	0x3e457af8	0.1928519
7	0xbcb04176	-0.02151559
8	0xbdfc9ee1	-0.12334991
9	0xbe099e6b	-0.13439338

fc2.weight f4 [10, 10]
0	0x3cfe0664	0.031008907
1	0x3d16e6ea	0.03684131
2	0x3e2358b8	0.15951812
3	0x3e0aba63	0.13547663
4	0xbe435402	-0.19075015
5	0x3c7d31e7	0.015453792
6	0x3d9a9856	0.07548587
7	0x3e545f15	0.20739396
8	0x3e725776	0.23666176
9	0x3e83c84d	0.25738755
10	0x3e29cded	0.1658246
11	0x3e824e55	0.25450388
12	0xbdbdc51e	-0.09266113
13	0xbe2e67a4	-0.17031723
14	0x3eba7c23	0.36422834
15	0x3e1950cf	0.14972232
16	0x3c995bde	0.018720564
17	0xbd9114f2	-0.07084073
18	0x3ea61b20	0.3244257
19	0xbe122972	-0.14273623
20	0x3d0aa3d9	0.033847664
21	0xbe4a547e	-0.19758794
22	0x3d8aa982	0.06770612
23	0x3e9d1548	0.306803
24	0xbe81307a	-0.25232297
25	0xbdc9d97a	-0.098559335
26	0xbd3d83f5	-0.046268422
27	0x3e8840a5	0.2661182
28	0x3e47998e	0.1949217
29	0xbe86da8d	-0.26338616
30	0xbe3e768a	-0.18599907
31	0x3e1bc1a4	0.15210587
32	0xbea6b608	-0.32560754
33	0xbe81dd18	-0.25363994
34	0xbcef5604	-0.02921582
35	0x3e4969e6	0.19669303
36	0x3e12218a	0.14270607
37	0xbe637ea9	-0.22216286
38	0xbe036d02	-0.12834552
39	0x3ddcc794	0.10780254
40	0x3e8c5b46	0.27413386
41	0x3e7fe5eb	0.2499005
42	0x3e49f252	0.19721344
43	0x3e1b52f6	0.15168366
44	0xbe2c8037	-0.16845785
45	0xbe241b50	-0.16026044
46	0x3e108aad	0.141154
47	0xbc873cf5	-0.016508559
48	0xbea5de81	-0.3239632
49	0x3e960fd6	0.29308957
50	0xbe4a3034	-0.1974495
51	0xbdf1359f	-0.117778055
52	0xbe1571bb	-0.14594166
53	0x3e2c0304	0.16798025
54	0x3deac196	0.11462705
55	0x3d558f8b	0.052138846
56	0xbe95464b	-0.29155192
57	0x3b2a415d	0.00259789
58	0xbdac8239	-0.084232755
59	0x3c3acf80	0.011402011
60	0x3e8acc8b	0.2710918
61	0x3d662252	0.056185074
62	0xbe733523	-0.23750739
63	0xbe5a1f48	-0.21300995
64	0x3ec5eb0a	0.38655883
65	0x3d5b6799	0.053565595
66	0xbe5a97ad	-0.21346922
67	0x3e65b9ac	0.2243411
68	0x3c699e43	0.014258924
69	0x3e81473b	0.25249657
70	0xbeadd0ac	-0.33948267
71	0xbe28d6c7	-0.16488181
72	0xbe3aef6e	-0.18255398
73	0x3dd50606	0.104015395
74	0x3d35ea0e	0.044412665
75	0x3b45fcc0	0.0030210465
76	0x3e753f1e	0.23949859
77	0xbe633b50	-0.22190595
78	0x3e52a27b	0.20569794
79	0xbe49ac3f	-0.19694613
80	0x3e383acc	0.17991179
81	0xbee440bb	-0.44580635
82	0xbe57b7ed	-0.21066256
83	0x3d8fe594	0.070262104
84	0xbdb7ae63	-0.089688085
85	0x3e326f7e	0.17425343
86	0xbe4ff45d	-0.20308061
87	0x3e8673c6	0.26260203
88	0x3e2f0919	0.17093314
89	0x3e5c01c6	0.21485052
90	0xbe7a5090	-0.24444795
91	0x3d504448	0.050846368
92	0xbe539726	-0.20663127
93	0xbe42ec79	-0.1903552
94	0xbe3169ed	-0.17325564
95	0xbe89c449	-0.26907566
96	0xbe996f76	-0.2996785
97	0x3e84b011	0.25915578
98	0xbe9149bf	-0.28376576
99	0xbe5bb644	-0.21456248

fc2.bias f4 [10]
0	0xbd9b42b0	-0.07581079
1	0xbc91602f	-0.01774606
2	0xbd432abe	-0.047648184
3	0x3e79c11a	0.24390069
4	0x3e7e238d	0.24818249
5	0xbdd12c1c	-0.10213491
6	0x3e1c8cbe	0.15288064
7	0xbd2417cd	-0.04006176
8	0x3e1f4543	0.15553765
9	0x3c6bbb20	0.014387876

fc3.weight f4 [17, 10]
0	0x3e6a5fa0	0.2288804
1	0x3bb20f56	0.005433957
2	0xbea5a961	-0.32355788
3	0x3dab33eb	0.08359512
4	0xbebe73a7	-0.3719761
5	0xbdac148f	-0.08402359
6	0x3dc78d56	0.097437546
7	0x3dea2f25	0.11434773
8	0x3e002c99	0.12517013
9	0x3e0f1022	0.13970998
10	0xbe2954b5	-0.1653622
11	0x3ee493c1	0.44643977
12	0xbeb1d399	-0.3473175
13	0x3e153310	0.1457026
14	0x3e6fa036	0.2340096
15	0x3db4775c	0.088118285
16	0x3d7ed47d	0.062214363
17	0xbdbc95d9	-0.09208269
18	0xbd9a983f	-0.0754857
19	0x3e21a2ac	0.1578471
20	0x3eaa8003	0.3330079
21	0x3ccc6d35	0.024954418
22	0x3eace17a	0.33765775
23	0x3dc9e2ad	0.09857688
24	0x3bd2c418	0.0064320676
25	0xbd6d19e9	-0.057886038
26	0xbc3b8393	-0.011444944
27	0xbe188769	-0.14895405
28	0x3e77db2e	0.24204704
29	0xbe982b67	-0.29720613
30	0x3e9d2050	0.30688715
31	0x3e3d973c	0.18514723
32	0x3d3d9f24	0.046294346
33	0x3e588bb6	0.21147045
34	0xbd7325fe	-0.059362404
35	0xbbac733d	-0.005262761
36	0x3df55aec	0.119802326
37	0xbe4f9596	-0.20271906
38	0xbd85aef0	-0.06527507
39	0xbe8679d0	-0.2626481
40	0xbe2b04f1	-0.16701104
41	0xbea291d0	-0.3175187
42	0xbe44e0ea	-0.19226423
43	0xbe9c442e	-0.30520767
44	0x3dd8ca65	0.10585479
45	0x3dbb478c	0.09144506
46	0xbe9d7601	-0.30754092
47	0x3d2a6860	0.041603446
48	0xbe091ee8	-0.13390696
49	0xbb130400	-0.0022432804
50	0xbd8dd22d	-0.069248535
51	0xbceb313b	-0.028709998
52	0xbeb5abe9	-0.3548272
53	0x3c5f5ac9	0.013632485
54	0x3e138594	0.14406425
55	0x3e24adae	0.16081879
56	0xbdd29076	-0.1028146
57	0xbd37f4fa	-0.044911362
58	0x3e761e8f	0.24035095
59	0xbe298ec9	-0.16558374
60	0xbd1801d6	-0.037111126
61	0x3d875cb4	0.066094786
62	0xbebdfad1	-0.3710542
63	0x3e174b9d	0.14774938
64	0xbeb5314a	-0.35389167
65	0x3d661c90	0.056179583
66	0x3cc8024a	0.024415154
67	0x3cbf0302	0.023316864
68	0x3ceabe2e	0.028655138
69	0xbe60041d	-0.21876569
70	0x3e4d87b3	0.20071296
71	0xbda7eb2d	-0.08199153
72	0xbddd7abf	-0.108144276
73	0x3d69518b	0.05696253
74	0xbe0c0813	-0.13674955
75	0xbd4621d5	-0.04837211
76	0x3d0c15cb	0.03420047
77	0xbd911c54	-0.07085481
78	0x3dc11a6f	0.0942887
79	0x3aaf2300	0.0013361871
80	0xbe4da88a	-0.20083824
81	0xbd8a88a3	-0.06764343
82	0x3d9d6f85	0.07687286
83	0x3e8b3e6b	0.2719606
84	0xbe54e1e5	-0.20789297
85	0x3d7fdea0	0.06246817
86	0x3d5acbe4	0.0534171
87	0x3d96c207	0.073612265
88	0x3db44c5d	0.08803628
89	0x3e8168b7	0.25275204
90	0x3e2a7f20	0.16650057
91	0xbeba95fc	-0.36442554
92	0x3e75e634	0.24013597
93	0xbd73f6bc	-0.059561476
94	0xbe3c280b	-0.1837465
95	0x3d4dc11b	0.050232988
96	0xbdba30eb	-0.090913616
97	0xbc87a184	-0.016556509
98	0xbe9e3c2b	-0.3090528
99	0x3e9f510f	0.3111653
100	0x3e64fbba	0.22361651
101	0xbdd7a7a8	-0.10530025
102	0xbe03a684	-0.1285649
103	0x3e430cdf	0.19047879
104	0x3e5eeb6a	0.21769491
105	0x3e295262	0.16535333
106	0xbdb85daf	-0.09002244
107	0xbe3da081	-0.18518259
108	0xbd6ee95b	-0.058328014
109	0xbe27bb58	-0.1638006
110	0x3e10de21	0.14147235
111	0xbca3c044	-0.01998914
112	0x3dd02556	0.10163371
113	0x3d6fa0ac	0.058502838
114	0x3e8d9367	0.27651522
115	0x3e916705	0.2839891
116	0xbe2401fc	-0.16016382
117	0xbdd3dc3b	-0.1034474
118	0xbe4bdb6f	-0.19907926
119	0xbe516d5a	-0.2045187
120	0x3dcbfaf8	0.09959978
121	0x3d09592e	0.033532314
122	0xbec4faaf	-0.38472506
123	0xbddd123f	-0.10794496
124	0xbe211b9b	-0.15733187
125	0x3e66a991	0.22525622
126	0x3e23258a	0.15932289
127	0xbdb522bd	-0.088445164
128	0xbe5591cc	-0.20856398
129	0x3dda9f14	0.10674873
130	0x3e34d530	0.1765945
131	0xbcf18e45	-0.029486785
132	0x3e3a0f59	0.18169917
133	0x3e2399f3	0.15976696
134	0xbd4a1bc0	-0.04934287
135	0xbe751e4a	-0.23937336
136	0xbe7a3d06	-0.24437341
137	0xbe91febf	-0.28514668
138	0xbe815a7f	-0.25264356
139	0xbe6df48c	-0.23237818
140	0xbe7fe8e2	-0.24991181
141	0x3c806cea	0.015676934
142	0x3e1ef1bd	0.15521903
143	0xbd42b50d	-0.047535945
144	0xbe120741	-0.1426058
145	0x3e22d7c0	0.15902615
146	0x3cfd6637	0.030932529
147	0xbe86f44d	-0.26358262
148	0x3e0dd20f	0.13849662
149	0x3d0f3db8	0.03497097
150	0x3e69f757	0.22848259
151	0x3ba2cffe	0.0049686423
152	0xbe1c9720	-0.15292025
153	0x3dfc7d5b	0.12328597
154	0x3e45a502	0.19301227
155	0xbe81cdb0	-0.2535224
156	0xbe876316	-0.26442784
157	0x3e864a67	0.2622864
158	0xbe3f49f4	-0.18680555
159	0xbc36bfa0	-0.011154085
160	0xbba6c4cb	-0.0050893775
161	0x3d0e7c3b	0.034786444
162	0xbe3c625d	-0.18396898
163	0xbe473a43	-0.19455819
164	0x3dbc74b7	0.09201949
165	0x3d155518	0.036458105
166	0xbeac5a97	-0.33662865
167	0x3cecefe7	0.028922988
168	0x3d662a7a	0.056192853
169	0x3e55c772	0.20876864

fc3.bias f4 [17]
0	0xbe874ab5	-0.26424184
1	0xbe5a192d	-0.21298666
2	0xbe3982fe	-0.18116376
3	0x3dbec247	0.09314399
4	0x3e95cb39	0.2925661
5	0x3de0c946	0.1097589
6	0x3d1365ee	0.03598588
7	0x3e4453bb	0.19172566
8	0x3e48d771	0.19613434
9	0xbc954ba8	-0.018224552
10	0xbeaa8218	-0.3330238
11	0x3e29360d	0.16524525
12	0x3dd78b7a	0.1052465
13	0xbeabe2bc	-0.33571422
14	0xbe984eda	-0.2974766
15	0xbd840eca	-0.06448133
16	0xbe84de10	-0.2595067
