neuronas/modelo_red_neuronal_convolu_uefa.pth (torch, 15746 bytes, 6 tensors)

fc1.weight f4 [64, 15]
-0.18785107 0.13124287 0.17977613 -0.08234633 -0.08106955 -0.0079467045 0.17149523 -0.1829492
0.2543692 0.046911642 0.24062121 -0.04546089 0.09739341 -0.11676886 -0.26723447 -0.052630432
0.082353234 -0.18062261 -0.21523976 -0.166441 -0.04666421 -0.010230044 -0.011549239 -0.06934661
-0.16073611 0.23648572 -0.16827832 0.028120987 -0.02104239 0.11201172 0.15098482 0.055671185
-0.0022228956 0.1875369 0.183959 -0.074790835 -0.16436693 -0.097925425 -0.22775511 0.20695034
-0.07039611 -0.035344243 -0.2524275 -0.16025186 -0.17848194 -0.19782948 -0.22799367 0.00508173
-0.10758526 0.027206745 0.037285846 -0.22944981 0.13217114 0.23520882 -0.23459476 -0.09857492
-0.043424968 0.079598896 0.21549647 0.16541778 -0.22669388 -0.021406114 0.1409918 0.10856679
0.07626563 -0.01586838 -0.13369365 -0.06884922 -0.25033364 0.09754005 -0.073611826 -0.2411288
0.06779972 0.07988295 -0.08562775 0.01671883 -0.19691785 0.122632116 -0.16491091 -0.0720502
-0.12866254 -0.23337302 0.041677617 0.17193986 0.061409265 0.20393296 0.15681978 0.1251856
-0.0022414615 -0.007727954 -0.22259556 -0.26275265 0.0084252525 0.15773763 -0.0072677163 0.1651887
0.046267208 0.22793983 0.2368456 -0.25403413 -0.22314987 0.22487874 0.2591721 0.17904799
-0.06551099 -0.049800515 0.01537376 -0.17847987 -0.08695081 0.20339641 -0.103082895 -0.08970282
0.13214752 -0.14822686 0.03105624 0.027668465 0.21464923 -0.06479854 0.042508394 -0.22385475
-0.23579772 -0.11502036 -0.036186878 0.122461684 -0.18049164 0.061436463 0.12914433 0.0741164
0.0566722 -0.25241244 0.19291131 -0.11558805 0.07377341 -0.056516785 0.25375387 -0.12482612
0.12355227 -0.18013842 -0.05869604 -0.11207618 0.10220785 -0.23872443 -0.12680462 -0.022189679
0.10490477 0.07201669 0.2477738 0.006518506 0.11956486 -0.16517952 -0.1398192 0.13871603
0.058177628 0.111470506 -0.05957498 -0.04309379 -0.18249132 0.04652389 0.16026625 -0.17013767
0.02972522 0.046442304 0.038392816 -0.08375905 0.17386545 0.13536829 -0.2385547 0.18596502
0.05039308 -0.11203836 0.2336211 -0.23002347 -0.002962143 0.15739301 0.18860348 0.024286695
0.15865315 -0.22842346 -0.14191249 -9.5930474e-05 -0.07192415 -0.22185177 0.14360945 -0.07188477
-0.12561263 0.055042908 -0.12515974 -0.24766427 -0.1795033 -0.028579898 -0.04456219 0.21674295
0.17526756 0.029802376 0.12906009 0.061719198 -0.16814683 0.071932875 0.00035511627 0.18151744
-0.22020955 -0.14994091 -0.051436555 0.25246626 -0.17775361 0.26179764 0.16052051 -0.009631051
-0.04051603 0.2064592 -0.2089192 0.061653554 0.22152969 -0.0970362 -0.12929727 -0.10712963
-0.07196763 -0.2322323 -0.06995064 -0.15840343 -0.13640997 -0.0923056 -0.2159706 0.0077551305
-0.048821107 0.13987464 -0.09379195 0.1435687 0.14335644 0.21169522 -0.02589263 -0.072035894
-0.22032116 -0.18849643 -0.18255532 0.22627297 -0.18700263 -0.0423225 0.11657256 0.25617173
-0.1367676 -0.16575159 -0.016452078 0.01440363 0.23892514 -0.12258037 0.20829229 -0.10935889
0.1023194 -0.014383126 -0.0751238 -0.24940486 0.0020769723 -0.049496528 0.058073983 -0.03615754
00000000: 085c 40be 8864 063e 3c17 383e 31a5 a8bd
00000010: cb07 a6bd e532 02bc 729c 2f3e 0957 3bbe
00000020: ae3c 823e 6c26 403d 6865 763e 3335 3abd
00000030: 3276 c73d 8324 efbd f5d2 88be 0293 57bd
00000040: d0a8 a83d 22f5 38be d067 5cbe 826f 2abe
00000050: f822 3fbd ea9b 27bc 0539 3dbc 9805 8ebd
00000060: 0298 24be 5029 723e 2751 2cbe fc5d e63c
00000070: 1761 acbc 6766 e53d c49b 1a3e 7807 643d
00000080: 00ae 11bb ac09 403e c05f 3c3e f02b 99bd
00000090: ce4f 28be 208d c8bd a338 69be caea 533e
000000a0: d62b 90bd 20c5 10bd 2d3e 81be 1019 24be
000000b0: f8c3 36be d093 4abe 2c77 69be a484 a63b
000000c0: a955 dcbd aee0 de3c 0bb9 183d e4f4 6abe
000000d0: df57 073e 95da 703e 9c39 70be a6e1 c9bd
000000e0: 61de 31bd bf04 a33d 1bab 5c3e 4763 293e
000000f0: 7122 68be e05b afbc 2860 103e 4458 de3d
00000100: 2831 9c3d 68fe 81bc fde6 08be d200 8dbd
00000110: bb2b 80be 14c3 c73d ccc1 96bd 78ea 76be
00000120: 94da 8a3d ac99 a33d 9a5d afbd eef5 883c
00000130: d5a4 49be 8c26 fb3d 68de 28be 0e8f 93bd
00000140: 1dc0 03be 56f9 6ebe 26b6 2a3d 0111 303e
00000150: 4888 7b3d cdd3 503e 5d95 203e a730 003e
00000160: 7ce5 12bb c73a fdbb 17f0 63be 8487 86be
00000170: 120a 0a3c f985 213e 0626 eebb 3a27 293e
00000180: af82 3d3d 0f69 693e a787 723e c310 82be
00000190: 6681 64be 9d46 663e 35b2 843e 5b58 373e
000001a0: a02a 86bd a0fb 4bbd 39e2 7b3c 6dc3 36be
000001b0: 4413 b2bd 2647 503e 201d d3bd 1db6 b7bd
000001c0: ae51 073e c8c8 17be a869 fe3c faa8 e23c
000001d0: 02cd 5b3e 19b5 84bd 481d 2e3d 2e3a 65be
000001e0: f574 71be cb8f ebbd b138 14bd 31cd fa3d
000001f0: cdd2 38be cda4 7b3d 693e 043e 57ca 973d
00000200: 1c21 683d 343c 81be 8b8a 453e 6db9 ecbd
00000210: 8316 973d 257e 67bd 07ec 813e d6a4 ffbd
00000220: f908 fd3d 3576 38be 426b 70bd 3288 e5bd
00000230: 5952 d13d 2d74 74be 12d9 01be 21c7 b5bc
00000240: 50d8 d63d 7d7d 933d 6ab8 7d3e 3199 d53b
00000250: 6cde f43d d224 29be c42c 0fbe 930b 0e3e
00000260: aa4b 6e3d a64a e43d e504 74bd 1d83 30bd
00000270: 01df 3abe d68f 3e3d d61c 243e 9238 2ebe
00000280: 4e82 f33c 493a 3e3d c941 1d3d dd89 abbd
00000290: c909 323e fc9d 0a3e af47 74be 9d6d 3e3e
000002a0: f968 4e3d 5e74 e5bd 5f3a 6f3e 468b 6bbe
000002b0: 8320 42bb a22b 213e 4521 413e e4f4 c63c
000002c0: f975 223e d7e7 69be 8251 11be 482e c9b8
000002d0: f84c 93bd 1c2d 63be 5b0e 133e 5338 93bd
000002e0: 99a0 00be ac74 613d e029 00be b49b 7dbe
000002f0: b7cf 37be 6420 eabc d886 36bd ddf1 5d3e
00000300: 5779 333e 1d24 f43c 5428 043e 45cd 7c3d
00000310: af2e 2cbe 8b51 933d e62e ba39 b5df 393e
00000320: 9d7e 61be 1c8a 19be 23af 52bd 4243 813e
00000330: 0b05 36be 570a 863e 7d5f 243e 8ecb 1dbc
00000340: 23f4 25bd 0a6a 533e eaee 55be 7088 7c3d
00000350: aed8 623e eaba c6bd 8166 04be c866 dbbd
00000360: c463 93bd 4ece 6dbe 4842 8fbd 8234 22be
00000370: 0eaf 0bbe b80a bdbd 6627 5dbe c01e fe3b
00000380: a4f8 47bd 4c3b 0f3e fe15 c0bd ac03 133e
00000390: 08cc 123e a2c6 583e c81c d4bc 8e87 93bd
000003a0: df9b 61be 3505 41be c8ef 3abe 1ab4 673e
000003b0: 9e7d 3fbe 5c5a 2dbd 98bd ee3d f128 833e
000003c0: ce0c 0cbe c9ba 29be 82c6 86bc 34fd 6b3c
000003d0: cba8 743e 6b0b fbbd 934a 553e 8ef7 dfbd
000003e0: d58c d13d 34a7 6bbc 82da 99bd fd63 7fbe
000003f0: d01d 083b dfbc 4abd fcde 6d3d ee19 14bd

fc1.bias f4 [64]
-0.17161384 0.19683982 -0.0013137758 0.13682817 0.23280582 -0.17596793 0.0456804 -0.09241523
-0.13103458 -0.20832928 0.07717082 -0.031166105 -0.18593276 -0.050214212 -0.22048843 0.04114011
-0.14487307 -0.0632437 0.21202649 0.27011818 0.1659591 0.2531597 0.0294184 -0.036995295
-0.24756728 0.00089139445 0.20929678 -0.063215196 -0.038441036 0.0810369 0.17235337 0.032628503
-0.09239653 0.048482187 -0.06431687 -0.11535094 -0.124032356 -0.019216694 -0.11108862 -0.13567805
-0.06600896 -0.037767656 0.076629125 -0.12882309 0.13036329 -0.25097674 -0.2465826 -0.0396869
-0.1142311 0.23033032 -0.076261975 0.047193408 -0.18328248 -0.2403829 -0.095559254 0.03979949
-0.1430144 0.16357312 -0.17824239 -0.116379015 -0.011493817 -0.039014608 -0.26058808 0.0369366
00000000: 8abb 2fbe 6190 493e 0033 acba af1c 0c3e
00000010: a664 6e3e f030 34be 5f1b 3b3d 3244 bdbd
00000020: ee2d 06be 4554 55be bc0b 9e3d 0f50 ffbc
00000030: 2865 3ebe 6bad 4dbd b8c7 61be 8882 283d
00000040: 9b59 14be ea85 81bd 791d 593e ee4c 8a3e
00000050: 2ff1 293e 269e 813e dbfe f03c 6188 17bd
00000060: 4782 7dbe 78ac 693a e551 563e f876 81bd
00000070: 5974 1dbd adf6 a53d 677d 303e 77a5 053d
00000080: 643a bdbd 4295 463d 90b8 83bd 1d3d ecbd
00000090: ad04 febd 546c 9dbc 6e82 e3bd 30ef 0abe
000000a0: b52f 87bd 42b2 1abd bbef 9c3d 33ea 03be
000000b0: f47d 053e 0680 80be 2680 7cbe bb8e 22bd
000000c0: fff1 e9bd b6db 6b3e 3d2f 9cbd e04d 413d
000000d0: 67ae 3bbe ef26 76be 92b4 c3bd ca04 233d
000000e0: 5e72 12be b67f 273e 2c85 36be 1f58 eebd
000000f0: 9050 3cbc c8cd 1fbd cd6b 85be d54a 173d

fc2.weight f4 [32, 64]
-0.0065153353 0.026234945 -0.07093102 0.053788107 -0.088360146 -0.028181147 0.100629985 -0.004873006
0.12876363 -0.041530337 0.075581916 0.05105858 0.0027236391 0.05540192 -0.020961672 0.038507625
-0.045937635 -0.094624594 -0.04672941 -0.06826242 0.095255874 0.08032739 0.059620023 -0.111419566
-0.07212565 0.05937251 -0.07195765 0.095000945 -0.011262741 0.08219773 0.016919693 -0.12438076
-0.103410766 0.028951291 -0.04920107 -0.019739876 0.084084146 0.031677123 -0.10737142 0.113509186
-0.04093116 -0.037073344 -0.06935852 0.0044529573 0.01422485 -0.10094375 -0.091435716 -0.04007187
0.064020924 -0.05177261 -0.06536412 0.008725678 -0.09366523 -0.06603985 0.086554095 0.077093
-0.03699521 0.045477837 0.08475062 0.005697962 -0.08632366 0.06122531 -0.043534383 0.080801666
0.042970702 0.075392626 0.036759436 -0.12730604 -0.0018739849 0.049012907 0.07571621 -0.03630477
-0.09059785 -0.10832884 0.07161777 -0.115456015 -0.041585203 0.023049815 0.06257397 -0.025058955
0.043264683 0.065382555 -0.0022945702 0.032020018 -0.12883951 -0.046576336 -0.107136264 0.07277929
-0.09506879 0.07517613 -0.03855402 0.12005456 -0.055371366 -0.029241422 -0.094879806 0.0063735396
-0.03645815 -0.09759334 0.07566607 0.11226696 -0.018893167 -0.0981587 -0.019105092 0.11732209
0.032094732 0.05873701 0.113504216 -0.027054118 -0.058529597 -0.076672204 0.04530956 -0.044810828
-0.12671956 0.107211515 0.014895245 -0.12989117 0.04843302 0.08814793 -0.1273966 -0.08600584
-0.013079569 0.07069342 0.04180336 0.097026125 0.035166502 -0.033428058 0.08580346 -0.01170183
0.021641852 -0.12727281 -0.10720125 -0.13031226 0.029164344 0.089034356 0.07149813 0.0039502825
-0.09144548 -0.015684659 0.030140596 -0.046443027 0.10568123 0.06571599 0.089869425 -0.095661595
0.07523466 -0.100950986 -0.09799224 -0.02583297 -0.09037905 0.007153711 -0.06326242 0.02282288
0.105547324 -0.029368417 0.03140294 0.05216595 0.07752715 0.10078275 -0.09320974 -0.039693493
0.054752395 -0.10326299 0.021387264 -0.1344475 -0.01669026 0.14043969 -0.095270604 0.081084624
-0.053190343 0.08220338 0.13095532 0.061722428 0.040707387 0.0077367867 0.11530426 0.11011307
0.09241374 0.07305555 0.055885177 -0.028419953 -0.017110994 -0.045121018 -0.11553469 -0.09663343
-0.0938965 0.09653488 -0.09137523 -0.013915507 -0.010385156 -0.10264911 0.06820985 0.104622036
-0.11309248 -0.085806206 -0.10248436 -0.021477476 0.08640468 0.054410055 0.09364453 -0.10433474
-0.123732984 0.03875637 0.023328736 0.05427195 -0.07996231 0.038851276 -0.10533042 -0.111581445
0.06795859 0.027834699 0.008930281 -0.057033613 -0.060641915 -0.0139684975 0.032641634 0.043308035
0.004977733 -0.017770842 0.023523375 -0.008358642 0.011324674 0.031906053 -0.06778191 0.0012008995
-0.03844759 0.06401038 0.03840901 0.09734979 -0.002789259 0.010488018 -0.046012655 0.05995111
-0.11379796 -0.022473305 -0.07676867 -0.04111451 -0.07159138 0.018670425 0.03154476 -0.0901037
-0.10758981 0.11624798 -0.05531317 0.059568822 -0.05096203 -0.060711786 -0.06616786 -0.11612998
-0.018042535 -0.035482958 -0.069753796 0.083162814 0.11112258 -0.028030276 -0.102702096 -0.068783954
00000000: 987e d5bb abea d63c 4844 91bd eb50 5c3d
00000010: 2af6 b4bd 26dc e6bc 1817 ce3d bdad 9fbb
00000020: 9dda 033e b71b 2abd b1ca 9a3d cd22 513d
00000030: 157f 323b 20ed 623d d0b7 abbc 2cba 1d3d
00000040: 1a29 3cbd 8aca c1bd 5667 3fbd 2bcd 8bbd
00000050: 8315 c33d b082 a43d 2034 743d f12f e4bd
00000060: 9db6 93bd 9730 733d 885e 93bd db8f c23d
00000070: 5c87 38bc 4957 a83d 2b9b 8a3c 57bb febd
00000080: 06c9 d3bd 422b ed3c 1087 49bd 85b5 a1bc
00000090: 4f34 ac3d dfbf 013d 8ce5 dbbd 8177 e83d
000000a0: 6fa7 27bd 38da 17bd d70b 8ebd 1dea 913b
000000b0: 580f 693c 99bb cebd a642 bbbd 6722 24bd
000000c0: 671d 833d 840f 54bd a0dd 85bd 25f6 0e3c
000000d0: 8ed3 bfbd e73f 87bd 4643 b13d efe2 9d3d
000000e0: 4a88 17bd f846 3a3d bc91 ad3d f8b5 ba3b
000000f0: 76ca b0bd 64c7 7a3d 1c51 32bd 587b a53d
00000100: 0c02 303d 7367 9a3d 1091 163d 845c 02be
00000110: 80a0 f5ba c2c1 483d 1a11 9b3d 4fb4 14bd
00000120: 5e8b b9bd 83db ddbd 56ac 923d 3474 ecbd
00000130: 3f55 2abd f7d2 bc3c c826 803d 7048 cdbc
00000140: 4f36 313d 4ae7 853d 8060 16bb 6c27 033d
00000150: 81ee 03be d4c6 3ebd 426a dbbd 4f0d 953d
00000160: 6db3 c2bd f1f5 993d d2ea 1dbd 2adf f53d
00000170: 16cd 62bd b58b efbc 5850 c2bd 20d9 d03b
00000180: 2455 15bd 04df c7bd d0f6 9a3d 38ec e53d
00000190: d8c5 9abc 6e07 c9bd 4882 9cbc 9046 f03d
000001a0: c475 033d 3896 703d e674 e83d 99a0 ddbc
000001b0: bbbc 6fbd 5106 9dbd 8496 393d 8f8b 37bd
000001c0: c6c2 01be b691 db3d 300b 743c 3102 05be
000001d0: b461 463d e786 b43d 4174 02be d423 b0bd
000001e0: b04b 56bc b6c7 903d 003a 2b3d a2b5 c63d
000001f0: c00a 103d dceb 08bd b9b9 af3d 08b9 3fbc
00000200: 414a b13c ce53 02be 548c dbbd 9470 05be
00000210: 10ea ee3c a557 b63d 9d6d 923d 5f71 813b
00000220: c547 bbbd 1d7d 80bc 69e9 f63c 0b3b 3ebd
00000230: 676f d83d 1b96 863d 760d b83d 3aea c3bd
00000240: a114 9a3d 64bf cebd 28b0 c8bd aa9f d3bc
00000250: a718 b9bd ad69 ea3b ba8f 81bd 0cf7 ba3c
00000260: 3229 d83d 0996 f0bc 5fa0 003d f7ab 553d
00000270: 8ec6 9e3d 3067 ce3d c0e4 bebd a595 22bd
00000280: 0c44 603d 8c7b d3bd 5834 af3c 9bac 09be
00000290: 03ba 88bc 6ccf 0f3e 3c1d c3bd b20f a63d
000002a0: 1ede 59bd 3f5a a83d 2719 063e a8d0 7c3d
000002b0: cabc 263d df84 fd3b a424 ec3d f682 e13d
000002c0: 6a43 bd3d 269e 953d dbe7 643d f6d0 e8bc
000002d0: 5b2c 8cbc d1d0 38bd 749d ecbd bfe7 c5bd
000002e0: cf4c c0bd 14b4 c53d f022 bbbd defd 63bc
000002f0: 8026 2abc b239 d2bd 9bb1 8b3d 1444 d63d
00000300: 089d e7bd 2abb afbd 52e3 d1bd 88f1 afbc
00000310: f0f4 b03d 14dd 5e3d b4c8 bf3d 74ad d5bd
00000320: b867 fdbd 00bf 1e3d e81b bf3c 444c 5e3d
00000330: 48c3 a3bd 8422 1f3d 7ab7 d7bd d084 e4bd
00000340: e02d 8b3d 9805 e43c 5050 123c 149c 69bd
00000350: a863 78bd 20dc 64bc 3cb3 053d c463 313d
00000360: 401c a33b 2894 91bc 18b4 c03c b0f2 08bc
00000370: 208b 393c ecaf 023d 3ed1 8abd 8067 9d3a
00000380: 387b 1dbd e017 833d c452 1d3d 545f c73d
00000390: 00cc 36bb f0d5 2b3c c477 3cbd 4c8f 753d
000003a0: e80e e9bd f019 b8bc e438 9dbd b067 28bd
000003b0: 809e 92bd b8f2 983c 1435 013d 4a88 b8bd
000003c0: 0c58 dcbd 6c13 ee3d 1090 62bd 70fe 733d
000003d0: 90bd 50bd ecac 78bd 0483 87bd 8ed5 edbd
000003e0: f0cd 93bc 9456 11bd 14db 8ebd 4451 aa3d
000003f0: 3c94 e33d c09f e5bc 7a55 d2bd 9ade 8cbd

fc2.bias f4 [32]
-0.07501013 0.06474339 -0.08354739 -0.034137785 -0.0768837 -0.0768354 0.09392568 0.006918607
0.01709224 -0.06264987 0.100245476 -0.08256391 0.023420773 -0.09978605 0.07481883 0.029499078
-0.059106015 0.004243987 0.07924489 -0.13201746 0.11747246 0.11470874 0.027127685 0.051336814
0.09510589 -0.08457047 -0.007385578 0.11961398 -0.025172058 -0.019897489 0.09230736 -0.013305243
00000000: e99e 99bd 2f98 843d e51a abbd 10d4 0bbd
00000010: 3475 9dbd e15b 9dbd 1b5c c03d 7bb5 e23b
00000020: 0605 8c3c 934e 80bd 804d cd3d 4417 a9bd
00000030: ecdc bf3c a15c ccbd 9d3a 993d 0da8 f13c
00000040: 2619 72bd 2511 8b3b 254b a23d 962f 07be
00000050: 6795 f03d 6aec ea3d e13a de3c 8d46 523d
00000060: e0c6 c23d 4833 adbd b802 f2bb 2df8 f43d
00000070: a235 cebc 0f00 a3bc a40b bd3d 3cfe 59bc

fc3.weight f4 [3, 32]
-0.059043065 -0.07936989 -0.046674352 -0.03125952 -0.1326517 -0.113447964 -0.055043228 -0.13636152
0.107234664 -0.011493037 -0.10904405 -0.09914228 0.021242559 0.024604626 -0.118098386 -0.10427042
0.03529627 -0.0021473696 -0.15982169 0.044108786 0.13990445 -0.04535696 -0.14396946 0.1664622
-0.15622309 0.018168304 0.15322903 0.03140735 0.0017118005 -0.1635261 -0.016035289 -0.03257339
0.11950242 0.033463743 -0.108330205 0.14743067 0.0046803057 0.15440017 0.10649282 0.17055638
0.10264699 0.14698562 0.11122416 0.016558334 -0.10338179 0.1640807 0.109989196 0.040719353
-0.05535516 0.10485364 0.09526059 0.0644146 0.05522743 0.05485483 -0.1572574 -0.17561847
0.095704705 -0.052014865 -0.15097006 0.11014199 -0.15209042 0.1455357 0.14281364 0.14575781
0.039467514 0.1539212 -0.05733921 -0.06791737 0.12767561 0.11294478 -0.016213614 0.16047487
-0.021316849 -0.05491965 -0.09015335 0.16650377 0.02031728 -0.06078102 -0.054072533 0.07671979
-0.08490931 -0.05539481 -0.13943456 0.097234264 -0.060320698 0.00701624 0.0674494 -0.07081141
-0.03614296 -0.16182534 0.10796301 -0.024968693 0.098170824 0.0949435 0.16857485 -0.031072278
00000000: 24d7 71bd ae8c a2bd 9b2d 3fbd fc09 00bd
00000010: d9d5 07be 6857 e8bd 0275 61bd 5ba2 0bbe
00000020: d99d db3d 4b4d 3cbc 7d52 dfbd 1c0b cbbd
00000030: e004 ae3c a48f c93c 91dd f1bd bb8b d5bd
00000040: d292 103d e2ba 0cbb 4ca8 23be 6aab 343d
00000050: 1d43 0f3e 38c8 39bd bb6c 13be 1175 2a3e
00000060: f2f8 1fbe b2d5 943c 12e8 1c3e fea4 003d
00000070: 7e5e e03a 6373 27be 705c 83bc ad6b 05bd
00000080: afbd f43d 4711 093d 3adc ddbd 11f8 163e
00000090: 405d 993b 141b 1e3e e818 da3d 55a6 2e3e
000000a0: 9638 d23d 6683 163e 7ec9 e33d 58a5 873c
000000b0: d5b9 d3bd c504 283e 0442 e13d 56c9 263d
000000c0: 18bc 62bd 81bd d63d fc17 c33d cdeb 833d
000000d0: 2836 623d 75af 603d 1508 21be 54d5 33be
000000e0: d400 c43d 8a0d 55bd e597 1abe 2092 e13d
000000f0: 97bd 1bbe 4f07 153e bd3d 123e 8941 153e
00000100: b0a8 213d 859d 1d3e 85dc 6abd 4318 8bbd
00000110: 65bd 023e 984f e73d 6ad2 84bc 8653 243e
00000120: aca0 aebc 6df3 60bd 52a2 b8bd f77f 2a3e
00000130: 6d70 a63c 85f5 78bd 297b 5dbd 441f 9d3d
00000140: efe4 adbd abe5 62bd efc7 0ebe c222 c73d
00000150: d612 77bd 7de8 e53b e922 8a3d 9305 91bd
00000160: a40a 14bd 8bb5 25be b61b dd3d 258b ccbc
00000170: c90d c93d bd71 c23d e39e 2c3e 4a8b febc

fc3.bias f4 [3]
-0.02550362 0.03696572 0.032302372
00000000: f8ec d0bc 5e69 173d 7e4f 043d
