neuronas/modelo_red_neuronal_prof_uefa.pth (torch, 4516 bytes, 6 tensors)

fc1.weight f4 [10, 15]
-0.007845481 0.13850912 -0.21842179 -0.19593106 -0.10535876 0.0633256 -0.011028132 0.19881073
-0.028826002 0.07423501 -0.07803108 -0.05666535 -0.2525822 -0.16508806 -0.11234776 0.013490216
0.04724602 0.1262473 -0.22177817 -0.13695633 0.08567812 0.17675051 -0.054825228 0.15086433
-0.17970191 -0.046684373 0.2230652 -0.12428101 -0.48044768 -0.061694708 -0.1683547 0.22308403
-0.23185591 -0.16845515 -0.23269707 -0.31032968 -0.20178704 0.15425454 0.06350562 0.1978122
0.013579071 -0.20035623 -0.041324727 -0.15459533 -0.26997617 -0.17879422 0.11945621 0.10620752
-0.15829858 -0.051742375 0.117315695 0.21226183 0.057046503 -0.008733523 0.14597994 -0.1860503
0.025520628 -0.22453718 -0.16317244 -0.15543629 0.13044207 0.096797064 -0.13854793 0.09366701
0.14873792 -0.015971128 0.019267926 0.057980802 0.1742807 0.2802955 -0.16876362 -0.01758459
0.15297243 0.36870316 0.3886129 0.26001668 0.12384477 -0.17776278 0.081445254 -0.12625507
-0.20138027 0.27756736 0.22396396 -0.20423506 0.16065107 0.023547739 0.11672229 -0.014512978
0.4785929 0.15781873 0.15877342 0.034569617 0.17013171 0.036764197 -0.2459014 -0.13052912
0.09421225 0.11616739 -0.24785446 -0.33976755 0.16631752 0.109622434 0.052431263 -0.4479716
-0.32804847 0.023544583 -0.15149967 -0.16458404 0.023712449 0.062837906 -0.06948856 0.18672119
-0.13153976 0.26963145 0.2239554 -0.18151735 0.012792362 0.051438082 0.20182076 0.39991528
0.10132456 0.015466154 -0.12598266 0.122176886 -0.247677 -0.1530362 -0.06463489 -0.12577213
-0.09032659 -0.2116254 -0.05492282 0.055191666 -0.16820773 -0.013250604 0.18483189 -0.0507959
-0.0032785912 -0.056380328 0.018068878 0.12854107 0.21174076 0.13082248 0.21422091 -0.053225994
-0.2488339 -0.14061914 0.20874608 0.03921125 -0.1726791 -0.156131
00000000: 558a 00bc 56d5 0d3e f6a9 5fbe 27a2 48be
00000010: 55c6 d7bd dab0 813d 57af 34bc 0a95 4b3e
00000020: 8224 ecbc 8608 983d c2ce 9fbd ed19 68bd
00000030: 7452 81be d80c 29be 9516 e6bd 1106 5d3c
00000040: 0b85 413d f946 013e d119 63be 483e 0cbe
00000050: 0378 af3d 16fe 343e 6b90 60bd 2e7c 1a3e
00000060: c703 38be 1d38 3fbd 346b 643e 0b87 febd
00000070: 3dfd f5be 97b3 7cbd 2d65 2cbe 2470 643e
00000080: a36b 6dbe 827f 2cbe 2448 6ebe 88e3 9ebe
00000090: 43a1 4ebe e7f4 1d3e 3c0f 823d 488f 4a3e
000000a0: c07a 5e3c 2f2a 4dbe 1e44 29bd 3d4e 1ebe
000000b0: 513a 8abe d515 37be 75a5 f43d 5483 d93d
000000c0: 0619 22be d0ef 53bd 3643 f03d 2a5b 593e
000000d0: 98a9 693d 0d17 0fbc c47b 153e f883 3ebe
000000e0: a310 d13c 13ed 65be ad16 27be b12a 1fbe
000000f0: 9b92 053e 8a3d c63d 82df 0dbe 7dd4 bf3d
00000100: c14e 183e e2d5 82bc c5d7 9d3c 477d 6d3d
00000110: a476 323e e482 8f3e 5fd0 2cbe 8f0d 90bc
00000120: cea4 1c3e a9c6 bc3e 45f8 c63e e820 853e
00000130: 54a2 fd3d 7207 36be c5cc a63d 0249 01be
00000140: a136 4ebe 4f1d 8e3e cf56 653e ff22 51be
00000150: b781 243e 30e7 c03c 190c ef3d d7c7 6dbc
00000160: 210a f53e 3c9b 213e 8095 223e df98 0d3d
00000170: 0237 2e3e 0e96 163d 94cd 7bbe 6da9 05be
00000180: 5af2 c03d 2be9 ed3d 8fcd 7dbe 03f6 adbe
00000190: 244f 2a3e ba81 e03d 2ac2 563d 895c e5be
000001a0: f8f5 a7be 92e0 c03c bb22 1bbe b888 28be
000001b0: 9c40 c23c 29b1 803d 0550 8ebd d733 3f3e
000001c0: 5cb2 06be 220d 8a3e 9054 653e afdf 39be
000001d0: 0e97 513c bdb0 523d 1aaa 4e3e b2c1 cc3e
000001e0: 4083 cf3d c065 7d3c 9901 01be e037 fa3d
000001f0: 0a9f 7dbe 86b5 1cbe 4c5f 84bd 69ca 00be
00000200: 26fd b8bd 54b4 58be c0f6 60bd a810 623d
00000210: a63e 2cbe 1019 59bc 9244 3d3e 5d0f 50bd
00000220: a2dd 56bb 0fef 66bd 2f05 943c 45a0 033e
00000230: 92d2 583e 54f6 053e ba5c 5b3e 8003 5abd
00000240: 50ce 7ebe 77fe 0fbe 88c1 553e fa9b 203d
00000250: cad2 30be cee0 1fbe

fc1.bias f4 [10]
-0.24754818 -0.15372719 -0.13578334 0.118013844 0.20530716 -0.1161949 0.23711537 -0.1422796
-0.054585904 -0.06588398
00000000: 457d 7dbe a96a 1dbe ca0a 0bbe 3eb1 f13d
00000010: 0a3c 523e 97f7 edbd 5fce 723e beb1 11be
00000020: 7895 5fbd 2eee 86bd

fc2.weight f4 [10, 10]
-0.060910285 -0.03513606 -0.28376698 -0.15921795 0.18015538 0.12498039 -0.16941446 0.32807824
-0.28462344 0.038342413 0.27809682 -0.18893178 0.32882833 0.11452308 -0.15247841 0.31663904
-0.041611932 -0.1506322 0.25287256 -0.20992936 0.027969724 -0.089585334 0.1675767 0.07847664
0.20783499 0.14575215 -0.1603021 -0.014003785 -0.26059744 0.12013818 0.25107792 0.18490924
-0.24445452 -0.016977526 -0.25060633 -0.20887172 -0.21462913 0.07583197 -0.18844429 -0.038956277
0.019147174 0.30424023 -0.037562754 -0.2147125 -0.24580085 0.176289 0.17472214 0.22062612
0.11435035 0.17221172 -0.002353996 -0.0625124 0.03967595 -0.072208926 -0.002221942 0.04034847
-0.24735497 -0.1657449 0.25535163 -0.25663358 -0.022707105 0.2823928 0.07763562 -0.021043811
-0.29644245 0.122193746 -0.25929037 -0.11481132 -0.106099576 -0.08207868 -0.0025646451 0.2482399
0.010788114 0.21616685 0.08122785 -0.34056315 0.25642532 -0.3396163 -0.13402528 0.08156956
0.09909991 0.2514122 -0.0955121 -0.020689359 0.13566624 -0.27400616 0.31027833 -0.2833655
0.004358411 -0.0503062 -0.16654861 0.09877385 0.2088315 -0.09243955 -0.18774256 -0.11695331
-0.31213 0.07232496 -0.15187272 -0.2548847
00000000: 107d 79bd d4ea 0fbd e849 91be 080a 23be
00000010: a77a 383e b8f5 ff3d fc7a 2dbe dff9 a73e
00000020: 2aba 91be ef0c 1d3d b562 8e3e 5577 41be
00000030: 305c a83e 148b ea3d 4d23 1cbe 831e a23e
00000040: 4671 2abd 543f 1abe 8378 813e b9f7 56be
00000050: c320 e53c 8478 b7bd 3a99 2b3e 5cb8 a03d
00000060: b2d2 543e 0d40 153e 3c26 24be 2270 65bc
00000070: 076d 85be 020b f63d 498d 803e d958 3d3e
00000080: 4952 7abe 7414 8bbc 794f 80be 78e2 55be
00000090: bdc7 5bbe cb4d 9b3d 8af7 40be 9e90 1fbd
000000a0: 89da 9c3c 60c5 9b3e 67db 19bd 98dd 5bbe
000000b0: 38b3 7bbe 1b85 343e 5cea 323e d0eb 613e
000000c0: 8430 ea3d 4558 303e 8045 1abb 8006 80bd
000000d0: 4083 223d 46e2 93bd 009e 11bb 7044 253d
000000e0: 9f4a 7dbe 08b9 29be 73bd 823e 7a65 83be
000000f0: 4004 babc ca95 903e 6dff 9e3d 1264 acbc
00000100: 4ec7 97be b740 fa3d b5c1 84be 3322 ebbd
00000110: bc4a d9bd de18 a8bd 9b13 28bb 9a32 7e3e
00000120: a1c0 303c d85a 5d3e c95a a63d 4b5e aebe
00000130: 2e4a 833e 30e2 adbe ec3d 09be f10d a73d
00000140: e5f4 ca3d 1ab9 803e d99b c3bd bb7c a9bc
00000150: 17ec 0a3e 894a 8cbe cddc 9e3e 4815 91be
00000160: 00d1 8e3b e00d 4ebd b88b 2abe f249 ca3d
00000170: edd7 553e f250 bdbd 963f 40be 3885 efbd
00000180: 81cf 9fbe 1c1f 943d 8684 1bbe 3f80 82be

fc2.bias f4 [10]
0.040944487 0.23873264 0.1296949 0.20474622 0.32144716 -0.10560733 -0.1288486 0.1064289
0.25934812 0.024223216
00000000: 68b5 273d 5476 743e bdce 043e fea8 513e
00000010: b994 a43e a848 d8bd e3f0 03be 65f7 d93d
00000020: 47c9 843e c46f c63c

fc3.weight f4 [15, 10]
-0.1496217 -0.14865153 -0.29898354 0.068320364 -0.17746149 -0.28194103 0.2772927 -0.20536184
-0.035974562 0.09059721 -0.41317064 -0.1518267 -0.34147537 0.26462823 0.26741144 0.2623503
-0.089194566 0.36642653 0.2757018 -0.014063001 -0.19259667 0.035728056 0.03701477 -0.006523341
-0.10042027 -0.19493222 0.164538 -0.2873518 0.118068986 -0.16721901 -0.18588981 0.0013051254
-0.2298084 0.024995014 -0.08178903 -0.23479578 0.018471342 0.023940103 0.019302962 -0.039806336
-0.32923564 -0.108255826 0.011759814 -0.18261322 -0.027462754 0.21059588 -0.20125666 -0.081003934
0.093052186 -0.015047734 -0.020863224 -0.011251042 -0.3587392 -0.015696311 0.12453624 0.2849572
0.1601003 -0.06303828 -0.052237794 -0.15383837 -0.4012984 -0.32902414 0.26369283 0.1768534
-0.3535908 0.12372178 0.20698284 0.2760291 0.22968583 0.20404634 -0.08410577 -0.1726489
0.19748883 0.14080851 -0.27956104 0.28429422 0.11297306 0.12075306 -0.229242 0.04281392
-0.110857576 0.1247703 -0.14910309 0.077902324 -0.02696588 0.13454485 -0.18670245 0.07302108
-0.25801232 -0.027382884 -0.29649404 -0.31197056 -0.368297 0.20863399 0.039506614 0.29668984
0.25333676 -0.34883517 -0.23636587 -0.051096886 -0.20536852 0.11580143 -0.3148802 -0.18351638
-0.39392453 -0.17953691 0.17743787 0.2068964 0.18106394 0.15019453 -0.03346614 -0.14976366
-7.0458984e-05 0.24533607 -0.039713707 0.31612542 0.115523085 0.10333032 -0.1807095 0.09779788
0.03633663 -0.09867481 -0.2034238 -0.17744064 -0.27319854 0.2122933 0.20358023 -0.0687583
-0.19447233 0.22228912 0.14732872 -0.015461857 -0.25454548 0.251041 0.013980586 -0.24006285
0.26267138 0.14179045 -0.25892457 0.14607732 -0.17967714 -0.14244857 0.19976462 -0.0041731377
-0.26952395 -0.10569373 -0.14627834 -0.108302005 0.014228448 0.21550599
00000000: 6e36 19be 1b38 18be 5f14 99be 8ceb 8b3d
00000010: 77b8 35be 935a 90be 4ff9 8d3e 604a 52be
00000020: 105a 13bd 088b b93d 1a8b d3be 7578 1bbe
00000030: dcd5 aebe 5a7d 873e 27ea 883e c752 863e
00000040: a4ab b6bd 429c bb3e c928 8d3e 8068 66bc
00000050: 1038 45be 9557 123d cd9c 173d c0c1 d5bb
00000060: 24a9 cdbd 509c 47be a67c 283e c61f 93be
00000070: 27ce f13d 763b 2bbe e659 3ebe be10 ab3a
00000080: e552 6bbe 58c2 cc3c 0281 a7bd 4e6e 70be
00000090: 3651 973c 091e c43c 3f21 9e3c f80b 23bd
000000a0: 9391 a8be 3bb5 ddbd 3cac 403c f6fe 3abe
000000b0: 92f9 e0bc 72a6 573e 3a16 4ebe 64e5 a5bd
000000c0: 2592 be3d c58a 76bc 5ae9 aabc 4a56 38bc
000000d0: aaac b7be 8d95 80bc db0c ff3d e9e5 913e
000000e0: 55f1 233e 371a 81bd 4cf7 55bd ce87 1dbe
000000f0: fc76 cdbe da75 a8be bf02 873e 0f19 353e
00000100: da09 b5be d861 fd3d 4ff3 533e b053 8d3e
00000110: c332 6b3e 86f1 503e a53f acbd e0ca 30be
00000120: 833a 4a3e 1b30 103e a022 8fbe 038f 913e
00000130: 6b5e e73d 614d f73d 6abe 6abe a65d 2f3d
00000140: 4c09 e3bd 9287 ff3d 7bae 18be 418b 9f3d
00000150: 8de7 dcbc 20c6 093e ed2e 3fbe 138c 953d
00000160: 311a 84be 1252 e0bc 11ce 97be 9bba 9fbe
00000170: 6d91 bcbe 26a4 553e b0d1 213d bbe7 973e
00000180: 5bb5 813e 869a b2be e509 72be f84a 51bd
00000190: 204c 52be 4d29 ed3d fa37 a1be b8eb 3bbe
000001a0: 7ab0 c9be 86d8 37be 46b2 353e a6dc 533e
000001b0: d368 393e 98cc 193e cb13 09bd a55b 19be
000001c0: 61c3 93b8 6139 7b3e d7aa 22bd 31db a13e
000001d0: 5e97 ec3d d99e d33d e90b 39be 414a c83d
000001e0: b8d5 143d 0516 cabd 544e 50be 00b3 35be
000001f0: aee0 8bbe 6a63 593e 5677 503e 27d1 8cbd
00000200: c123 47be c29f 633e 57dd 163e bb53 7dbc
00000210: c953 82be 7288 803e d40e 653c 09d3 75be
00000220: dd7c 863e 8431 113e c391 84be 4b95 153e
00000230: 49fd 37be 0ade 11be 198f 4c3e d1be 88bb
00000240: 0bff 89be f475 d8bd fdc9 15be 71cd ddbd
00000250: 701e 693c 9aad 5c3e

fc3.bias f4 [15]
0.016930938 0.05334988 -0.05841307 0.010361369 0.02094093 -0.48967993 -0.14182836 -0.30124894
-0.24514717 -0.03889106 -0.31222606 -0.034122717 0.21742056 -0.13693413 -0.29498458
00000000: c0b2 8a3c 6785 5a3d 8b42 6fbd bbc2 293c
00000010: 508c ab3c 54b7 fabe 743b 11be 4d3d 9abe
00000020: dc07 7bbe 3b4c 1fbd 18dc 9fbe 43c4 0bbd
00000030: 7fa3 5e3e 7638 0cbe 3808 97be
