neuronas/modelo_dnn_uefa.pth (torch, 3672 bytes, 6 tensors)

fc1.weight f4 [10, 8]
00000000: 4405 b4bc 4367 2e3e 2e94 9ebe bdfa 8ebe
00000010: 313d 1fbe 1bd0 9a3d cac4 d3bc e1c9 853e
00000020: e083 00bd 9899 bf3d 5cd3 dabd 1c54 8ebd
00000030: c2ef acbe 90c5 6fbe 9f3d 15be 4094 563c
00000040: 210f e23d 0600 3b3e 0a9e 88be b327 39be
00000050: 0fb3 ca3d eb5c 873e 5058 cdbd ae8c 723e
00000060: 206b 69bd 383c 193d a1e8 a33e 20ed a7be
00000070: c5ea 63be ac4f b7bd 661f 0dbe 9d66 9c3e
00000080: 86aa 6abe 86a8 26be 53ef 7cbe 2089 a9be
00000090: 2d56 53be 979a 9b3e 5e8c 213e 5e78 2f3e
000000a0: 5052 983c 7b9c 39be 7001 753d 4d04 a9be
000000b0: 68cc 82be 4ca4 3abe 866c 643e 5e45 543e
000000c0: 5bbf 0bbe f784 413b fd03 743e c148 be3e
000000d0: 88cd 233e 3cfc 823d 2f39 803e 3fc2 41be
000000e0: 70ed 863d 6558 8cbe 8aec 7abe f205 3bbe
000000f0: 0ed0 233e fe98 113e 5b74 56be b8bf da3d
00000100: 27d5 233e a6f3 abbd 4bcc b4bc 8981 af3d
00000110: 4e29 3f3e aba7 9a3e 2924 9cbe f2e9 12be
00000120: c6b2 293e a315 a53e 1af0 a93e bfda a73e
00000130: 697a c63d 6b0a 8fbe adf2 663d c7ec 4dbe
-0.021975167 0.17031579 -0.30972427 -0.27925673 -0.15550686 0.07559224 -0.025850672 0.26130584
-0.031375766 0.093554676 -0.10684845 -0.06949636 -0.3377667 -0.23415208 -0.14574288 0.013096869
0.11038042 0.18261728 -0.26683074 -0.1808155 0.09897434 0.26438078 -0.1002661 0.23686478
-0.056986928 0.037410945 0.3201342 -0.327981 -0.22257526 -0.08950743 -0.13781509 0.30547038
-0.22916612 -0.16275224 -0.2470067 -0.3311243 -0.20638342 0.3039138 0.15776202 0.1713576
0.018593937 -0.18126099 0.059815824 -0.33011094 -0.25546575 -0.18226737 0.22307023 0.20729586
-0.13647215 0.0029528716 0.23829646 0.37164882 0.15996373 0.06395766 0.25043628 -0.18921755
0.06588256 -0.2741119 -0.24504295 -0.18263987 0.15997335 0.14218518 -0.20942824 0.10681099
0.1599928 -0.083960816 -0.02207007 0.08569629 0.186681 0.30206046 -0.30496338 -0.14347056
0.16572103 0.3224307 0.33190995 0.32784078 0.09691317 -0.27937636 0.056383777 -0.20109855

fc1.bias f4 [10]
00000000: 7a81 b2be 95d5 a03e b2ef 753e 6492 b4be
00000010: ec86 873d c8f4 73bd 5ea1 27bd c7b9 25be
00000020: d8a2 d33d 3c6a 3cbe
-0.34864408 0.3141295 0.24017218 -0.35267937 0.06617531 -0.059559613 -0.040925376 -0.1618415
0.10333794 -0.183999

fc2.weight f4 [10, 10]
00000000: d04e 093e cac1 233e fc84 873e 6028 f23d
00000010: 253f a0be 2a0f 52be 79ac 483e 008d 873d
00000020: 1b83 55be b129 11be bf50 983e 9e31 5a3e
00000030: 4531 0dbe eeff a2bd dd3b 9abe 4040 babb
00000040: 7cda 73be 52c7 79be d0bc 8ebc 707a 423d
00000050: eb9c 04be 5a25 403e 320e 45be 39e9 923e
00000060: 72e9 5d3e e788 88be a22f a1bd a0c8 693c
00000070: 28fb 3c3d 2c9a 993d 6c26 fe3d 702c 9b3c
00000080: efff 1dbe 0c3a 193e 874f 9bbe bbed 3fbe
00000090: 4c1f a2bd 57bc 1dbe 6c90 e2bd 2db4 84be
000000a0: fcc2 89bd a06f 8a3d 4d12 30be e0f1 84bc
000000b0: 0ace 673e 6827 05bd 7e82 033d a07b dfbc
000000c0: d47c cc3d ddd5 693e 12ae 913e 5ea4 4d3e
000000d0: 750a 8d3e 205a bbbc 2c72 91be ae83 19be
000000e0: 8bef 473e 8058 06bb 2490 3abe c7c6 87be
000000f0: c385 97be f7a6 88be b095 a3bd 5495 313e
00000100: a411 2f3e 5b26 9cbe be9c 393e da63 7dbe
00000110: d4d0 a8bd d57b 13be 107d 79bd 1051 7ebd
00000120: e849 91be 4ccc 8bbe d8ae 4abd 4001 863b
00000130: 1f1a 13be a0f6 f33d 2aba 91be 10d4 aebc
00000140: 4bd5 853e 1c15 04be 3a86 813e 148b ea3d
00000150: bf1d 92be dae0 4c3e 6044 88bd e28d 10be
00000160: e7d8 613e 0272 94be a452 303d 2898 87bd
00000170: 0b75 403e 9cc8 b43d 8e98 1b3e c8b7 e43d
00000180: fe34 f2bd 7833 88bd 2f6d 98be d466 033e
0.13408971 0.15991893 0.26468647 0.11824107 -0.31298175 -0.20513597 0.19597043 0.066186905
-0.20850794 -0.1417606 0.29749104 0.2130799 -0.13788326 -0.07958971 -0.30123797 -0.0056839287
-0.23813814 -0.24392441 -0.017424017 0.047480047 -0.12950484 0.18764248 -0.19243696 0.2869356
0.21671084 -0.26666948 -0.07870413 0.014269024 0.04613796 0.07500109 0.12409672 0.018942088
-0.15429662 0.1496355 -0.30334112 -0.1874303 -0.07916126 -0.15403877 -0.110627025 -0.25918713
-0.067266434 0.06759572 -0.17194481 -0.016228616 0.22637191 -0.032508284 0.03210687 -0.027280629
0.099847466 0.22835489 0.28453118 0.20082232 0.2754704 -0.022870123 -0.2840742 -0.14991638
0.19524972 -0.0020499527 -0.18219048 -0.26518843 -0.2959424 -0.26689884 -0.07987535 0.1734212
0.17096573 -0.30498013 0.18126199 -0.24745122 -0.08242956 -0.14402707 -0.060910285 -0.062089026
-0.28376698 -0.27304304 -0.04948315 0.0040895045 -0.14365433 0.11912274 -0.28462344 -0.021341354
0.26139292 -0.12898678 0.2529772 0.11452308 -0.2853832 0.20007649 -0.066536665 -0.14116624
0.22055398 -0.2899323 0.043047562 -0.066208184 0.18794648 0.08827326 0.15194914 0.11167866
-0.11826514 -0.06650442 -0.297708 0.12832195

fc2.bias f4 [10]
00000000: 056d 943e 5690 5d3e e469 64be 4013 673c
00000010: 1798 45be bf46 4abe e0dd 4cbe 6c53 dd3d
00000020: 7ae3 61be 27c4 43bd
0.28989425 0.21637091 -0.22306019 0.014103711 -0.19296299 -0.1975355 -0.20006514 0.10806927
-0.22059432 -0.047794487

fc3.weight f4 [8, 10]
00000000: f421 dcbc 72bd 503e aac7 74be f34d 5ebe
00000010: d158 6abe 6c4c 463e 4acd e8bd 6f91 883e
00000020: 2817 ad3d 4634 ea3b a27b e23c 8006 80bd
00000030: 4083 223d 46e2 93bd 6391 f23c 486b 6b3d
00000040: 9f4a 7dbe 08b9 29be d670 893e 0a80 72be
00000050: 4004 babc 912a a03e 18f3 e93d 20b1 123c
00000060: c64f 8cbe 7269 203e 16a6 66be 1cd7 b7bd
00000070: bc4a d9bd 20d0 3fbd 390d 0fbd 1f8b 853e
00000080: 28b3 213d 3705 913e 3ec4 1e3e 4cea 72be
00000090: 0117 033e b6e7 64be a288 1ebe be07 713d
000000a0: aac5 993d d2ef 723e da7b d0bd 00b4 043a
000000b0: 0f89 083e bbb6 abbe e6ab 5b3e c8e2 85be
000000c0: a50f afbc 72e3 a5bd b88b 2abe 7032 2b3d
000000d0: a1e2 853e f250 bdbd 963f 40be 3885 efbd
000000e0: b879 a0be 4c2b 123e 8684 1bbe a618 58be
000000f0: c9de 64be 402e 3a3e 2e7c 2b3e 6a89 783e
00000100: a33c a23d 5357 0bbe f2fa b4bd a454 bf3d
00000110: 51dc 673e e188 4f3d 6e36 19be 1b38 18be
00000120: 5f14 99be 8ceb 8b3d 77b8 35be 935a 90be
00000130: 4ff9 8d3e 604a 52be 105a 13bd 088b b93d
-0.026871659 0.20384768 -0.23904291 -0.21709423 -0.22885443 0.1936509 -0.11367281 0.26673457
0.08451682 0.0071473448 0.027646843 -0.0625124 0.03967595 -0.072208926 0.029610341 0.05747536
-0.24735497 -0.1657449 0.268439 -0.23681656 -0.022707105 0.31282476 0.114233196 0.008953363
-0.27404612 0.15665224 -0.22524294 -0.08976576 -0.106099576 -0.046829343 -0.03492472 0.26082703
0.039477497 0.2832429 0.15504548 -0.2372219 0.12801744 -0.22354016 -0.15481809 0.058845274
0.075084046 0.23724297 -0.10179873 0.00050622225 0.13333534 -0.3353785 0.21452293 -0.26149583
-0.021369765 -0.081000224 -0.16654861 0.041796148 0.26149467 -0.09243955 -0.18774256 -0.11695331
-0.31342864 0.14274329 -0.15187272 -0.21103153 -0.22350611 0.18181705 0.1674659 0.2427117
0.07921722 -0.1360753 -0.088369265 0.09342316 0.22642638 0.050667647 -0.1496217 -0.14865153
-0.29898354 0.068320364 -0.17746149 -0.28194103 0.2772927 -0.20536184 -0.035974562 0.09059721

fc3.bias f4 [8]
00000000: 060b dbbc 01b1 33be cfdf 82be 540b 5c3e
00000010: 180e bb3c c752 863e 0315 14be a4c3 be3d
-0.026738655 -0.1754799 -0.25561377 0.21488696 0.022833869 0.2623503 -0.1446114 0.09314659
