neuronas/sin_img/modelo_red_neuronal_convolu_uefa.pth (torch, 15746 bytes, 6 tensors)

fc1.weight f4 [64, 15]
000000 64 41 f8 3d ec 23 95 bd 71 bd d4 3d f8 de 84 bc
       0.12121847 -0.07282242 0.103876956 -0.016219601
000010 82 47 9c 3d eb 73 0c be aa 43 c9 bd b9 be 3e be
       0.076308265 -0.13716094 -0.09827359 -0.18627442
000020 76 b8 e3 3d cd 70 f2 3d 88 d5 cd 3d c9 74 45 3e
       0.111191675 0.11837921 0.100504935 0.19282831
000030 b6 b1 11 be fc a2 05 be 1f 4e aa 3d 02 fa 83 3c
       -0.14227948 -0.13050455 0.08315682 0.016110424
000040 80 6c 28 3d 10 9a 42 3e 0a 8c 18 bd cc 9b 6d 3e
       0.0411191 0.19004083 -0.037242927 0.23203963
000050 1d e6 0b 3d a4 64 04 3c 5d f4 79 be ae e2 db 3c
       0.034155 0.008080635 -0.24409623 0.026841488
000060 35 78 94 bd cb 27 95 bd ab 0a 82 3e 2b 2d 64 3e
       -0.0724949 -0.072829805 0.25398764 0.22282855
000070 5e 07 7c 3e 8f b3 83 be c6 ec 89 3d 3f 10 06 be
       0.24612185 -0.2572293 0.06734614 -0.13092135
000080 e2 d5 0e be 16 97 bc 3d 32 1d 76 3e 80 60 74 3e
       -0.13948777 0.09208505 0.24034575 0.23864937
000090 af 0d 15 be 2c 76 11 3e 5e 51 d8 bd e4 48 e5 bd
       -0.14556001 0.14205235 -0.105623946 -0.111955434
0000a0 33 06 c4 bd 9f 76 61 3e 37 e9 0b 3e a6 25 4b bd
       -0.09571495 0.22017907 0.13663183 -0.04959645
0000b0 a5 64 7d 3e b2 74 c9 3d f5 5a df 3d 48 55 04 3e
       0.24745424 0.09836711 0.109060206 0.12923157
0000c0 97 08 bb 3d 53 61 27 3e b7 66 2d 3e c7 c9 28 3e
       0.09132498 0.1634572 0.16933714 0.16483222
0000d0 4b 2d 0c 3e fe 6c 94 3d 4c 6a 0e 3e 04 2c 80 3e
       0.13689153 0.07247351 0.13907737 0.2503358
0000e0 16 0d 60 be 1b d7 5d be 03 65 49 be 87 89 11 be
       -0.21879992 -0.21664087 -0.19667439 -0.14212619
0000f0 18 14 5a be c8 25 48 bd 1d 1d 6b be b9 fe 13 3b
       -0.21296728 -0.048864156 -0.22960325 0.0022582246
000100 b0 9f 5a be b4 9d 33 3e 39 7c 4f 3e c4 2f a9 3c
       -0.21349978 0.17540628 0.20262231 0.02065266
000110 c8 ca 51 be b7 e0 ce 3d c9 0a 22 3d 8b 7a 0c 3c
       -0.20487511 0.10101455 0.039561067 0.008574138
000120 42 00 86 bd 0b d7 d0 3d c0 02 e5 bd c0 7c 1d 3e
       -0.06543018 0.10197266 -0.11182165 0.1537962
000130 b5 53 4c be 4d 5a 64 3e ee 3b 82 3e e6 56 55 bd
       -0.19953807 0.22300072 0.25436348 -0.052084826
000140 24 59 24 be 2f 15 b8 bd 51 bf 8a 3d 33 54 2e 3e
       -0.1604963 -0.089884154 0.06774772 0.17024307
000150 d2 29 e8 3d 46 68 24 3e fa ae 06 3e 83 eb 00 bd
       0.113361016 0.16055402 0.13152686 -0.0314746
000160 07 87 4e be 89 54 19 3e 07 e4 e3 3d 43 70 81 3e
       -0.20168696 0.14973654 0.11127477 0.2528096
000170 eb 1b fd 3c 5a 68 ea 3d f6 7d 57 3e 60 8a 24 be
       0.030897101 0.11445685 0.21044144 -0.16068411
000180 4d eb 51 3e 6c f2 60 be 67 33 74 be 58 93 df bd
       0.20499916 -0.21967477 -0.23847733 -0.109167755
000190 94 dd ea bd ae 06 37 3d 2d 56 6c bd 92 96 1e 3e
       -0.11468044 0.044684105 -0.05769937 0.15487126
0001a0 95 98 6a be 42 29 e0 3d b7 65 0c bd 0a ec e6 3c
       -0.22909768 0.10945369 -0.03427669 0.028188724
0001b0 38 ef 28 bd 21 db a6 3c 2e 15 0a be c9 9c 55 3e
       -0.04124376 0.02036816 -0.13484642 0.2086059
0001c0 53 8d 38 be ce 04 f6 3c f8 e2 72 be 2d 1c a6 3d
       -0.18022661 0.030031588 -0.23719394 0.08110843
0001d0 de 92 72 be 19 d8 5f be 84 fc d3 3c e5 6f 3e be
       -0.23688838 -0.21859778 0.025877245 -0.18597372
0001e0 5b 00 1b bd 1e ab 77 bd 05 ac bf bd 1e a4 76 be
       -0.037842136 -0.060465924 -0.09358982 -0.24086043
0001f0 f8 93 41 3c 4f ad 12 be ff f3 3b 3e 69 12 c2 3d
       0.011815064 -0.14323924 0.18354796 0.09476168
000200 2f ec 18 be c7 a2 08 bc 11 64 b3 bd 4b 84 4b be
       -0.14933847 -0.00833959 -0.087593205 -0.19874685
000210 fb 6f ad 3d 4a fc 76 be 4b a7 59 3e 93 c0 0f 3e
       0.08468624 -0.24119678 0.21255223 0.14038305
000220 f6 06 1c be 7f 95 60 3d 34 08 36 bc cb c0 86 bd
       -0.1523703 0.05483007 -0.011110354 -0.06579741
000230 50 35 78 be c8 00 97 3d da df e8 bd 36 8d 1f 3e
       -0.24239087 0.07373196 -0.11370821 0.15581211
000240 96 1e 5b 3d 53 0f 8a 3e b4 d4 c5 bd b4 af 33 3e
       0.053495966 0.26964816 -0.096597105 0.17547494
000250 94 10 2b 3e be 81 84 3c 59 a3 89 3d a4 70 a8 3b
       0.16705543 0.016175147 0.06720609 0.005140381
000260 45 ac f8 bd 2e 3c 56 be 5b fb 17 3e 16 ac d8 bc
       -0.12142233 -0.20921394 0.14841978 -0.026449244
000270 ac c6 50 3e 96 3b 06 be 70 ef b3 3d cd b8 2f 3e
       0.20388287 -0.13108668 0.087859035 0.1716034
000280 e2 87 7f bd b3 f1 25 bd d0 4c 56 3e c2 80 82 be
       -0.062385447 -0.040513705 0.20927739 -0.2548886
000290 fc 3c be 3d 8c ce 7f be 74 0b 63 3c c6 f0 24 3e
       0.092889756 -0.24981135 0.013857711 0.16107473
0002a0 e6 fa 5d be 11 78 05 be 27 1c 21 be a1 e1 36 3d
       -0.21677741 -0.13034083 -0.15733396 0.04464877
0002b0 22 63 7a 3e a3 96 36 3e 37 a4 ee 3c 68 62 ea 3d
       0.24451879 0.17830901 0.029131038 0.11444551
0002c0 26 75 40 be 74 b2 03 3e 61 68 14 3e 96 a9 e2 bd
       -0.18794689 0.12861043 0.14492942 -0.11067502
0002d0 a6 a1 e6 3d e6 18 25 bc 0d d4 f9 bd 29 fe 16 3d
       0.11261301 -0.010076737 -0.121986486 0.03686348
0002e0 af 58 0b be 93 a1 85 3e 2d 6c 95 3d 89 85 63 be
       -0.13608049 0.26099834 0.072960235 -0.22218908
0002f0 c0 de e7 3c c1 19 05 3e 6c f5 56 be f2 53 13 3e
       0.028304458 0.12998106 -0.20992059 0.14387491
000300 0d 8c 75 bd 4d b0 09 bd b1 e3 1d 3e 32 72 ee bd
       -0.059948016 -0.0336154 0.15418889 -0.11642875
000310 b6 6c 45 3e 2e c9 39 3e 9c fa 65 bd cd ee b7 3d
       0.19279751 0.1814315 -0.056147203 0.089810945
000320 0b 76 90 bd 84 9b 96 3d d8 ed 6e be 07 8f 2f bc
       -0.07053765 0.07353881 -0.23332918 -0.010715253
000330 9f 23 a6 bd a0 d9 94 bc 58 df db bc ed db 1d be
       -0.08112263 -0.018170178 -0.026839897 -0.15415926
000340 53 5f 17 be 14 2c 83 bd ae 32 0d 3e 63 1c 88 3e
       -0.14782457 -0.064048916 0.13788864 0.26584157
000350 f2 8b c0 3d 6b c5 16 3e 82 7a 93 bd b8 e2 ad bd
       0.094016925 0.14723746 -0.07201101 -0.08490509
000360 17 63 42 3d 6a 2a 8e 3b 22 45 75 bc 20 2e d5 3c
       0.04745778 0.0043385522 -0.014970096 0.02602297
000370 2c 25 6b bd ab 8a 66 3e a4 34 7a 3e d2 ec 07 be
       -0.057408497 0.22513835 0.24434143 -0.13273934
000380 64 95 b9 3c c7 95 4e 3e a0 e7 33 3e 5b 71 1b be
       0.022654243 0.20174323 0.17568827 -0.1517996
000390 70 58 67 3e 49 ac 20 be 09 37 0f 3d 44 64 3b 3e
       0.2259233 -0.15690722 0.034964595 0.18299967
0003a0 76 b1 fa bd 88 e0 94 bd e2 d1 04 be 78 cf 81 be
       -0.12240879 -0.072693884 -0.12970689 -0.253536
0003b0 c0 0c 9d bd b2 51 00 3e df 3d bc bd 4d ae 34 3e
       -0.076684475 0.12531164 -0.091914885 0.17644615
0003c0 74 02 db bd 94 fd bd bc ea a6 48 3e 38 99 7f be
       -0.10693827 -0.023192205 0.19594923 -0.24960792
0003d0 c9 f4 3a 3e c5 49 5f bb 42 53 01 3e b5 db 2e be
       0.1825744 -0.003407107 0.12629417 -0.17075999
0003e0 7b 7a 16 be e8 a4 7c be 08 e4 07 3e ef 5f c6 bc
       -0.1469516 -0.24672282 0.13270581 -0.024215667
0003f0 a4 66 3d 3e f1 02 2c 3e 06 50 73 be e8 85 e4 3d
       0.18496186 0.16797997 -0.23760995 0.11158353

fc1.bias f4 [64]
000000 2a 1f 88 3b ed 23 56 3d 54 b5 00 be c7 a8 f1 3d
       0.0041541057 0.052280355 -0.12569171 0.1179977
000010 5d 5d 2f be 92 e4 47 3e ad 00 44 3e 9a eb 5b 3e
       -0.17125459 0.19520786 0.19140883 0.21476594
000020 bf e0 53 bd 45 ac 25 3e 86 9b 84 be 51 98 43 3c
       -0.051728006 0.16178997 -0.25899905 0.0119381705
000030 88 e0 a0 bc da ab de bd 7d f8 17 3e e5 db 3c 3d
       -0.019638315 -0.10872622 0.14840885 0.046108145
000040 a6 41 5c be 39 50 49 3d c6 1d c9 3d ee 1e eb 3c
       -0.21509418 0.049148772 0.09820132 0.028701272
000050 1d 87 11 be d1 2a 65 3d 80 91 39 3b 80 7a 5e 3e
       -0.14211698 0.055949036 0.0028315485 0.21726418
000060 0d 53 1f bd f1 66 3d 3e 07 67 4a 3e 4f 3f 72 be
       -0.038897563 0.184963 0.19765864 -0.23656963
000070 96 57 1c be 0b ab 3d 3e cd b1 4a 3d c6 18 37 be
       -0.15267786 0.18522279 0.04948597 -0.17880544
000080 51 67 7f 3e 5a c3 70 3e 5f ab 1e be 66 92 2d 3e
       0.24941756 0.2351202 -0.1549506 0.16950378
000090 6b 0f c5 bd 1f ef 82 be 90 a9 80 be 76 8d c1 bd
       -0.09622081 -0.2557306 -0.25129366 -0.0945081
0000a0 fe 60 73 be 1f 7c 27 be 89 92 8a 3c 9c 15 ad 3d
       -0.23767468 -0.16355942 0.016915577 0.08451387
0000b0 d5 29 87 3e 0e 8c 80 be 61 02 7e bd c3 74 50 be
       0.26399103 -0.25106853 -0.062013987 -0.20357041
0000c0 38 35 a7 3d f9 5e 36 3e 8a 54 0b be 16 1a 89 be
       0.081644475 0.17809667 -0.13606468 -0.26777714
0000d0 42 73 20 be d2 e6 08 be b2 f0 ef 3c bd 13 ac bd
       -0.15668967 -0.13369301 0.029289577 -0.08402202
0000e0 36 33 08 be bc d2 9c 3b 22 40 73 3e 97 fc 90 bd
       -0.13300785 0.0047858637 0.23754933 -0.07079428
0000f0 4c 6f ce 3d 93 12 f9 3d 91 ba 90 bd eb d0 47 3e
       0.10079822 0.12161746 -0.07066835 0.1951329

fc2.weight f4 [32, 64]
000000 ea 22 b3 3d 0b 17 31 bc e6 cc 86 3d b8 93 a0 bd
       0.08746894 -0.0108087165 0.0658205 -0.07840675
000010 6b 74 9a bd e2 a8 a1 3c 6e 2b ec bb e4 6b 3d bd
       -0.07541736 0.01973385 -0.0072073257 -0.04624547
000020 6d d9 0c 3d 04 66 05 be f5 47 98 bd 84 15 8b 3b
       0.03438704 -0.13027197 -0.074356 0.004244508
000030 45 8a 88 bd a0 53 ff bc d7 0f ee bd 5a 46 3b 3d
       -0.06666998 -0.031167805 -0.11624115 0.04572139
000040 5f 9d ce 3d 47 69 c3 bd f5 15 a3 3d 6a 89 05 be
       0.1008861 -0.095415644 0.07963172 -0.130407
000050 a5 22 87 bc cf 1a d4 bd fc 0a 36 3d d8 59 14 bd
       -0.016496012 -0.10356676 0.04444407 -0.036218494
000060 d1 82 e1 bd 73 f4 23 3d db 1b f5 bb b0 8c 41 3c
       -0.110112794 0.040028047 -0.0074801273 0.011813328
000070 13 1c dd bc b3 1d c3 bd 77 23 87 3d 00 f9 e5 3c
       -0.026990926 -0.09527149 0.06598561 0.028072834
000080 a4 d7 7b 3d cf 56 5a bd 40 00 ae bb af 39 80 bd
       0.061484948 -0.053305443 -0.0053100884 -0.06261002
000090 33 3e 73 bd 62 8c b1 3c 1c b9 b1 3d 9c 94 78 bd
       -0.05938549 0.021673385 0.08677885 -0.0606886
0000a0 3c 44 6f bd ea 51 58 bc 02 4a 29 3c fb 7e 71 bc
       -0.058414683 -0.013203124 0.010332586 -0.014739747
0000b0 7c 98 d4 bd e3 00 62 3d 80 43 ba bd ec 87 d2 bd
       -0.103806466 0.055176627 -0.09094906 -0.10279831
0000c0 40 19 ba bb 8f 3f 00 bd 17 de e2 bd 00 33 b5 3d
       -0.0056792796 -0.031310614 -0.110775165 0.08847618
0000d0 1e 95 1f bd 10 60 11 bd 9b bd f0 3d 7b 41 f2 3c
       -0.03896057 -0.035492003 0.117549144 0.02957224
0000e0 d1 83 b9 bd 61 3b 80 3d 62 96 e7 3d e0 0d eb 3b
       -0.09058345 0.06261326 0.1130798 0.007173285
0000f0 e0 88 25 bd a0 a6 5e 3d b8 f0 4a 3d 27 e5 7c 3d
       -0.040413737 0.054358125 0.049545974 0.061741974
000100 ac e0 13 3d 20 2b d0 3c ac 81 9c bd 90 20 8f 3c
       0.036102936 0.025411189 -0.076419204 0.017471582
000110 98 19 51 bd 00 e2 06 3d dc 5f d9 bd 04 e5 03 bd
       -0.0510498 0.032930374 -0.10613987 -0.03220083
000120 66 ea c4 bd 10 da b5 bc e0 5b 23 3c 9c 7a a3 3d
       -0.096150205 -0.022198707 0.009970635 0.0798237
000130 d2 9c fe bd cc 0d 73 3d f8 c6 ff bc 06 71 c4 3d
       -0.12432255 0.05933933 -0.031222805 0.0959187
000140 c8 5c b7 bd e0 63 86 3d d0 cc 2b bc 60 50 87 3d
       -0.089532435 0.065620184 -0.010485843 0.06607127
000150 9c 5d b1 bd d0 8d 32 bd 80 90 84 bc ce 69 dc 3d
       -0.08660433 -0.043592274 -0.016182184 0.10762368
000160 40 cd 7e 3c fc 6f b0 3d 80 cd e5 bc 50 3c e9 3d
       0.015551865 0.08615109 -0.028052092 0.11388457
000170 18 c5 96 3d ac 05 03 3d 26 58 83 bd 7c 25 45 3d
       0.073618114 0.03198783 -0.06413297 0.04813145
000180 a8 ca 62 3d 20 17 d7 bd 28 4b ff 3d 5c 35 e3 bd
       0.05536905 -0.105024576 0.12465507 -0.11094162
000190 f8 9c 76 3d ac d1 0c bd f4 b7 c2 bd 5e 26 f7 3d
       0.06020829 -0.034379646 -0.095077425 0.12067865
0001a0 c0 37 51 bd dc 41 6d 3d fa 50 dd 3d 88 6d 3f 3d
       -0.051078558 0.057924137 0.10806461 0.046735317
0001b0 bc 8d 16 bd 3c 45 47 3d c8 93 42 3d 78 30 2a 3d
       -0.036756262 0.04865001 0.047504216 0.04155013
0001c0 e2 ac d0 bd 1a 30 98 bd 00 4b 7a 3c e0 be c3 3b
       -0.10189225 -0.0743105 0.01527667 0.005973682
0001d0 aa 26 cf bd e0 e8 2c bc 64 94 fa bd c2 cb ac bd
       -0.101147965 -0.010553569 -0.122353345 -0.08437301
0001e0 7c 22 2a bd 8c 62 f0 bd 14 aa 4d 3d 04 5e e1 3d
       -0.041536793 -0.11737546 0.050211027 0.1100426
0001f0 4c 21 c0 bd 12 e0 ea bd 00 cd 4a 3d 20 4b da bb
       -0.09381351 -0.11468519 0.04951191 -0.0066617876
000200 f0 30 12 bd 96 75 8e bd d8 c5 94 bc 06 04 fc bd
       -0.0356912 -0.069560215 -0.018160746 -0.12305455
000210 10 2b a8 3c b0 3d 45 bc 9e d0 c0 bd 5a 60 a5 bd
       0.020528346 -0.012038633 -0.094147906 -0.08075018
000220 78 c9 c3 bd 20 41 69 bc b0 71 b4 3c f0 0f f4 bd
       -0.095599115 -0.014236718 0.022026867 -0.11917102
000230 1c 5a 86 bd 10 3b 09 3d 00 71 91 3a ce 05 86 bd
       -0.06560156 0.033503592 0.0011096299 -0.06544076
000240 7c a7 73 3d 80 38 d6 3a dc 11 29 bd ae af e1 3d
       0.059485897 0.0016343743 -0.041276798 0.11019836
000250 ee f4 fb 3d f0 98 b1 3c 08 de 90 bd 0c 12 3e bd
       0.12302576 0.021679372 -0.07073599 -0.04640393
000260 28 ed 3c 3d 00 ea 86 ba 18 c3 38 bd 84 42 29 3d
       0.046124607 -0.0010293126 -0.04510793 0.0413232
000270 00 03 9e bc 14 ea ba bd 3e 79 bb bd 30 46 a3 3d
       -0.01928854 -0.09126678 -0.091539845 0.079723716
000280 ba 98 d9 3d 80 c5 6b 3d 70 19 e8 bd 36 82 ca bd
       0.106248334 0.057561398 -0.11332977 -0.09888117
000290 5c 36 3c 3d 28 c2 23 bd 6c d7 a8 3d 8a 56 e5 3d
       0.04595028 -0.039980084 0.082442135 0.11198147
0002a0 0c 42 b7 3d 98 c8 e3 bd d8 e2 0f 3d 64 cb d4 3d
       0.08948144 -0.111222446 0.035128444 0.10390356
0002b0 60 4e cb 3b 58 bf ef 3c da 1e f1 bd dc e0 e7 bd
       0.0062044114 0.029266044 -0.117734626 -0.113221854
0002c0 ba 9e a3 bd a2 c0 ec 3d 22 bd d6 bd d6 9b 96 bd
       -0.07989259 0.11560179 -0.10485293 -0.07353942
0002d0 28 28 14 3d d0 5f 91 bd 60 8e 39 bd c0 c0 e4 bd
       0.03617111 -0.07098353 -0.045301795 -0.11169577
0002e0 28 0b ef bd ec 74 67 bd 20 32 d9 3d 5c e2 c9 3d
       -0.1167205 -0.05650799 0.10605264 0.09857628
0002f0 9a 1f c5 3d b0 b4 51 3c 12 0e eb 3d ea 3a db 3d
       0.09625168 0.012799427 0.11477293 0.10704596
000300 bf 89 7b bd 84 b1 00 bc ed da 10 3b f3 5f a7 3d
       -0.06141066 -0.007854823 0.0022103146 0.08172598
000310 d4 e7 ad 3c 5d 41 da bd 9f f3 95 bd e0 44 36 bc
       0.021228708 -0.10656998 -0.07321858 -0.0111248195
000320 c9 94 67 3c 7e 7d da 3d 4c 7c bc bd 9b 3d 4a 3d
       0.014134594 0.10668467 -0.09203395 0.049375158
000330 c6 06 ea bb 90 33 f0 3d ca 0b 93 3b ae 28 bd 3d
       -0.0071419207 0.11728585 0.0044874894 0.09236275
000340 7e ab 24 bd 76 f0 0f 3b 76 e9 a7 3d a9 61 aa 3d
       -0.04020261 0.0021963394 0.08198826 0.083194084
000350 7f 6c df 3d 13 29 f1 bb ba 79 9b bd 11 af 2c bd
       0.10909366 -0.0073596328 -0.07591577 -0.042159144
000360 4b 9b 4a 3d 76 d3 d3 bd 42 ca 83 bd b1 f6 88 3d
       0.049464505 -0.10343067 -0.06435062 0.06687678
000370 21 b6 09 3c 1c c7 f9 3d 71 91 84 3d 0e 96 ef bd
       0.008405239 0.1219618 0.06473053 -0.116985425
000380 6a f8 61 3d b3 c3 79 bd 02 b7 53 bb 51 e6 a4 3d
       0.055168547 -0.06097765 -0.0032305126 0.08051742
000390 de c5 d4 bd a0 61 2d bd 2b 60 c7 3d 6c d1 0c 3d
       -0.10389303 -0.04232943 0.097351395 0.034379408
0003a0 58 93 cb bd 31 70 28 3c 42 58 0b 3e d8 1e 0f bd
       -0.09940213 0.010280655 0.13607886 -0.034941524
0003b0 30 35 51 bd d2 07 9d 3d 5d 93 22 3d b7 d5 9f 3c
       -0.051076114 0.07667507 0.039691318 0.019511087
0003c0 8c 68 b1 bd 19 55 0e 3b e8 05 fe bd 7d 34 c9 3d
       -0.08662519 0.0021718203 -0.1240347 0.098244645
0003d0 d4 bd b2 bd 63 10 74 3d 61 af 99 bc da ce d4 bd
       -0.08727613 0.05958594 -0.018760385 -0.10391016
0003e0 cd 64 bd 3d 16 3d 74 3d 4b 9c ae 3c 44 35 5f bd
       0.09247742 0.05962857 0.02131476 -0.054494157
0003f0 c0 ad c5 3b 5a 85 c8 bd 34 93 07 be 53 16 c6 3d
       0.0060326755 -0.0979106 -0.13239747 0.09672227

fc2.bias f4 [32]
000000 07 83 d6 bd 10 58 7c bc e0 86 8d 3c bf 65 d5 bd
       -0.1047421 -0.015401855 0.017276227 -0.10419797
000010 79 de 39 bc e8 06 98 3c 5c ef 31 bd 0c c2 74 bc
       -0.0113445455 0.01855798 -0.04344116 -0.0149388425
000020 40 95 ac bd 4c 77 80 bb c0 be 8d bd 3e 5f 85 bd
       -0.08426905 -0.0039204713 -0.06921148 -0.06512307
000030 2a e8 cb bd dc 3a 9f bd ec 56 59 bd 09 9f ea 3d
       -0.09956391 -0.077748984 -0.05306141 0.11456115
000040 8c 1c a3 bd 5d 7c 93 3d 14 c7 ca bd b4 c9 96 3c
       -0.07964429 0.07201455 -0.099012524 0.018406726
000050 0c cd 49 3d 63 40 bf bc b7 4f 84 bd 8c e3 92 3d
       0.049267814 -0.023346132 -0.06460517 0.07172307
000060 9b e9 36 bc 7e ec 9d 3d b8 c2 8c bc bd 4a 94 bd
       -0.011164094 0.07711123 -0.017182693 -0.07240818
000070 b5 ae bc bd 38 8f a4 3c e6 c6 eb 3d fd 9f 8e 3c
       -0.0921301 0.020087823 0.11512546 0.017410273

fc3.weight f4 [3, 32]
000000 cf f9 f6 3d 6c db f2 bd 9d 23 1f 3e f3 24 9b 3d
       0.12059366 -0.11858258 0.15540929 0.07575407
000010 a3 3b 1e be 3e f4 9a 3d 81 f8 37 3e ad f1 07 3e
       -0.15452437 0.07566117 0.1796589 0.13275786
000020 3d 34 26 3e f0 64 b4 bd 84 85 29 3e cd 5d d9 bc
       0.16230865 -0.08808315 0.16554838 -0.026533986
000030 87 3b 25 be 46 d6 f9 bd 0c 4a 32 be bc 7f 19 3d
       -0.16135989 -0.121990725 -0.17411059 0.037475333
000040 bd 2e df bd 67 79 24 3d ff ce d5 bd e5 cd 93 3b
       -0.108975865 0.04015484 -0.10439872 0.0045106285
000050 59 50 5f 3b 99 84 7f 3d ad de 23 3e 68 ce 8f 3d
       0.003407499 0.062382314 0.16002913 0.07021791
000060 0f 79 84 3d 76 39 da bd d8 95 88 bd 91 cd 2f 3e
       0.064684026 -0.10655491 -0.066692054 0.17168261
000070 ee b5 0e 3e e9 5b 05 be f0 28 84 bd 45 67 26 3e
       0.13936588 -0.13023342 -0.06453121 0.16250332
000080 a2 1e 99 3d 18 83 1c 3d b0 84 57 3d 31 49 30 be
       0.07476546 0.03821096 0.052616775 -0.1721542
000090 13 39 b2 3d 68 a9 13 be 8e d6 8b 3d 6d bb 01 3e
       0.08702292 -0.14420092 0.068280324 0.12669154
0000a0 14 ad 22 3e 9b 73 19 3e c9 bd 82 3d 6e 01 8d 3c
       0.15886337 0.14985506 0.06383855 0.017212596
0000b0 9a a4 4f bd 65 b4 37 bd e8 14 da bd be ee c8 3d
       -0.050694086 -0.044849772 -0.10648519 0.098111615
0000c0 43 f0 d2 bd 0c 43 d6 3c e2 70 b3 3d a0 77 b6 bd
       -0.102997325 0.026155017 0.08761765 -0.089095354
0000d0 83 ca c0 bd 45 0f 5f bd 5d b6 08 bc 75 43 33 3e
       -0.09413626 -0.05445792 -0.00834426 0.17506202
0000e0 6b 46 12 be 42 5e ba bd a9 eb 4b 3d cd 7e 98 bd
       -0.14284675 -0.091000095 0.04978529 -0.0744606
0000f0 4a 0a 11 3e 8b d5 d3 bd af 4a 74 bd d5 fa 82 3d
       0.14164081 -0.103434645 -0.059641536 0.06395499
000100 d5 c8 08 be 5a 6f e9 3d 8a 1a b1 3d bf ae 65 3d
       -0.13357861 0.11398192 0.0864764 0.056074854
000110 2c fd 06 be a2 96 f9 bd bf 35 e3 3d 4e 2e 7a 3d
       -0.13182515 -0.12186934 0.11094236 0.061079316
000120 96 53 18 be 8c 49 93 bd 3f 46 df bc 7f fe 71 bd
       -0.14875636 -0.07191762 -0.027255176 -0.059080597
000130 38 79 c1 3d 83 1f 19 3e 9c ff 4d 3d c8 d5 ba 3d
       0.09446949 0.14953427 0.050292596 0.09122807
000140 50 f9 48 3d b4 f7 0a 3d 0e 33 1b be 56 d2 2d 3e
       0.049065888 0.033927634 -0.15156195 0.16974768
000150 20 4e 01 be 4d 5f 0f be c2 3f a9 bd 26 97 f6 3d
       -0.12627459 -0.14001198 -0.08264114 0.12040548
000160 65 2b 89 3d 47 b9 35 be 5a b1 04 be 87 34 97 3c
       0.0669773 -0.17746459 -0.12958279 0.018457664
000170 47 c6 82 3d 98 6c e4 3c 15 de 01 3e 94 e2 a6 bd
       0.06385475 0.027883813 0.12682374 -0.08148685

fc3.bias f4 [3]
000000 47 44 a7 3d f8 f0 ac 3d 55 f8 9f 3b
       0.0816732 0.08444399 0.0048818984
