neuronas/cnn_con_img/cnn_fut_uefa_img.pth (torch, 923372 bytes, 8 tensors)

conv1.weight f4 [12, 3, 3, 3]
00000000: 290b 34be 2662 b43d 99ed ae3d 2f67 a63d
00000010: e7ff e4bd 35b0 2a3d fa28 29bd 769f 45be
00000020: f117 95bd c6d8 b33d 768b 82bd 424a 13bd
00000030: c219 8a3c 2a87 1f3e bb9f d3bd 81ea 143c
00000040: 673c 89bd b836 103e 535a ad3d 345b 1f3e
00000050: 54cc a53c 9b75 13be 3b96 a03d 6227 d73c
00000060: 1b78 81bb a59e 63bd 5562 353e c1cb babc
00000070: a75d edbc dd94 1f3e f67e 2abe 108f 3f3e
00000080: 4721 e83d 6ce4 f6bd e568 0c3e d596 0d3e
00000090: dfa8 1cbd 3b37 96bd 7589 fe3b 72ae 8cbd
000000a0: 4a25 133d 4ca2 ae3d 6325 133e 92b5 f83d
000000b0: 7b10 f2bd ba4a 283a 5baa 04be b454 babd
000000c0: b4ae c03d d168 1d3e 7748 163e 3cb1 6bbd
000000d0: 7043 253e cbef c3bc 84fa 293e 1522 53bd
000000e0: bd52 183e abf7 38be aae8 083c abb2 8c3d
000000f0: 5290 033e d1ed 693d ea69 35be 1d1d 2e3e
00000100: e13f 8f3d 6c52 34bd d6c3 21be 5150 2dbe
00000110: c414 1e3d 7341 89bd 221f d3bb ccaf 41be
00000120: 5075 3c3e 44b6 1bbe cddf 103d 058d 35be
00000130: 5b2d adbd e900 aebd 0944 b33d 12db 16bd
00000140: cf1e 4b3d 848d 3d3e 6b56 38bd 84b8 dabd
00000150: 86fe 913c 9c51 b7bd f787 4b3d cd55 3f3e
00000160: c6c7 10be 7ab0 e7bd 5d67 02be 9e97 ad3c
00000170: dd08 ca3d 22f5 ba3d a7b6 cdbd 5c69 103e
00000180: 20a7 10be c740 60bc 1fc1 9cbd f43c ab3c
00000190: de15 7b3d 81f9 b5bd 36b0 d4bd 7cf8 a0bd
000001a0: 0406 da3c 2af4 b1bd 56bd 1ebe 0e86 a6bd
000001b0: e463 6fbd 3b97 8e3d 2ef9 d4bb 9ad2 0b3e
000001c0: 247c 8d3d 3b7b ea3d 207e 4e3d e6d6 3b3e
000001d0: dfa5 e73d 084a 40bd c36f b53d df03 433e
000001e0: ddbb d9bd fc02 ea3c 849a 783d 8fc9 20bd
000001f0: 0236 02be 4f3e ed3d 7f36 37be f7ad f73d
00000200: ac75 c9bd b260 813c 262e c7bd c5a2 eabd
00000210: 216e 09be b4e9 133e 6dff 2cbd bcec 75bd
00000220: c1f1 30be f5bc ca3d 6cc1 2dbb 9a81 31bd
00000230: 650d ecbd 9504 1e3e 45e3 3cbe 70cb db3d
00000240: f9fd 853d d403 a13d 044e 2b3e df77 32be
00000250: e76b d4bd e00d 2ebe ed01 963d 6b1f 0c3d
00000260: a76a a73d 5ecd c4bd 691d 6b3d 7f4a 853d
00000270: 6bb9 d73d 05e3 f43d 6cb4 8c3d 0998 85bd
00000280: 330c 02be 0578 053d 7996 b7bc 1ba8 2e3e
00000290: 67b3 0a3d 4c2b 2dbd ec66 3e3b 1bf4 ebbd
000002a0: 1e3c e9bd 14a4 24be f433 25be dcb6 1bbe
000002b0: 8b4b babd fb81 96bd 246d a6bd c34e e13d
000002c0: f41d 3cbe 4429 2f3e d1b0 e1bd 9677 6e3d
000002d0: 8815 d3bd bc98 283c 809b 073d ad3f 1d3e
000002e0: 4173 d1bd 5bd5 923d 3adc cc3c 1261 173e
000002f0: 58b1 1ebd 5d35 0a3e 775b f1bd 28da ff3d
00000300: e844 c13d a8bf 8ebd 1750 b8bc 106a 5ebd
00000310: 057e 1abe 42bf 3c3e a03a a7bc 761a 8cbd
00000320: 3c1b 02be 4b46 27be 493f 5b3d 6eed 67bd
00000330: 520f 353d 8e42 3d3e 6875 79bd bb2c 07be
00000340: f4cb 8cbd db38 4fbd 6f6b c23c ac77 70bd
00000350: 09de a23c ef51 273e 963d efbd ac27 9cbd
00000360: f35b c63d f21a 46be aa5b 6c3c c532 003e
00000370: a34e 3d3d 5850 45bd ae61 183e dbd2 413e
00000380: 99f1 c2bd c9dc 7a3d 75c7 9b3d 1a31 49bd
00000390: 355b 47bc af26 283c 8eb3 2b3e 759b 493d
000003a0: f203 973d a819 5f3d 6b64 203e 188e acbd
000003b0: 5548 2c3e 957e fb3d d6be 2bbe 71d4 d33d
000003c0: 94f6 3dbd 981d a3bd 45c3 d53d 3515 56bd
000003d0: 0d6e 17bb 83c7 003e 4c4b 1f3e 9a07 cebd
000003e0: 08bc 113d 916c b5bc d2a2 813c cc77 e83d
000003f0: c3aa 063e 16f7 913d 3af1 7e3d d192 c5bd
-0.17582382 0.08807783 0.08541412 0.081251495 -0.11181622 0.04167195 -0.041298844 -0.19299111
-0.07279957 0.087815806 -0.06374256 -0.03595949 0.016857985 0.15578905 -0.103332005 0.009089113
-0.06700974 0.14083374 0.084644936 0.15562135 0.020239033 -0.14400332 0.07841154 0.026263896
-0.0039510853 -0.055571217 0.17713292 -0.022802236 -0.028975321 0.1558413 -0.16649994 0.18706918
0.11334472 -0.12055287 0.13711889 0.13827069 -0.038246986 -0.07334753 0.007767851 -0.0686921
0.035924233 0.085270494 0.1436973 0.12144007 -0.1181955 0.00064198265 -0.1295561 -0.09098187
0.09408322 0.15372016 0.1467608 -0.05754207 0.16139007 -0.023918053 0.1659947 -0.051546175
0.14875312 -0.18063228 0.008356253 0.06870016 0.12848023 0.057111565 -0.17716184 0.17003293
0.06994606 -0.044023916 -0.15797362 -0.1692517 0.038594022 -0.067019366 -0.0064429203 -0.18914717
0.18404126 -0.15206248 0.035369683 -0.17729576 -0.084559165 -0.08496267 0.08753211 -0.036830015
0.04958993 0.18511015 -0.04500429 -0.10679725 0.017821562 -0.08951113 0.049690213 0.18685074
-0.14138708 -0.11312957 -0.12734742 0.02119046 0.09864972 0.091287866 -0.10044604 0.14102691
-0.14126253 -0.013687319 -0.076540224 0.020903088 0.06130015 -0.0888548 -0.10385172 -0.07859895
0.026614197 -0.08689149 -0.15501913 -0.08131038 -0.058444872 0.06962439 -0.006499431 0.13654557
0.069084436 0.114492856 0.05041325 0.18343696 0.11310934 -0.0469456 0.088592075 0.19044445
-0.10631535 0.028565876 0.060694233 -0.03925472 -0.12715915 0.1158415 -0.17891882 0.12093728
-0.09836897 0.015793178 -0.09725599 -0.11456827 -0.13420917 0.1444462 -0.04223578 -0.06004022
-0.17279722 0.09899322 -0.0026512993 -0.04333649 -0.11525992 0.15431435 -0.18446071 0.10732162
0.06542582 0.07862058 0.1672898 -0.1742854 -0.10372143 -0.1699748 0.07324586 0.03420965
0.08174639 -0.09609483 0.057401095 0.065083496 0.105334125 0.11957363 0.0687035 -0.06523139
-0.12699966 0.032585163 -0.022410618 0.17056315 0.033862498 -0.04227762 0.0029053045 -0.11521169
-0.113884196 -0.16078216 -0.161331 -0.15206474 -0.0909644 -0.073490106 -0.08126286 0.11001351
-0.18370801 0.17105585 -0.11020053 0.058219515 -0.10306841 0.010290321 0.03310728 0.15356322
-0.10227061 0.071696006 0.025007356 0.14783123 -0.038743347 0.13496919 -0.11785024 0.12492782
0.09436971 -0.06970149 -0.022499127 -0.054300368 -0.15087135 0.18432334 -0.020413697 -0.068409845
-0.12705702 -0.16335408 0.05352715 -0.056622915 0.044204064 0.1848242 -0.060902983 -0.13200657
-0.068748385 -0.05059133 0.023732869 -0.058707878 0.019881265 0.16339849 -0.116816685 -0.07624754
0.09685507 -0.19346216 0.014426151 0.12519367 0.046217572 -0.048172325 0.14881012 0.18928091
-0.09518737 0.061245713 0.07606403 -0.049119093 -0.012167742 0.010263129 0.16767713 0.04922052
0.073737994 0.054467827 0.15663306 -0.0842554 0.16824467 0.12280003 -0.16772017 0.10343254
-0.046377733 -0.07964629 0.10437635 -0.05226632 -0.0023106367 0.12576108 0.15556067 -0.10060044
0.03557971 -0.022146495 0.01582471 0.113509744 0.13151078 0.07127206 0.06224177 -0.09647144

conv1.bias f4 [12]
00000000: 4b61 1b3e 0476 cd3d 2b85 e03d 9fa5 2b3e
00000010: d2ee bd3d 602a e43c 9600 7fbd a14b 493d
00000020: e0ca 63bd 1441 903d d2af 033e c049 b73d
0.15173833 0.10032275 0.109629 0.16762398 0.09274067 0.027852237 -0.06225642 0.04914439
-0.0556134 0.07043663 0.12860039 0.089496136

conv2.weight f4 [12, 12, 3, 3]
00000000: 8df2 413d e238 4e3d 4c41 5dbc e3fd 8f3d
00000010: 1cb3 c3bd 6975 71bd b997 553d 7a28 e6bc
00000020: b958 47bb cc2b 2c3d 7b43 b8bd 8d5f 56bd
00000030: 43ae b83d e245 03bd 2c1b 3fbd ce65 cbbc
00000040: ff74 bc3d 3fc9 95bc 4134 b7bd 8936 8c3c
00000050: ae40 78bd ec49 0e3d 96df a43d 009c 7835
00000060: bc68 433d d3c8 bfbd 3e71 babd ecd9 b43d
00000070: 3941 903d f740 553d 6649 ac3d ac1a 913b
00000080: fe8a b2bd 7cd9 693d 8469 cdbc e59a 45bd
00000090: 28bf 35bc 8b85 3abb d90d 52bd 819a 82bd
000000a0: 93af eebc adea 20bd b940 48bd 991c 983d
000000b0: 57ff 9ebd 2fcc af3d ea10 443d 4379 f93c
000000c0: b63f 853d 5c05 a63c 7d6d a8bc 17af 8d3d
000000d0: 160d 0339 8c49 693d 29ee 763d c1f7 0b3c
000000e0: 76da b73d 089e 593d 9b03 30bd e285 4ebd
000000f0: a01d 333d b1ba c8bc a099 243d e730 a63d
00000100: e35f ae3d 3f83 803d e2ae 90bd 12b2 a33c
00000110: 638b aa3d ad1a a03d 8084 de38 bf9b a1bc
00000120: 2bd5 c13c 8e56 97bd d325 30bd f537 4e3d
00000130: a05d 80bc 756b 773d 9f78 2bbb 0ea0 783c
00000140: 45f6 b7bd 5cc8 7a3d 116c 3c3d 4bbc a73d
00000150: d7d7 963d 2d85 27bd 01aa 73bc 5112 823d
00000160: eb72 983d bb39 1abd 673b 293c 86c8 9fbd
00000170: 01e5 a6ba ffea 71bc 3bb3 6abd 0d84 703d
00000180: 4fb0 8f3b 5bd7 59bc 250c bc3d c16f d73c
00000190: ea03 18bc 8327 f0bb 0768 31bd 0379 22bd
000001a0: a600 c4bb b4a6 62bd 9140 74bd 5c59 ab3d
000001b0: 0955 59bd f927 5f3d a860 97bd 6979 e63c
000001c0: 79d1 b33d be70 813d eedf 63bc b9cc 14bd
000001d0: 0d30 d6bc c4fc 893d 97b2 7fbc 2b5c 3fbd
000001e0: 49c2 2ebd 9bb9 e2bc f8d7 35bd 9463 d7bc
000001f0: 9f38 543d b24d 4fbd b2bc 39bd 376f 81bd
00000200: 0031 62bd 4547 a3bc 4b33 a5bd 38d3 b13d
00000210: 3704 6b3d 72e6 83bd 4ece 813d e3af 99bc
00000220: 1df7 5cbd d654 9abc ee9f 823c 1626 b0bd
00000230: 15e8 a13c 1e31 8f3d eac1 20bd 1019 89bc
00000240: 0174 97bd 31c2 cabd 0a17 c5bd 7844 97bb
00000250: dd2a 263d 55cf 0ebd e4c7 a03d ee96 653c
00000260: b28e 853d 9965 1d3d 61e2 dfbc b3f0 bbbd
00000270: bc6a a4bd eaf7 21bd cff0 c43d 836f 933c
00000280: fd29 723d 2d02 ca3d 6819 ab39 0a62 823d
00000290: 9835 02bc ec81 1a3d 8409 e83c a1ba adbd
000002a0: 5eb5 933d d144 8abd fc9d a23d 5f23 b53d
000002b0: 9919 a6bd ffe4 f5bc 8e36 b53d 4fd5 4dbd
000002c0: 9a0b 51bc e791 973d 31e5 943d 5b30 5c3d
000002d0: a88b 053d 27eb 8a3d 49ba 8cbd c622 803d
000002e0: c484 f73b db80 bf3c f98b fbbc dd4c 383c
000002f0: b63c 8fbb fab7 b3bd f545 04bd 803c 483d
00000300: 8942 5a3d 8c74 c0b9 30e8 a6bd daaf 23bd
00000310: 5740 003c dfb7 a73d c74e 9e3d bcd6 e63c
00000320: d2d5 37bd 3ce3 a4bc 10f9 e43c 9ece 873d
00000330: 652e 313d 8164 8a3d 3125 c4bd 90f4 a23d
00000340: 3933 273d df1b 0dbc e8f0 c7bd d773 c43c
00000350: e39e a33d 8a6d 88bd 4e60 b6bd f001 7dbc
00000360: ef68 a9bc ed56 2f3d 73c5 82bd 8cb9 56bd
00000370: 3975 bd3c 931a 1f3b e4f9 9fbd 2320 b7bd
00000380: 10f0 423d c5b6 a23d 5c08 a43d f678 7f3d
00000390: 7368 3b3c 0269 143d 7279 b53d f7c7 a33d
000003a0: 4cbb c8bd 1e55 b93d a852 2ebd f1a5 cc3c
000003b0: 44df 7e3d 1cb4 eb3c c98b b33d cc73 8b3c
000003c0: 1dd3 69bd 8220 983c 8938 c63c ac97 8abd
000003d0: ddad 32bd ac66 9ebd 0a42 f43b ab4e 59bd
000003e0: f8d2 d33b b633 713d ba67 89bd 5654 44bc
000003f0: 15ff 94bd 2c17 4d3a 795f f1bc de53 01bc
0.047350455 0.050347216 -0.0135043375 0.07030847 -0.09555647 -0.05894986 0.052146647 -0.028095473
-0.0030417873 0.042033955 -0.08997246 -0.052337218 0.09017613 -0.032049067 -0.046656772 -0.024828818
0.09202003 -0.018284438 -0.089455135 0.017115848 -0.06060856 0.034738466 0.08050458 9.261421e-07
0.047707304 -0.09364476 -0.091036305 0.08830628 0.0704369 0.05206391 0.08412437 0.0044282284
-0.08717917 0.057092175 -0.025074728 -0.048243422 -0.0110929385 -0.0028460945 -0.051282737 -0.063771255
-0.029136455 -0.039286304 -0.04888985 0.074273296 -0.07763546 0.08583867 0.047867693 0.03045333
0.065062925 0.020266227 -0.02056002 0.06918161 0.00012498008 0.056954905 0.06028572 0.008542956
0.08977215 0.053129226 -0.04297219 -0.05042065 0.043729424 -0.024503084 0.04018557 0.08114796
0.08514383 0.06275033 -0.07064606 0.019982371 0.08327367 0.07817588 0.00010610465 -0.019727586
0.023661217 -0.07389556 -0.043004822 0.050346334 -0.015669644 0.060405213 -0.0026164425 0.015174879
-0.08982519 0.061226234 0.046001498 0.08190211 0.07365387 -0.04089849 -0.014872075 0.0635115
0.07443794 -0.037652712 0.010329104 -0.07801919 -0.0012733043 -0.0147655 -0.057299834 0.058719683
0.0043850313 -0.013295974 0.09182004 0.026298406 -0.009278277 -0.007328929 -0.0433121 -0.039666187
-0.0059815226 -0.05533476 -0.059631888 0.08366653 -0.05305961 0.05448148 -0.073914826 0.028134065
0.08780188 0.06320332 -0.0139083695 -0.03632805 -0.02614596 0.06737664 -0.015606544 -0.046718758
-0.042665754 -0.027676394 -0.044395417 -0.0262926 0.05181181 -0.050611205 -0.04534597 -0.06320041
-0.05522251 -0.019931445 -0.08066424 0.08682865 0.057377066 -0.06440438 0.063381776 -0.018760627
-0.053946603 -0.018839281 0.015945401 -0.08601014 0.019763986 0.0699179 -0.03924743 -0.016735584
-0.07395173 -0.0990032 -0.09623535 -0.0046163164 0.04056822 -0.034865696 0.07850626 0.014013035
0.065213576 0.03842697 -0.027329626 -0.09176769 -0.080281705 -0.03954307 0.09616243 0.017997509
0.059122074 0.09863696 0.0003263459 0.06366356 -0.007947348 0.03772156 0.02832485 -0.08482862
0.072123274 -0.06751407 0.079402894 0.08844637 -0.08110351 -0.03001642 0.08848296 -0.050252255
-0.012759114 0.074008755 0.07270277 0.053757053 0.03260389 0.06783133 -0.068714686 0.062566325
0.0075536687 0.023376873 -0.030706393 0.011248794 -0.004371251 -0.08775325 -0.03229328 0.048885822
0.05328611 -0.00036707928 -0.08149755 -0.039962627 0.00782784 0.081893675 0.07729869 0.028178565
-0.04488165 -0.020127885 0.027950794 0.06631206 0.043257136 0.06757451 -0.09577406 0.07956803
0.040820334 -0.008612602 -0.09762746 0.023981018 0.079892896 -0.06661518 -0.089050874 -0.0154423565
-0.020679919 0.04280751 -0.06385317 -0.052423045 0.023127185 0.0024277314 -0.07811335 -0.089416765
0.047592223 0.07945017 0.08009407 0.062371217 0.011438477 0.036232956 0.088610545 0.07997125
-0.09801349 0.09049438 -0.042559296 0.02498147 0.06222464 0.028772406 0.08766896 0.01702299
-0.0570861 0.018570188 0.02419688 -0.0676721 -0.04362284 -0.07734427 0.0074541615 -0.05305354
0.0064643584 0.058887206 -0.067092374 -0.011982998 -0.072752155 0.0007823582 -0.02946447 -0.007893531

conv2.bias f4 [12]
00000000: e186 c03d 80dd fabc 1b63 1fbd 0f48 c0bd
00000010: 2014 2a3d 1f86 97bd 879f a6bd c833 01bd
00000020: f3d1 e2bb cfb2 7ebd 2699 2abd 008c 453a
0.09400726 -0.030623198 -0.038912874 -0.09388744 0.0415231 -0.073986284 -0.08135896 -0.031543523
-0.0069220006 -0.062182244 -0.04164996 0.0007535815

conv3.weight f4 [24, 12, 3, 3]
00000000: 9574 933d 93b0 bbbd 2aa2 64bd d02e 9cbd
00000010: 0658 823d e8b8 a4bc 5739 78bd f8d0 bcbc
00000020: ad9b 523d ed4f 8ebc 1962 4c3d a57f e3bc
00000030: 8448 79bc 49bd 16bd 0171 03bd 7275 623c
00000040: 2d9e 8e3d bdb9 883b e81b 6abd f363 153c
00000050: 4f95 9dbc a382 983d 1f2d 13bd 8213 953d
00000060: 2443 12bd b424 8f39 f095 ffbc 3249 81bd
00000070: 71d4 d3bc 623b a63d ad22 b13d 2da4 743d
00000080: 087b efbb 6874 93bd 4ecf 9d3d 5622 63bd
00000090: 090f ecbc 132e c33d 03fb e5bc a6e9 a63b
000000a0: 3b02 ad3c b750 793d 8581 1bbd c62e 4b3d
000000b0: 7a63 cc3c fdf7 153c d5a4 69bd 5149 773d
000000c0: 07d0 43bd 04a0 89bc 22f8 bbba 6717 b0bd
000000d0: 4fc4 93bd ea0b c13c 7981 243d 57ae a83d
000000e0: 1e3c a53d fccb 833c 7751 e63c 162b b2bd
000000f0: fb27 f23c c36b 9bbd c19d 9b3d c0f7 bb3d
00000100: 54df 753c 6261 93bb 8271 a93d 0a8a 03bc
00000110: 0f78 b9bd 38a9 ad3c a4dc 11bd 21b1 c43c
00000120: 85ad b63d 808a 7ebb 832a 4a3d ed8f 893c
00000130: f267 fa3c 7ac8 9a3d 3cb8 c93b ba1f a23d
00000140: 6730 fc3c bbd2 c03d fc27 43bd 842d 113c
00000150: 85f6 903d 122d 573d 2390 39bd c4c8 95bd
00000160: bf4f 9dbd 2d8a 5c3d f18d 20bd 00dd bcbd
00000170: b68a 903d eb3d 603d cfd1 b13d 56a4 003d
00000180: f461 b6bd 8538 c53d 87f6 af3d 4411 59bd
00000190: f841 333d 3163 b13d 8a94 1dbd b710 433c
000001a0: 7b4d 55bb f98a a6bd ae8d b73c 785c fa3c
000001b0: 188d 92bc 2af9 79bc b54f b9bd b963 23bd
000001c0: 0497 ae3d 7cc7 adbd c505 96bd e0d2 093a
000001d0: 315a cc3d 892b 303b 2d65 90bb b0e1 b3bd
000001e0: 6d74 413c 7264 81bd b128 083d b85f ec3c
000001f0: bf51 31bd 4e53 873d a72e 8d3d ac94 453a
00000200: f26f b9bd 9c32 10bd 1019 823d 9f8e 32bb
00000210: 4bb8 853d 47e8 afbc b620 9f3d 71af 843d
00000220: 5fbf 9e3d 2afd e9bb 00bd a0bb 1fed 6a3d
00000230: f379 4cbc 8875 bdbc c43b 553d ca4c 1f3c
00000240: 61a9 8c3d 638d dd3c 5978 b4bb 7dfe 3d3d
00000250: 3341 263d a19c 46bd 2abf b93d c9b4 9ebd
00000260: 4291 92bd e09d b73d 9e35 ab3d aad9 023d
00000270: 4f48 99bd 6eb3 643d cc7a b4bd d5d7 9f3d
00000280: f215 4dbd d675 cabd afe0 babd 9192 02bd
00000290: fee2 b5bd 5d80 98bd 2962 81bd 19e9 813c
000002a0: 41dc 7e3c 3ead 2d3d d7a6 a3bc 28ab 96bd
000002b0: 49bc 843d c032 7dbb 10ea b9bd 789d 603d
000002c0: 93d4 863d 4e08 393d ba4d 9d3c afa3 a43d
000002d0: 36d4 343d 9ed7 783c b26b 0abd 3a8b 6cbd
000002e0: 7ebc 7abc 3cf2 21bc e296 4fbd 61c6 d4bb
000002f0: 8521 7fbd 401a 86bb f393 4b3d 4681 b3bd
00000300: a6ae a93d 13f2 dbbc e010 fdbb 3788 c43d
00000310: db3a a0bc e1db 46bd ce5d 223c 9e4c 7d3b
00000320: 8ba0 7ebc 80a5 323d 9557 5dbc db62 4ebc
00000330: 06ed c0bd 3ecc 8ebd f4f5 ac3d e0f4 a7bd
00000340: 1a39 0abd 5184 abbd ddf0 3f3d 1b5b 683a
00000350: 212a a53c 5308 a03d b938 1f3d 2ee5 b3bc
00000360: 92bc 663d de45 62bc 281d 8ebd 4e58 813d
00000370: 0680 b0bd f998 0e3d 6df2 c0bd 21ef 0c3d
00000380: b1cb 483d 1ea2 ad39 74f8 a1bc a12e 58bc
00000390: bd76 8cbd 431e afbd 214a 8f3c 6d5f 843c
000003a0: 7f11 3abd 5ddb 75bd b829 48bc 1941 88bd
000003b0: 29dc 84bb 6fc3 22bd ad1c 9a3d 9ccc a4bd
000003c0: d3ff 60bd a887 f53c ac7d a9bd 0131 a4bc
000003d0: a4aa 05bc 407d b1bd 0a38 223d 8b73 fcbc
000003e0: c566 f6bc dc4c b9bc d101 a3bc 54a6 24bd
000003f0: 5e32 33bd 1397 093d 46f5 693d 763c 35bd
0.07199971 -0.09164538 -0.055818714 -0.07626116 0.063644454 -0.020107701 -0.06060156 -0.023048863
0.051417995 -0.017372096 0.04989824 -0.027770827 -0.015215043 -0.03680161 -0.03209019 0.013821946
0.069637634 0.0041725324 -0.05715552 0.009118068 -0.019236235 0.07446792 -0.035931703 0.072791114
-0.03570856 0.0002730243 -0.031199425 -0.06312789 -0.025858136 0.08116795 0.08649192 0.059726883
-0.0073083676 -0.07199937 0.07705556 -0.055452667 -0.028815763 0.09530272 -0.028073793 0.005093771
0.021119228 0.06086799 -0.037965316 0.049605154 0.024949778 0.009153363 -0.05704196 0.060372654
-0.047805812 -0.016799934 -0.0014340917 -0.08598214 -0.07215177 0.023565251 0.040162537 0.08236378
0.08068107 0.016088478 0.028115017 -0.08699624 0.02956008 -0.07588913 0.075984485 0.09178114
0.015006859 -0.004497693 0.08273603 -0.008028517 -0.090561025 0.021198854 -0.03561081 0.024010243
0.08919815 -0.0038839877 0.04935695 0.016792262 0.030567143 0.07557769 0.0061559957 0.079162076
0.030784799 0.09415194 -0.047645554 0.008860949 0.0707827 0.052533217 -0.045303475 -0.07313684
-0.07681226 0.053842712 -0.039197866 -0.0922184 0.07057707 0.05474655 0.08682596 0.031406723
-0.08905402 0.09629921 0.08591943 -0.05299498 0.043764085 0.086614974 -0.038471736 0.011905841
-0.0032547403 -0.08131976 0.022406425 0.03056167 -0.017889544 -0.015257159 -0.09048406 -0.039890025
0.08524898 -0.08485314 -0.07325319 0.0005257558 0.0997814 0.0026881418 -0.0044065923 -0.08783281
0.011807543 -0.063179865 0.03324193 0.028854236 -0.04329085 0.06607686 0.06893664 0.00075371074
-0.09054555 -0.035204515 0.063524365 -0.0027245653 0.06529292 -0.021473063 0.07769911 0.06478775
0.07751345 -0.007140775 -0.004905343 0.057355043 -0.012480247 -0.023127332 0.05205895 0.009722898
0.06868244 0.027044958 -0.0055075106 0.046385277 0.040589523 -0.048489217 0.09069665 -0.07749326
-0.07156612 0.08965659 0.08359836 0.031945862 -0.07484495 0.05583518 -0.08812484 0.078048386
-0.050069757 -0.09885757 -0.09124886 -0.031878058 -0.08881186 -0.07446358 -0.06317551 0.01585822
0.015555442 0.042401545 -0.019977016 -0.07356864 0.06481225 -0.0038634986 -0.09077847 0.054837674
0.06583514 0.045173936 0.019202102 0.08039033 0.044147693 0.015188126 -0.033794113 -0.057749964
-0.015303729 -0.009884413 -0.050681002 -0.006493375 -0.062287826 -0.0040924847 0.049701642 -0.08764891
0.08285265 -0.026848828 -0.007722959 0.095962934 -0.019559314 -0.048549537 0.00991006 0.0038650404
-0.015541206 0.043614864 -0.013509651 -0.012596811 -0.09420209 -0.0697255 0.08445349 -0.08201003
-0.033745863 -0.08374847 0.046860565 0.00088636734 0.02016169 0.07814088 0.038872454 -0.021959867
0.05633218 -0.013810603 -0.06939155 0.06315671 -0.086181685 0.034813855 -0.09421239 0.03440774
0.04902238 0.00033117918 -0.019771792 -0.013194711 -0.06858585 -0.08550694 0.017491402 0.016158784
-0.04542684 -0.060023654 -0.012216978 -0.066530414 -0.0040545654 -0.03973716 0.07525001 -0.08046839
-0.054931473 0.029971913 -0.08275923 -0.020042898 -0.00815836 -0.08666468 0.039604224 -0.030816814
-0.030078301 -0.022619657 -0.019898327 -0.040197685 -0.043749206 0.03359134 0.057118677 -0.044247113

conv3.bias f4 [24]
00000000: 5e42 87bd b640 a4bd 9fc6 293d 6cb1 f8bc
00000010: 97bc 243d d17f aebd 7824 42bd 3aba 3a3d
00000020: af62 873d 57fe 55bd d770 31bd b918 b1bd
00000030: 38a1 79bd 159b 363d 0238 133d 8cf8 9c3c
00000040: 06f0 9cbd 517b 20bd 7b19 ae3b 0cf0 4b3b
00000050: bd59 5f3d abff 4d3d 8e99 a6bd 97c9 853c
-0.066044554 -0.08020155 0.041449185 -0.030358039 0.040218916 -0.08520473 -0.04739806 0.045587756
0.06610619 -0.05224451 -0.043320503 -0.086472936 -0.060944766 0.04458149 0.035942085 0.019161485
-0.07662968 -0.039180104 0.005313096 0.003111842 0.05452894 0.050292652 -0.08134757 0.016331477

fc.weight f4 [3, 75264]
00000000: c9ba 06bb 9031 003b d016 3c3b b0fd 0e3a
00000010: 287c bf3a d3a5 15bb ba48 6d3b f6bc 6abb
00000020: b8dc 51ba 4886 5c3a d8fa 5f3b b43b 083b
00000030: dc94 c43a 9a87 5cbb f463 42ba c08b f0b8
00000040: c241 49bb 6a8f 423b 922b 203b 1c4a 0e3b
00000050: 268d 9c3b 4622 b4ba b99d adbb 6cfa 9c3b
00000060: c38d 743a aecb 7c39 e5f0 9c3a 2a28 c1b9
00000070: 5485 54bb 924e 20bb b0ea 8738 81ce a83b
00000080: 0abe d539 41d0 863b acd1 9c3b 0c7f 2939
00000090: 1065 1abb f0b2 d4b9 802e 193b 64e2 f3ba
000000a0: eedb 6a3b 00cb 99b7 e207 96ba 5f4f 06bb
000000b0: 944b 62bb f091 ff3a 9e02 453b 0a05 83ba
000000c0: a067 ef38 78c5 1f3a 300e c73a 6c21 233b
000000d0: e004 15ba e422 2cbb 4089 973a 1383 efba
000000e0: b83a b4ba b6bb 22bb 78b0 d4ba e0e5 b2b9
000000f0: 74c8 5cba def7 573b 10e9 1cb9 e882 4cba
00000100: e4a5 9f3a 34f7 603b a2d8 2dbb bc7c 3f3b
00000110: 58a4 40ba 14b3 09ba d4eb 33ba 9769 f03a
00000120: a4f2 8e3b e53f 0e3b b0d2 fcba dd4d 14bb
00000130: c37d 51ba 56bb 8d3a b14b 833a 6b96 bb3a
00000140: 924f c83b 0bdb 14bb ef9d 2dbb 77b3 efb9
00000150: 1431 823b 8857 0eba a04f 563a 3400 6cba
00000160: 1a9b 04bb dcb4 0b3b 58cd 6a3b 715c 4bbb
00000170: 6c03 1ab9 c77c 9cba 8bd7 0bbb 887e 273b
00000180: e07e bdb8 74e1 b8ba c025 bfba 704e 3d3b
00000190: 347c 5e3b 3053 c939 0cb0 3dbb 2c38 13ba
000001a0: 808f f438 6643 d8ba 3a1e 1cbb a886 543a
000001b0: 8018 6638 d068 173a d84a d8b9 8064 263b
000001c0: 600d c338 40bf 9b3a 10aa ee39 60a6 b6b8
000001d0: 82e3 66bb f81e 173b d088 ce39 7a4c 2dbb
000001e0: 20d1 ce38 841c d53a 3e37 423b 51b2 56bb
000001f0: 686a aaba 191f 21bb 0b1c cd3b 4622 dbba
00000200: 4005 02b9 2f23 fcb9 dc03 b43b 7a3f 293a
00000210: 140b a2ba ee9a 1c3a 37ec d6ba be76 153a
00000220: 3bd9 233b f4a1 27bb cc06 573b 399c fd39
00000230: 67d9 8b3b 5805 e43a f4bb d339 445e 8d3a
00000240: 4399 47b9 8a57 8039 5097 d637 f16a 9cbb
00000250: 40db a2bb f0af 3f3a 64c5 c53b 13ad 46bb
00000260: 12b4 76bb 4888 693b ac20 68bb aca2 263b
00000270: f087 00ba 0379 ebba 7c60 2aba ac45 1ebb
00000280: cca4 c43a bcbe 913a c757 06bb 045e d93a
00000290: c04b 8639 3295 1dbb 10c9 f43a e4b8 89ba
000002a0: d8aa 23bb 0289 22bb 780b 813a ee2d dd39
000002b0: 0a1a 9ebb 6c51 f639 8e5b 4b3b 18cb f2b9
000002c0: 2514 c439 6c62 ad3a 1210 363b 54fb db3a
000002d0: ae12 333a 660f 743b a64c 67ba f119 d03a
000002e0: b079 383b f417 83bb 4d6e 70bb 7f29 8bbb
000002f0: 1440 afbb 12cb 3c3b a4b3 53bb 56c8 2e3b
00000300: 88c5 87b9 d864 2039 69ee 9f3a 9e38 743b
00000310: 53ba d03b 16fe f939 d857 ad3b 2667 ab3b
00000320: adaf 843b 00a6 d8b8 768f a93b 0698 50bb
00000330: 7db4 af3b be88 dd3b 89ea e639 22c9 d9ba
00000340: 3e09 faba 2a6c 62bb acfe a23b a6ca 20bb
00000350: b380 cfbb 3796 bcbb fe7f 8fbb c4bf 8c3a
00000360: 8216 97bb c083 75ba a01f 693a 2011 603b
00000370: bec9 663b 80d6 9e3a fbfe 69bb 6c4f 873a
00000380: c09b f338 4869 18ba d037 2f3a f227 15bb
00000390: 60bb 6238 909d 0839 123d 433b 1f7d babb
000003a0: 0648 9dbb 2840 8eb8 64d7 80bb ac85 b83a
000003b0: 2276 183a 7764 583b d2f5 49bb d9ad e23a
000003c0: f3e5 a1bb fd1b 49ba 70ff 0ebb 7133 1f3b
000003d0: 4902 cb3a cb74 4d3b 1ce6 d03b b175 99ba
000003e0: 8121 9cbb f8f6 c6bb e4b4 a6ba fb52 fa39
000003f0: f46f 37bb 1fcb 6bbb 51e0 7b3b f63c 9439
-0.002055811 0.0019560792 0.002870012 0.00054546725 0.0014609145 -0.0022834435 0.0036206678 -0.0035818196
-0.0008005607 0.00084123434 0.0034176614 0.002078754 0.0014997977 -0.003365016 -0.0007415407 -0.00011470122
-0.003070936 0.0029687532 0.0024440032 0.0021711653 0.0047775684 -0.0013743124 -0.005298343 0.004790595
0.00093289855 0.0002410847 0.0011973648 -0.00036841753 -0.0032428103 -0.0024460894 6.4810156e-05 0.0051515703
0.00040768116 0.0041141813 0.004785737 0.00016164425 -0.0023558773 -0.0004056911 0.0023373663 -0.0018606898
0.0035836655 -1.833355e-05 -0.0011446441 -0.0020494086 -0.0034529911 0.0019498449 0.0030061374 -0.0009996009
0.0001141571 0.0006094794 0.0015186723 0.0024891747 -0.00056846254 -0.0026265914 0.001156129 -0.0018273316
-0.001375041 -0.0024831123 -0.0016226908 -0.00034122076 -0.0008422204 0.0032954137 -0.00014964142 -0.0007801489
0.0012180177 0.0034327032 -0.0026526828 0.0029218635 -0.0007348708 -0.000525282 -0.0006863449 0.0018342015
0.004362421 0.0021705565 -0.0019288864 -0.0022629418 -0.0007991457 0.0010813277 0.0010017065 0.0014311796
0.006113001 -0.0022713568 -0.002649184 -0.00045719344 0.0039731357 -0.0005429913 0.0008175317 -0.0009002716
-0.002023405 0.0021317517 0.003582796 -0.0031030441 -0.00014687859 -0.0011939042 -0.002133819 0.0025557596
-9.0358546e-05 -0.0014105276 -0.0014583394 0.0028885864 0.0033948543 0.00038399687 -0.0028944043 -0.0005615975
0.000116615556 -0.0016499578 -0.0023821727 0.00081072235 5.485909e-05 0.0005775811 -0.00041254493 0.0025389493
9.300816e-05 0.0011882558 0.00045521604 -8.709426e-05 -0.003523082 0.002305923 0.00039393315 -0.0026443289
9.861798e-05 0.0016259109 0.0029634978 -0.0032760093 -0.0013001682 -0.0024585186 0.0062594465 -0.0016718588
-0.00012399722 -0.000480914 0.005493624 0.0006456297 -0.0012362921 0.0005974014 -0.0016397302 0.0005701593
0.0025001306 -0.002557871 0.0032810448 0.00048372315 0.0042678597 0.0017396612 0.00040385092 0.001078554
-0.00019035213 0.00024479284 2.5581248e-05 -0.0047734906 -0.0049699843 0.00073122885 0.0060354937 -0.0030315563
-0.0037643951 0.0035634208 -0.0035419865 0.002542655 -0.0004903069 -0.0017965141 -0.00064993626 -0.0024150414
0.0015002727 0.0011119465 -0.0020499097 0.0016583805 0.0002561491 -0.0024045226 0.0018675644 -0.0010507372
-0.0024973657 -0.0024800901 0.0009845337 0.00042186625 -0.0048248814 0.0004698144 0.0031029913 -0.00046309154
0.00037399042 0.0013228185 0.0027780575 0.0016783276 0.00068310916 0.0037240623 -0.0008823372 0.0015876872
0.0028148703 -0.004000658 -0.0036686838 -0.00424689 -0.005348215 0.0028807563 -0.003230312 0.0026669702
-0.0002589638 0.00015296356 0.0012201789 0.0037265192 0.006369868 0.0004768229 0.005290013 0.005230802
0.0040492625 -0.000103306025 0.0051745726 -0.0031828894 0.005362092 0.0067606857 0.0004404376 -0.0016615728
-0.0019076241 -0.0034549334 0.004974207 -0.002453485 -0.006332481 -0.0057552117 -0.0043792715 0.0010738303
-0.0046108374 -0.00093656406 0.0008892957 0.0034189895 0.0035215463 0.0012118369 -0.0035704959 0.0010323352
0.00011616154 -0.0005814028 0.0006684037 -0.0022759405 5.4057105e-05 0.00013028667 0.002979104 -0.005691185
-0.0047998456 -6.783038e-05 -0.0039319266 0.0014077923 0.0005815943 0.0033018866 -0.0030816686 0.0017294242
-0.004940742 -0.0007671712 -0.0021819733 0.0024292136 0.0015488352 0.0031350132 0.0063750874 -0.0011708048
-0.004764736 -0.0060719214 -0.0012718705 0.0004774554 -0.0027990313 -0.0035979224 0.0038433264 0.0002827418

fc.bias f4 [3]
00000000: b9a7 b1ba 431b 313b fa23 ba3a
-0.0013554014 0.0027024306 0.0014201396
